dnn_checkpoints/sIMU1.ckpt (torch_old, 542466 bytes, 18 tensors)

layer1.0.weight f4 [32, 1, 6, 1]
000000 48 ec fa bd 1d f0 be bc ce 1c 3c be 60 38 4f bd
       -0.12252098 -0.023307854 -0.18370363 -0.050590873
000010 b6 04 cb 3e bf d7 a4 3d f7 c8 80 3e 99 b2 2c be
       0.39652032 0.08048963 0.25153324 -0.16865005
000020 24 e0 d0 be 11 9c 33 be 2f b1 cb bd 5b 8f d9 3b
       -0.40796006 -0.17540003 -0.099459045 0.0066394038
000030 60 a4 42 3e 0f 4f a0 be 93 cd 8c be 82 3e a0 3e
       0.19008017 -0.31310317 -0.2750059 0.3129769
000040 ff 37 ec bc f6 bf b9 3e f4 55 00 be f2 e1 21 bd
       -0.028835295 0.36279267 -0.12532789 -0.03952212
000050 c1 91 83 be b5 a8 cb bd f3 b8 c2 3d 55 79 c1 bd
       -0.2569714 -0.09944288 0.095079325 -0.094469704
000060 95 61 62 3d a6 78 a2 3e 6c 22 f1 bd bd 0a 19 3e
       0.055268843 0.31732672 -0.117741436 0.14945503
000070 f4 d7 b7 bc 62 3e 4e 3e 22 b0 1b 3d 78 1c 85 be
       -0.022441842 0.20140985 0.03800977 -0.25998282
000080 3a 61 a5 be fc b1 bb be 05 4d 11 be f7 93 ee be
       -0.3230074 -0.3665923 -0.14189537 -0.46597263
000090 72 40 0e 3e ee 12 8f be 13 67 1c 3e 1c 0a d3 be
       0.13891771 -0.2794413 0.15273695 -0.4121865
0000a0 59 c9 0e be ca e3 c3 bd 74 b5 dd 3e 00 12 ef 3e
       -0.13943996 -0.09564932 0.433025 0.4669342
0000b0 ae 8d 34 bd 4e fd c9 3e 3d 10 3d 3e 85 75 93 3d
       -0.04408043 0.3945107 0.18463226 0.072001494
0000c0 bf 8d 53 3e 2a af cd 3d 95 6c d3 3e e8 e0 de bc
       0.2065954 0.100431755 0.4129378 -0.027206853
0000d0 8d 11 58 bd cf 0d e3 bb 61 cf 0d 3e ef 70 97 be
       -0.052751113 -0.0069291363 0.1384864 -0.2957835
0000e0 22 ac cb be 9c 40 6a 3e 75 ce b0 be 16 27 74 be
       -0.39779764 0.22876209 -0.34532514 -0.23843035
0000f0 31 ba c2 be 97 97 9b 3d e6 80 ac 3e c2 b3 d3 bd
       -0.38032678 0.07597273 0.33692092 -0.103370205
000100 43 f8 1c 3e 9e b3 6e bd a1 7a c4 3e 74 c7 2e 3e
       0.1532908 -0.058276765 0.38374808 0.17068273
000110 53 22 9f be d3 98 9b bd 5e 45 7e be 47 1f bf be
       -0.31080875 -0.07597508 -0.24831149 -0.3732855
000120 18 f3 a4 3e 5b 0a 94 bb 27 7d a7 3d 4f 8c 0b be
       0.32216716 -0.004517836 0.08178168 -0.13627742
000130 60 56 05 be 60 e0 c2 bd 71 32 56 3e 99 90 12 be
       -0.1302123 -0.095154524 0.2091768 -0.14312972
000140 5c b3 8a 3e cc 1a 8e 3e f0 7b ef 3d cf d7 9e be
       0.27089965 0.2775482 0.11693561 -0.31024024
000150 f3 ca 8e be f0 e0 5f be cb 6b 9d be c0 6a 6f be
       -0.27889213 -0.2186315 -0.30746302 -0.23380566
000160 07 7d 49 3e ee 6f 99 3d d7 47 35 bd eb 7a ab be
       0.196766 0.07492052 -0.044257965 -0.33492216
000170 2f 47 46 be d7 64 9d 3e e0 07 20 be 3a af 00 be
       -0.19363092 0.30740997 -0.15628004 -0.12566844
000180 03 ae 1f 3e 45 fe 5d be ba b9 97 3d d6 8e 5b be
       0.15593724 -0.21679027 0.074084714 -0.21441206
000190 c3 3b 85 bd 8d b2 0a 3e 26 4b 99 3e 27 b6 4c be
       -0.06505539 0.13544674 0.29940146 -0.1999136
0001a0 a9 f9 91 3d af 32 bf be d1 d3 ae be eb 83 ad be
       0.07127697 -0.37343356 -0.34145978 -0.33889708
0001b0 c6 4d 9d be b9 00 d3 3e 51 45 a4 3e 4b bd aa be
       -0.307234 0.4121149 0.32084134 -0.33347544
0001c0 ad 1f 8a be 24 af be 3e 16 32 72 3d 37 9e 00 be
       -0.26977292 0.37242997 0.059129797 -0.12560354
0001d0 74 c2 c6 3e a1 e7 c0 bd 2c c1 7c 3e 77 fd 22 3e
       0.3882023 -0.0941918 0.24683064 0.15917002
0001e0 ff ed 67 be a4 a1 47 be 42 02 b4 be c3 dd 11 be
       -0.22649382 -0.19495255 -0.35157973 -0.14244752
0001f0 25 e3 17 be 54 88 35 3e bf 76 2b 3e 6f c7 3b be
       -0.14832743 0.17727786 0.16744517 -0.18337797
000200 f6 10 ec bd 4e 42 f7 bd da 9e 84 be 8d e6 30 bd
       -0.115266725 -0.120731935 -0.25902444 -0.04318862
000210 da 46 dc 3c ff 3f a8 3d 63 3b 65 be de 32 5a be
       0.026889253 0.08215331 -0.22385935 -0.21308467
000220 a8 60 5f 3d b2 12 a5 3e d0 0d 3d bd 10 5e 70 bd
       0.054535538 0.32240826 -0.04615575 -0.058683455
000230 5a 47 98 3e d3 3d 7a be 81 43 99 be 64 7f 52 bd
       0.29741937 -0.24437647 -0.29934314 -0.05139102
000240 89 9f 9f be e7 7b 20 3d 39 3a 9c 3e ce cc c4 be
       -0.31176403 0.039180662 0.3051317 -0.38437504
000250 04 c0 29 3e e6 a8 c7 be 87 fb 81 be 2e 11 8a be
       0.16577154 -0.38996047 -0.25387213 -0.26966232
000260 b9 8e 97 3e df 2e a9 be b1 bd 3f 3e 63 88 14 3e
       0.29601076 -0.33043572 0.18724705 0.14505152
000270 dc dc 6d 3e e0 17 34 be 18 68 26 bc 95 a5 9a be
       0.23228782 -0.17587233 -0.010156654 -0.30204454
000280 cb 9a cd be c8 d7 cd be e8 02 d0 be 4a 07 47 3e
       -0.4015716 -0.4020369 -0.40627217 0.19436374
000290 d5 8f 56 be 56 f2 84 be f0 94 b6 bb 42 ae 87 be
       -0.20953305 -0.25966138 -0.005571954 -0.26500136
0002a0 88 45 52 be 4f df 8b 3e ab bd 64 be 9e 9d 83 3e
       -0.20534337 0.27318808 -0.22337978 0.2570619
0002b0 2c 91 0d be 29 31 ca 3e 0a 1e df 3d cd 8b 57 bd
       -0.1382491 0.3949063 0.10894401 -0.05262356
0002c0 54 b4 25 be d7 e0 42 3e 23 30 34 bd dd b8 ab be
       -0.16182071 0.19031082 -0.04399122 -0.33539477
0002d0 92 79 ac 3e ca b5 b0 3e 32 b6 63 be ef 5b 41 3e
       0.336865 0.34513694 -0.22237471 0.18882726
0002e0 82 df f3 bc 60 c8 b2 3e 81 ed 54 3e 6c e4 bc be
       -0.029769663 0.349185 0.20793726 -0.36893022
0002f0 c2 9c b1 3e a7 f0 5e be fc 3b cd 3e 3c 4b b9 3e
       0.3468991 -0.21771489 0.40084827 0.36190212

layer1.0.bias f4 [32]
000000 7f 67 6d 3d 49 a4 9e 3d 38 7e a6 3e a5 de a5 be
       0.05796003 0.07746179 0.32518172 -0.32396427
000010 03 5f 88 3e 06 92 71 3e 48 3f 90 3e 73 f7 c7 be
       0.26634988 0.2359086 0.2817328 -0.39055976
000020 85 dc 9d be d1 70 5c 3d 01 f5 5f bd 45 85 cf 3e
       -0.30832306 0.053818528 -0.054677013 0.40531364
000030 4e 48 be be 60 5e af be 78 7c 6b be c1 25 ae be
       -0.3716454 -0.3425169 -0.229967 -0.3401318
000040 30 fc 0c be 27 9a 2b 3e b5 89 bc 3e 18 f9 12 3e
       -0.13768077 0.16758023 0.36823812 0.14352834
000050 be c9 49 3e f7 40 53 be 10 e7 68 be 54 95 86 3e
       0.19705865 -0.20630251 -0.22744393 0.26285803
000060 29 d8 98 be 97 2f a8 3e eb 74 bf 3c 12 1f 88 3d
       -0.29852417 0.32848808 0.02337118 0.06646551
000070 35 04 5b 3c 8b 43 cf be e3 2d 42 bc 85 71 c8 be
       0.013367702 -0.4048122 -0.011851761 -0.3914911

layer1.1.weight f4 [32, 32, 6, 1]
000000 fe 05 0c bc c4 b0 9f bc 7f b1 7c 3d 0b bf 99 bc
       -0.0085463505 -0.019493468 0.06169271 -0.018767854
000010 d0 af ec 3c 5e f5 8b 3c 16 4f 70 3d 13 ee 13 3d
       0.028892428 0.017084774 0.058669172 0.036115717
000020 2a 3b 8c bd 27 c7 87 bd cf 17 29 bd af 35 53 3d
       -0.06847222 -0.06629782 -0.04128247 0.05156487
000030 60 75 78 bd cb 16 97 bc 8b c4 51 bd 5a 3c 5b 3d
       -0.060658813 -0.018443486 -0.05121283 0.053524353
000040 64 86 be bc db 5d 60 bd 03 4b e5 3c 67 04 a4 bd
       -0.023257442 -0.054777008 0.02798987 -0.08008652
000050 6c 34 85 3d 5f 9d 25 3b d6 47 6e 3d 7c 68 38 3d
       0.06504139 0.0025270802 0.058173977 0.04502152
000060 97 b3 80 3d 7e 9f 92 39 eb 54 1d 3d b9 b9 2b 3d
       0.06284254 0.0002796612 0.038411062 0.041925166
000070 4c 5a 70 3d d8 aa df 3c 2f 47 d5 bd 9c d8 bc bc
       0.058679864 0.027303144 -0.10413968 -0.023052506
000080 14 a1 c4 3b e1 78 aa bd 51 50 68 bd 84 a6 35 bc
       0.0060006473 -0.08323837 -0.05671722 -0.011087064
000090 9a 0a 4c bd 4a 0f 85 bd 25 ea a3 bc 3c 98 4e b9
       -0.049814798 -0.06497057 -0.02000911 -0.00019702403
0000a0 28 d6 32 bc bf 70 ab bd ac 13 d5 3d 59 c6 17 3d
       -0.010915317 -0.08371114 0.10404143 0.037054393
0000b0 bc e7 00 3b 7e 6d 56 3d 0f ee 71 3d 91 c1 14 bc
       0.0019669374 0.052350514 0.05906492 -0.009079353
0000c0 76 32 ba 3d c3 88 3f bd 1c 89 6b 3d b0 b8 7c 3c
       0.09091656 -0.046761286 0.057503805 0.015424892
0000d0 0a f3 e0 3c fa c7 d0 3a 60 bc cc 3c ca 2a 7b bd
       0.02745964 0.0015928738 0.024992168 -0.061320104
0000e0 29 eb 63 bd 06 20 fe 3b 3c 89 99 bd 82 e9 34 bd
       -0.055644188 0.0077552823 -0.074968785 -0.044168003
0000f0 64 ff 17 bd 14 ff 77 3d dc 28 c9 bc d0 9f 15 3c
       -0.037108794 0.060545996 -0.024555616 0.009132341
000100 63 d5 85 bd b0 3b 93 3d 18 9f 55 bd ff 17 2e 3d
       -0.06534841 0.07189119 -0.052153677 0.042503353
000110 56 1e a7 3c f9 f3 51 bd 5d 1a 1d 3d 2a 67 9a bd
       0.020400207 -0.05125806 0.03835522 -0.07539208
000120 ee 7b 02 3d a2 0b b8 bc 5e 5f 55 3c ea 7a 8a bc
       0.03185647 -0.022466484 0.013023226 -0.016904313
000130 87 c6 08 3c cd 24 58 3d c4 39 ff bc 73 25 66 3d
       0.008348114 0.05276947 -0.031155474 0.056188058
000140 5e bf 23 bd 5b 65 85 3d 5f b5 41 bd 6e b7 86 3d
       -0.039977424 0.06513473 -0.04729211 0.06577955
000150 60 b9 7d bc a1 ec a0 bd 44 6e 23 3d 39 28 9d bd
       -0.015486091 -0.078576334 0.03990008 -0.076736875
000160 56 ef 4d bd 8d 81 5a bc b1 4a 5f 3d 3a 60 c0 bc
       -0.050277077 -0.013336551 0.05451459 -0.023483384
000170 d7 2b 72 3d 24 00 2f bc ed 81 37 bd 9e 8a 43 3d
       0.05912384 -0.010681186 -0.04480164 0.047739618
000180 3c 90 13 bd c5 a1 02 3d 1c 28 54 3d b5 ae 92 bd
       -0.036026224 0.031892557 0.051796064 -0.07162229
000190 74 5a 09 3d 2c 34 28 bd 0b a0 67 3d 5d 9b 30 bd
       0.03353353 -0.04106538 0.056549113 -0.043116916
0001a0 a9 5b be bc ae 5f 52 3d cb 4b 93 bc a6 43 06 3d
       -0.023237066 0.05136078 -0.017980477 0.03277936
0001b0 1d cc c2 3c 33 40 58 bd 7b 11 78 bd b0 38 bb bc
       0.02377897 -0.0527956 -0.060563546 -0.02285418
0001c0 2f 31 84 3b 92 6a d3 3b a1 be aa 3c 6d 8a 47 bd
       0.0040341835 0.006451913 0.020842852 -0.048715997
0001d0 2f fc 3b 3d a3 93 ac bc e9 f4 22 bc 29 fd 39 3c
       0.045894798 -0.021066492 -0.009946086 0.011351862
0001e0 f6 b8 fd bc a0 1b 70 bd 94 68 9c bd c9 ad 85 bd
       -0.030971985 -0.058620095 -0.07637134 -0.065272875
0001f0 30 f8 13 3d f1 5a 90 bd 73 07 57 3d 5f 46 55 bc
       0.036125362 -0.07048596 0.05249734 -0.013017266
000200 fc 3f 17 3d fc 51 48 bc 70 62 0b 3c 8b eb 87 3c
       0.036926255 -0.012226578 0.008507356 0.016591808
000210 7c c5 6e bb b2 67 6b 3d 49 c1 90 bc e1 74 18 3d
       -0.0036433628 0.05747194 -0.01767029 0.03722084
000220 25 9c 24 bd 89 8a 5a 3d 05 2f e1 3c b0 c2 7a 3c
       -0.040187974 0.053354774 0.027488241 0.015305206
000230 c9 7b 12 bd 7f ed 7e bd 3b e3 90 bd 08 07 41 bc
       -0.035762582 -0.062238213 -0.07074591 -0.011781462
000240 11 3c 34 bd 04 64 8c bd b5 f0 d4 bc f1 d3 5a 3d
       -0.044002596 -0.06855014 -0.025993684 0.05342478
000250 a5 2d 08 bd d1 e1 6a 3d 5e 44 1f bd 9a 75 d0 bc
       -0.033246655 0.05734426 -0.03888356 -0.025446702
000260 57 56 4d 3d dd 63 9c bc a9 68 39 3d 49 bc 0f bd
       0.05013117 -0.019090587 0.045265827 -0.035091672
000270 30 7f 26 3d f7 30 5d 3c 2b b5 8e bd a4 a4 17 bd
       0.04064864 0.013500444 -0.06968149 -0.037022248
000280 0c 48 5f bd e6 2d 68 bd 61 4b 85 bd a9 c1 9f bd
       -0.05451207 -0.056684397 -0.06508518 -0.078006096
000290 c9 6f 4b bd d8 18 78 bd cf 69 e3 bb 2e ae bf 3c
       -0.049667154 -0.060570568 -0.0069401036 0.023398485
0002a0 f1 82 a8 bc e2 b8 9b 3d 02 2f 97 3c 57 72 05 3d
       -0.02057025 0.07603623 0.018455032 0.032579746
0002b0 4c 0a f2 bc 27 c7 07 bd ba 99 4b bd 39 45 80 bc
       -0.029545926 -0.03314891 -0.049707152 -0.015658008
0002c0 2c 75 ea 3c 3d aa 1d bd 65 b2 f1 bc 6b 20 b8 3c
       0.028620325 -0.03849243 -0.02950401 0.022476396
0002d0 97 77 ea 3c 6e 6b 6f 3c 49 f9 77 3d d1 4f 3f bc
       0.028621478 0.014613016 0.06054047 -0.011676745
0002e0 bf 72 c5 3c d7 32 62 3d 0d 1e 9c bc 02 1c aa 3d
       0.024102567 0.055224266 -0.019057298 0.08306123
0002f0 06 b8 22 3d f1 d7 a3 3d fc 4c 1e 3d f7 58 47 3d
       0.03972628 0.08000172 0.038647637 0.048668828
000300 ed 36 32 bc 87 38 2c 3d 94 f4 12 bd 47 8f 7c 3d
       -0.010877353 0.042046096 -0.03587778 0.061660077
000310 4f f4 d5 3a e7 a0 63 3d 95 52 66 bc 92 52 c8 3c
       0.001632342 0.05557337 -0.014057775 0.024453435
000320 43 d4 05 bd 00 c0 88 bd fe 55 ae ba a2 17 99 bd
       -0.03267313 -0.06677246 -0.0013300774 -0.07475211
000330 5d b8 4c 3b e8 20 a1 3c 7f 56 cd 3c ca 5b 84 3c
       0.0031237819 0.019669011 0.025065659 0.01615705
000340 a2 d5 2c bd 93 8b ba 3c 82 b0 1b 3d 5f 44 94 bd
       -0.042195924 0.022771632 0.038010128 -0.07239603
000350 02 73 51 3a 94 f2 55 3d 37 2a 01 3d 95 ca 68 3d
       0.0007989855 0.052233294 0.0315344 0.056833822
000360 8a 2b a1 3d 10 e5 31 bc fc d9 2a bd 57 91 98 3d
       0.078696325 -0.010857835 -0.041711792 0.074495964
000370 8a 96 fd 3c c1 5d 39 3d 73 7d a8 bd 7e a8 9d 3c
       0.030955572 0.045255426 -0.082270525 0.019245382
000380 6a 2e 49 3d e8 a3 19 3d c0 24 d6 bc 84 fc 20 bd
       0.04911653 0.03750983 -0.02614057 -0.039303318
000390 28 b1 8c bd 8b 2a 08 3d f8 8e 8c 3c aa 9e db bb
       -0.068697274 0.033243697 0.017158017 -0.006702264
0003a0 4e 2e 5d bd 2e 32 71 3d d8 97 1c bd b4 46 98 3d
       -0.053999238 0.058885746 -0.038230747 0.074353606
0003b0 1e d3 1a bd a3 88 a1 3d f8 e5 76 3d f4 d9 33 3c
       -0.037798993 0.078873895 0.06027791 0.010977257
0003c0 21 ff 11 bd 68 c0 90 3d c6 ba b3 3c b1 29 5d 3c
       -0.0356437 0.070679486 0.021939646 0.01349871
0003d0 d6 eb a0 3b ff 5d 85 bd 23 b6 93 bd 28 a3 08 bc
       0.0049109263 -0.06512069 -0.07212474 -0.008339681
0003e0 32 b1 31 3c 5f 2f 86 ba b6 7d 4a 3c 1a 67 4e 3b
       0.010845469 -0.0010237506 0.012359073 0.0031494559
0003f0 fe b2 6e bc e5 86 83 bd cd 4d 6c bd f4 c2 7a 3d
       -0.014569042 -0.064222135 -0.057691384 0.061221078

layer1.1.bias f4 [32]
000000 1b ba 36 bd b6 bf 68 bc 3a 87 0c bd 34 51 7c 3c
       -0.044611078 -0.014205864 -0.03430865 0.01540022
000010 9b 57 76 b9 e8 39 92 3d 37 98 ea 3c dd 89 40 3c
       -0.00023493024 0.07139951 0.028637035 0.011751619
000020 45 77 d6 3c 42 6e 82 bd 01 2b 38 3d 11 14 81 bc
       0.026179919 -0.06368686 0.044962887 -0.015756639
000030 cf 01 38 3c 2d 35 5a bd ac dd 61 bd 72 00 7f bd
       0.0112309 -0.05327337 -0.055143043 -0.062256284
000040 34 55 c5 3c 10 f9 77 bd de 52 52 bd 98 72 d2 3c
       0.02408848 -0.06054026 -0.05134856 0.025689408
000050 85 32 5e 3d e3 ac 84 3d 37 f2 03 bd b0 d8 35 3c
       0.054247398 0.06478288 -0.032213416 0.011099026
000060 ce 91 9b 3d 51 b4 71 3d f5 6f a0 bd d9 88 08 3d
       0.075961694 0.059009854 -0.07833854 0.033333633
000070 f0 e9 92 bd 4f 39 6c 3d 4a 06 56 3d bc 48 36 3d
       -0.07173526 0.05767184 0.05225209 0.04450296

layer1.2.weight f4 [32, 32, 6, 1]
000000 4c f0 44 3d dc 12 9b bc a7 d5 db 3c 0c e2 53 bc
       0.048080727 -0.018929891 0.026835276 -0.012932312
000010 ce 14 1b bc f4 39 41 3d 7a 28 25 bd dd 63 8f bd
       -0.009465409 0.04717441 -0.040321805 -0.07001469
000020 a1 ae 44 3d 86 f0 59 bc 23 bd 71 3c f3 6d 92 bd
       0.0480181 -0.013301974 0.014754566 -0.071498774
000030 58 d6 94 3a 31 fa 2b 3c ea 69 47 3d a1 7e 6a bd
       0.0011355383 0.010496662 0.048684992 -0.05724967
000040 fc f6 5c bd c7 dc bd bc 97 06 27 3c 5a c0 62 bd
       -0.05394648 -0.023176564 0.010194442 -0.055359222
000050 da bb 80 3d 4b 4a 4e 3d 2e e4 29 bd 6a 6a b4 3c
       0.0628583 0.05036382 -0.041477375 0.022023398
000060 88 f8 34 3a 64 b4 88 bd 14 5c 80 3c 7b 5a 45 3d
       0.0006903489 -0.06675032 0.015668906 0.048181992
000070 72 fa 29 bd 28 89 1d 3b 71 da 42 bd 76 23 4a bd
       -0.04149861 0.002403805 -0.047571603 -0.049350224
000080 01 1d 31 3d 0a e9 d6 3c de 61 7e bc de 74 35 3b
       0.04324055 0.026234169 -0.015526263 0.0027688066
000090 85 6f f2 bb ad 8e 1d 3d fe 77 39 bc 46 9f 2f bb
       -0.007398548 0.038466144 -0.011320112 -0.0026797815
0000a0 9d 9c 60 bd 01 42 91 bb 5c 33 67 bd ee 11 4b 3d
       -0.054836858 -0.004432917 -0.056445464 0.049577646
0000b0 70 a8 b3 bc a2 91 5e bd 0c e3 76 bd f5 85 e8 bb
       -0.021930903 -0.054338105 -0.060275123 -0.007096047
0000c0 22 a8 7f 3b 33 3b 37 3d da 84 2b 3d 1b 48 f8 3c
       0.0039010127 0.04473419 0.041874744 0.03030782
0000d0 70 66 97 3d 83 ca 09 bc 54 08 08 3d dc b2 6a bd
       0.07392585 -0.008410099 0.033211067 -0.05729948
0000e0 c1 b8 7e bd 07 db 71 3d 74 6b b1 3c 82 7b 90 3d
       -0.062187914 0.05904677 0.021657683 0.07054807
0000f0 cd bf f5 3c 57 ce bd bc 30 82 fe 3b 4d 26 d5 bb
       0.029998684 -0.02316968 0.0077669844 -0.00650481
000100 1b d5 3e bd 47 20 39 3c a5 fd ab bc 53 a6 7a 3c
       -0.046589952 0.011299199 -0.02099497 0.015298444
000110 30 95 a9 bc f3 38 e9 bc 66 3a 38 3c 73 89 95 3c
       -0.020701021 -0.028469538 0.011244392 0.018254017
000120 2e a4 e5 3b 04 a8 8e bd 89 2b 11 3d e7 a2 b9 bc
       0.007008097 -0.0696564 0.03544191 -0.022660686
000130 1a 36 c7 bc 05 20 e4 3c 61 c0 92 3a 35 3f b6 3c
       -0.02431779 0.0278473 0.0011196249 0.022246936
000140 df a9 a2 3c 9c 3e 29 bd 5b 6e 3b bd f3 f2 c2 3b
       0.019856391 -0.041319475 -0.04575954 0.005949372
000150 d5 f1 74 3d 6f 66 42 3d fd af 3d bb b7 b7 92 bd
       0.05980094 0.04746097 -0.0028944009 -0.07163947
000160 c2 73 92 bd 5f 5a 29 3d 5c e8 16 bd 33 69 82 3c
       -0.07150985 0.04134595 -0.03684269 0.015919304
000170 67 a2 a4 3b c5 fc 2d 3d c3 97 2c bb 12 9b 18 3d
       0.0050242427 0.042477388 -0.0026335574 0.03725726
000180 2a 02 dc bb 82 ad 24 bd d8 7c 4c 3c 71 f2 91 bd
       -0.006714125 -0.040204532 0.012480937 -0.0712632
000190 48 78 7d bd 84 74 21 bc 01 5a d2 3b 60 67 fc 3c
       -0.061882287 -0.00985444 0.0064194207 0.030811012
0001a0 f1 18 8a 3d ef 4b 3e bd 92 7f 87 bd b6 44 df b9
       0.067430384 -0.046459135 -0.06616129 -0.00042585068
0001b0 c6 e7 82 3d ab ff 56 3d 30 4e 1c 3d 42 d2 61 bd
       0.063918635 0.052489918 0.038160503 -0.055132158
0001c0 db 5b dd bb 2f bd 1f 3c 4b b7 fb 3b 5c 4b 9d 3d
       -0.006755335 0.009749695 0.0076817623 0.07680389
0001d0 6a 37 52 3c 93 9d c8 3a c7 4d 84 3d 5e 5a 3f bd
       0.012830595 0.001530575 0.06460147 -0.04671704
0001e0 a8 65 07 3d c4 a2 d9 bb 7f 4d 92 bd 2f 2a 93 bd
       0.03305593 -0.0066417176 -0.071436875 -0.0718578
0001f0 3a 89 ec 3c 8f 2a 79 bc 3e ca 4c 3d 4f f9 12 bc
       0.028874028 -0.015207901 0.04999756 -0.008970573
000200 c7 15 22 3c fb 7f 86 bd 5b 41 69 3d 8c 50 6a bd
       0.009892887 -0.06567379 0.056947093 -0.05720572
000210 23 45 25 3d 7c 83 2d 3d 5c d3 59 3d dd a2 8d bd
       0.040349137 0.04236172 0.053180084 -0.06915829
000220 6d ef 29 bc a9 bb 71 3d f8 6a c6 bc 60 50 7d 3d
       -0.010372025 0.059016857 -0.024220929 0.06184423
000230 c0 0d 87 3d 52 be 56 3d 02 2b 90 bd 9b a4 a9 bb
       0.065944195 0.052427597 -0.07039453 -0.005177093
000240 20 40 c6 3c cc 9f 84 3c 6c c2 38 bd 26 12 b7 3c
       0.024200499 0.016189478 -0.04510729 0.022347521
000250 39 38 b6 3c d6 bf 60 bd 83 03 8b bd 36 dd cf bc
       0.022243606 -0.05487045 -0.06787779 -0.025374036
000260 36 fe 9e 3c 42 76 3e 3d 41 f9 62 bd 49 f5 c0 bc
       0.019408327 0.0464995 -0.05541349 -0.023554461
000270 b0 65 fd 3c 24 d6 1e bd 79 03 80 bd 63 e2 91 3d
       0.030932277 -0.03877844 -0.06250662 0.07123258
000280 46 e7 d6 bc 1c 03 91 ba 86 02 11 bd 73 d2 98 bd
       -0.026233327 -0.0011063549 -0.035402797 -0.07462015
000290 be fb c5 3c d1 cc a9 3c b0 fc 62 3c 27 10 ef ba
       0.024167892 0.020727547 0.013854191 -0.0018239067
0002a0 fd 3e 8b 3d b6 72 cf 3c 45 77 45 bc 93 f2 33 bd
       0.067991234 0.025323253 -0.012052362 -0.04393251
0002b0 71 75 15 bc a8 f7 3c 3d bb 54 81 bd ac 8e 5b 3d
       -0.0091222385 0.04613462 -0.06314989 0.05360286
0002c0 bf ad 7c bd 6b 57 16 3d b8 97 85 bd 4a 08 37 bd
       -0.061689135 0.036704462 -0.06523079 -0.04468564
0002d0 c9 b4 16 bd 3f a2 7a 3d 5e a6 03 3d 38 58 50 bd
       -0.036793504 0.061189886 0.032141082 -0.050865382
0002e0 04 8b 95 3d 14 71 1f 3d 3c 84 df bc b3 f5 08 3d
       0.07301906 0.0389262 -0.027284734 0.033437442
0002f0 04 92 9e bd 93 3e 85 bd eb 30 41 3d a2 96 aa bc
       -0.07742694 -0.06506076 0.047165792 -0.02082378
000300 e5 3f 1d bc 57 1b 98 bd 63 8b b2 3c 55 52 34 bd
       -0.009597753 -0.0742709 0.02179498 -0.04402383
000310 b2 14 a4 3c 14 50 31 bd 23 b9 81 bd ed 3f e6 3c
       0.0200294 -0.04328926 -0.0633414 0.028106654
000320 91 f0 62 bd 2a d5 14 3d d2 86 a2 bc b9 44 2a 3d
       -0.055405203 0.0363361 -0.019839678 0.041569445
000330 23 a7 53 bd 5d 70 6c 3d 0d 08 03 bd 8f de af bb
       -0.051673066 0.057724345 -0.0319901 -0.005367107
000340 81 0f f0 bc d3 32 21 bd 6d eb a5 bb 90 76 55 3d
       -0.029304268 -0.03935511 -0.0050634653 0.052115023
000350 ed 66 43 bb 9c bf 84 3d 4b 5f 11 3d 3e 3b 3f 3d
       -0.0029815987 0.06481859 0.03549127 0.046687357
000360 31 ac fe 3c c0 54 5c bd b5 ba 63 3d 60 f5 d4 bc
       0.031087967 -0.05379176 0.05559798 -0.02599591
000370 33 b2 67 3c da 53 b7 3c 16 f4 f1 bc 36 d2 69 3d
       0.014141607 0.02237885 -0.029535335 0.05708524
000380 6d 6c 18 bd 3f 53 f6 3c 7e 14 87 3b 72 0e d0 3b
       -0.037212778 0.030068992 0.004122316 0.0063493783
000390 4b 36 94 3c 84 4f 26 bc f6 1c b1 bc 77 9f 06 3d
       0.018092295 -0.010150794 -0.021620255 0.03286692
0003a0 69 5a 19 3d 78 1a 02 3d fd 95 86 bd db 63 16 bd
       0.037439737 0.031763524 -0.06571577 -0.036716323
0003b0 59 ad 49 bd 20 05 a9 bc fd 77 5f 3c 3e 82 38 bc
       -0.049237583 -0.020632327 0.013639447 -0.011261521
0003c0 b2 57 92 3d 74 d4 83 3c ae d1 c1 3d c0 b2 29 3d
       0.07145633 0.016092516 0.09463821 0.041430235
0003d0 61 60 a1 bc 0b b1 65 3d dd cb b9 3d a7 09 99 3d
       -0.019699277 0.056077044 0.09072087 0.07472544
0003e0 e1 a2 ca bc 26 11 32 3d c9 e7 d8 bb 3b 49 2a 3d
       -0.02473587 0.043473385 -0.006619428 0.041573744
0003f0 de fd b1 39 46 a2 f7 bc cc 8b 4b 3d 06 b1 ee bc
       0.00033949217 -0.030228745 0.049693868 -0.029137146

layer1.2.bias f4 [32]
000000 6d eb 20 bd 50 b6 3c 3d 24 96 60 bc 6a e2 aa 3c
       -0.03928702 0.046072304 -0.013707671 0.020859916
000010 57 30 02 bd 00 dc 4e 3d dc 9f 66 3d 97 6c 62 bc
       -0.03178438 0.050502777 0.056304798 -0.013819835
000020 da 7c ba 3d a2 9f 5b 3d ae 44 df bc 2a cb 39 3d
       0.09105845 0.053619035 -0.027254429 0.045359768
000030 fd 35 5a bd 25 12 44 bd 5d a3 58 3a 38 bb 1e bc
       -0.053274143 -0.047868866 0.0008264089 -0.009688191
000040 89 e4 31 3d 98 09 b2 3c 22 b1 83 bd 5a 37 32 bd
       0.04343084 0.02173309 -0.0643027 -0.04350982
000050 97 7f 40 bd 96 ed 8d bd 64 c7 6e 3d 03 27 8f 3d
       -0.04699668 -0.069300815 0.058295622 0.06989863
000060 ec 7f 52 3d 9c 3b c6 bc 44 d6 83 bd 1d 3d 93 bd
       0.051391527 -0.024198346 -0.06437352 -0.07189391
000070 04 3c 46 3d b0 be 65 bd 86 80 f8 bb 82 35 27 bc
       0.04839708 -0.056090057 -0.0075836806 -0.010205628

layer1.3.weight f4 [32, 32, 6, 1]
000000 c8 e8 cd 3b 8b 88 62 3d be db 81 3c 36 d4 1e 3c
       0.006283853 0.055306 0.015851852 0.00969415
000010 f3 1f 00 3d f0 27 eb 3c ce b1 21 bd 4b a2 2b 3d
       0.03128047 0.028705567 -0.03947621 0.04190282
000020 4f 9b d9 bb 81 44 1e 3d 2d 2f 4c bd e9 ec e5 bc
       -0.0066408287 0.03863955 -0.049849678 -0.02806707
000030 cc b4 a2 bc e7 c1 00 bd c8 b2 a0 bc c3 c9 70 3d
       -0.019861601 -0.03143492 -0.0196165 0.058786165
000040 49 b2 6c bd 5a c8 9a bd 20 c1 87 3d 78 dc ea bb
       -0.057787213 -0.07557745 0.066286325 -0.007167395
000050 73 e7 56 3d f2 80 b1 bc a6 16 3a bd 5e fd 46 3d
       0.05246682 -0.021667931 -0.045431755 0.048581474
000060 0e 7e 76 bd 7e 84 da 3b 13 d2 ec 3c 72 eb 54 3d
       -0.06017881 0.0066686263 0.028908765 0.05198235
000070 6f 7a 6c 3d fd 9f 64 bd 24 05 7e bd 24 89 53 3d
       0.05773395 -0.05581664 -0.06201662 0.05164446
000080 18 68 0c bd db d1 3c bd 83 20 7e bd ce d2 ef bc
       -0.03427896 -0.04609857 -0.062042724 -0.029275324
000090 81 c1 da 3c be 9e 66 3d 4f 0c 94 3d 0d 7a 7d bc
       0.026703598 0.056303732 0.0722891 -0.015470994
0000a0 19 09 97 bc 11 40 14 bd 24 34 7a 3c 60 cd 4d 3d
       -0.018436955 -0.03619391 0.01527122 0.05024469
0000b0 b9 39 13 3c c6 ed c6 3b 7a 7c 14 bd bb d0 55 bd
       0.00898593 0.0060708253 -0.036251523 -0.052201014
0000c0 e3 5f ea bc 96 d6 e2 bb 40 93 7d bd 70 4f 42 3d
       -0.028610175 -0.0069225533 -0.061908007 0.04743904
0000d0 9e 7d 9a bd d6 aa 83 bd c1 bd 80 3d 8e 23 7d 3b
       -0.07543491 -0.06429069 0.06286193 0.0038625929
0000e0 bf 9e c9 bc b9 52 80 bc 45 63 2e bd 6f 7c c9 3c
       -0.024611829 -0.015664445 -0.04257514 0.024595467
0000f0 5f dd ff bc 08 d5 15 3d be 1b fd bc 0f 16 2f 3d
       -0.031233488 0.036580116 -0.030897018 0.042745646
000100 47 08 b9 3c 47 7a d5 3b 6f a4 6c ba c1 99 6e 3d
       0.022586955 0.0065148207 -0.0009027188 0.0582521
000110 ab 91 6e bd f2 08 c0 3c ee bb 8e bd 88 bb 24 3d
       -0.05824439 0.023441765 -0.069694385 0.040217906
000120 7a 66 cc 3b 1c b8 f0 3b 5c f2 93 bd ac e4 e7 3b
       0.006237802 0.0073461663 -0.07223961 0.0070768204
000130 b9 42 4a bd fc 3e 26 3d f5 0f 69 3d 1a 34 9c bc
       -0.049380038 0.04058741 0.056899983 -0.019067813
000140 a8 65 62 3d d3 31 e0 bc e1 67 a5 3d 90 a5 2b 3d
       0.05527273 -0.027367508 0.08076454 0.04190594
000150 b0 48 01 3c d9 62 5a 3d 0a a5 74 3d a7 de 1e bd
       0.007890865 0.053316925 0.059727706 -0.038786557
000160 2c ca 29 3d 64 c2 0b bc cf 60 40 3d 80 fb 51 3d
       0.04145257 -0.008530233 0.046967324 0.05126524
000170 95 9e 06 3d a2 07 31 bd da bc 1e bc 18 40 3e 3d
       0.03286608 -0.04322017 -0.00968858 0.046447843
000180 82 43 4e bb 84 ba 91 3c 5e 7c b9 bc b8 a1 96 3d
       -0.0031473343 0.017789133 -0.02264231 0.07355064
000190 2d ab a1 bc 1e 55 94 3c 01 76 7a bd 38 b6 64 bd
       -0.019734943 0.018106993 -0.061147694 -0.05583784
0001a0 03 76 db 3c 50 ab 79 bd 22 85 c3 bd 3d d9 64 3c
       0.02678967 -0.060954392 -0.095468774 0.013967809
0001b0 ad 3d 93 3d b7 aa 8d bc 76 ea 89 3d 36 73 8a bd
       0.07189498 -0.017293317 0.06734173 -0.06760256
0001c0 b2 71 bf 3a 8d 9b 51 3d 8f 7b b0 3d 99 75 11 3d
       0.0014606027 0.051173735 0.08617317 0.03551254
0001d0 62 af a6 3c 89 2a c7 3c 54 4d a5 bc 85 7a 92 bc
       0.0203473 0.024312275 -0.020178474 -0.017880687
0001e0 6e b8 8f 3c 8e cb 9d 3d bf 08 b4 3d 3e 7c 47 bd
       0.017543998 0.077048406 0.08790731 -0.04870247
0001f0 e9 b3 6b 3d a1 fe 12 bd 63 73 b1 3c e7 1e 4b bd
       0.057544623 -0.035887364 0.021661466 -0.049590018
000200 ec 0c 84 bd a2 e4 63 3d f2 64 51 3c 28 5b 1d bd
       -0.06447777 0.055637963 0.012780415 -0.03841701
000210 61 e1 10 bd 35 0f 45 3c 98 4c 7a bd 35 97 1e bd
       -0.035371188 0.012027551 -0.0611082 -0.03871842
000220 49 73 60 3d d0 57 7f bd 61 d4 a5 3c ee 04 0a 3d
       0.054797444 -0.062339604 0.020242872 0.033696108
000230 4a e5 d2 bc d8 11 a9 3c 34 68 16 bd df 0e 1f 3d
       -0.0257441 0.020638391 -0.03672047 0.03883254
000240 4f 36 aa 3a 2c 79 50 bd d7 91 e1 bc f8 74 58 bd
       0.0012986156 -0.05089681 -0.027535362 -0.052845925
000250 51 b6 3e 3d 78 39 77 3d 89 97 34 bc ed 84 26 3c
       0.04656059 0.06035754 -0.011022457 0.010163528
000260 85 bb 6d bd 3f a3 32 bd d7 e5 b2 3c 67 4b 88 bd
       -0.05804016 -0.043612715 0.021838112 -0.06655007
000270 3c 32 94 3b df 61 42 bd 3e 7d ad bd 77 fb 65 3d
       0.00452259 -0.04745662 -0.08471154 0.05614802
000280 57 61 70 bd 2c af 78 bd ac 94 40 bd 4b 19 6c bd
       -0.05868658 -0.060713932 -0.047016785 -0.05764131
000290 5e 2d b3 bc 77 c6 fb 3c 17 40 8e 3c 24 40 46 3d
       -0.021872219 0.030734284 0.017364545 0.048401013
0002a0 13 fd e3 bc 72 81 48 3d 64 13 5b bd 1a cf 11 3c
       -0.027830636 0.048951574 -0.05348529 0.0088994745
0002b0 2d 5f 8d bd eb a7 6c bd 70 05 6a 3b fb 4e 1b 3d
       -0.06902919 -0.057777327 0.0035708807 0.03791712
0002c0 68 43 0b bd 50 6f 24 bd 01 18 e8 bc 82 3e 4b 3d
       -0.03399983 -0.04014522 -0.028331758 0.04962016
0002d0 ff af 86 bd e7 da 54 3d 64 5b 98 bd 20 60 7e bd
       -0.06576537 0.051966574 -0.074393064 -0.06210339
0002e0 94 2d 72 bd 7c 59 50 3d bc 7b 0f 3d 8d 77 19 bd
       -0.059125498 0.05086659 0.03503011 -0.037467528
0002f0 75 78 81 bc 7e 9c bd bd f2 51 cf bd d6 90 cc bd
       -0.015804509 -0.09258364 -0.10123052 -0.09988563
000300 08 33 d9 ba 29 2b 81 3d b9 31 17 3d da 02 aa 3c
       -0.0016570995 0.0630706 0.036912654 0.020753313
000310 71 9f 1c 3d 76 e4 f6 3c 7d ab c6 bb a4 bd a4 3d
       0.038237993 0.030138236 -0.0060629235 0.080439836
000320 7b 40 5f 3d 36 7e ff 3c b7 74 67 3d d3 fd 4c bc
       0.054504853 0.031188112 0.056507792 -0.012511688
000330 25 eb 1e bc 9b e1 0c 3d 78 c3 6b 3d 5e 8d e0 bc
       -0.0096996175 0.03439484 0.05755946 -0.02741116
000340 fb 65 5d 3d 16 14 05 bd f0 88 3f 3c 81 f0 3a ba
       0.054052334 -0.03248986 0.011690363 -0.0007131175
000350 3b 8c 3c bd cc ed 67 bd fc b8 20 bc 97 aa 40 bd
       -0.04603217 -0.056623265 -0.009809729 -0.047037687
000360 e9 45 98 3b 88 66 b0 bc e9 8c a5 bd 82 24 3c bd
       0.004647006 -0.021533266 -0.08083517 -0.045933254
000370 40 e3 36 3d 5b 97 8e 3c 7a 49 b7 bc 9d 32 11 bd
       0.044650316 0.017406156 -0.022373904 -0.03544866
000380 85 9d df bc 04 44 fe 3c 8d ba 60 3d b9 d4 8c 3d
       -0.02729679 0.031038292 0.05486541 0.06876511
000390 57 e9 92 bd c8 95 b5 bd ef 6c c9 bd 1d 45 20 3d
       -0.07173412 -0.08866459 -0.098352306 0.03912841
0003a0 41 d1 43 bc 67 43 9b bd 2c 12 38 3c b4 1f 26 bd
       -0.0119517455 -0.07581215 0.011234801 -0.04055758
0003b0 1b 08 f5 bb 1d 7d 1d bd 08 1b 11 3d e9 b0 2c 3d
       -0.007477773 -0.038449395 0.03542617 0.042160902
0003c0 df 59 2e 3c 82 b0 16 bd 46 89 68 3c 5e 44 fb 3c
       0.010641544 -0.036789425 0.014192885 0.030672248
0003d0 f5 ad a7 3d f0 35 2a 3d 16 68 8c 3d 9b 16 4c 3d
       0.081874765 0.041555345 0.0685579 0.049826246
0003e0 8d d9 ac bc 69 13 92 3c ce 86 6b bc 64 80 cd bc
       -0.02109983 0.017831521 -0.014375402 -0.025085635
0003f0 89 21 1a bd 31 5e ac bd a7 c0 a9 bd 17 28 d1 3c
       -0.037629638 -0.08416403 -0.08288699 0.025531812

layer1.3.bias f4 [32]
000000 11 c1 b3 b9 4d eb 03 3b d6 20 06 bc 17 30 74 3c
       -0.00034285386 0.0020129264 -0.00818654 0.014904044
000010 83 df 5e 3c 6d 98 08 bd 41 44 16 3d 27 ff 75 3c
       0.013603094 -0.03334849 0.036686186 0.015014446
000020 50 88 31 3d 94 5d d9 bc 26 f7 79 bd 56 3f 87 3d
       0.04334289 -0.02653388 -0.061026715 0.06603877
000030 9c 47 55 3c d2 79 53 bd 04 f1 9c bb 0a 34 47 3d
       0.013017561 -0.05162985 -0.0047894735 0.048633613
000040 17 df e3 bc 81 67 62 bd 52 09 29 3d f8 e9 20 3d
       -0.027816338 -0.05527449 0.041268654 0.03928563
000050 ac f7 1c 3d 3b 8a af bd 06 7c 6a bd 6b d0 26 bd
       0.038322136 -0.08571287 -0.057247184 -0.040726107
000060 cc 68 b0 b9 fb ac 87 3d 60 8c 0a 3d 7c 77 27 3d
       -0.00033647416 0.0662479 0.03382528 0.040885434
000070 af 81 f2 3c e5 35 3f bd 47 f0 01 3c 78 f9 60 3b
       0.029602854 -0.046682257 0.007930822 0.0034328382

lstm1.weight_ih_l0 f4 [256, 160]
000000 e5 dd 91 bd 59 cc 9c 3d 47 72 fd bc 23 e1 ef bd
       -0.07122401 0.07656164 -0.03093828 -0.11712863
000010 7f 4b 0d bd 2d 16 5d bd c4 ca e2 3d ff 90 db 3d
       -0.034495827 -0.053976227 0.11073831 0.10721015
000020 64 6e ee bd b0 6d 93 bd ec 8a 57 3d 2c b6 43 bd
       -0.11642149 -0.071986556 0.05262272 -0.047781155
000030 d1 b0 a5 3b 29 2d 61 3d c9 ef 76 bc eb 79 1a 3d
       0.0050564785 0.05497471 -0.015071818 0.037713926
000040 a4 d8 e5 bd 10 b7 8e bd cf 1d b7 bd 06 d1 82 bc
       -0.112229615 -0.0696851 -0.089412324 -0.01596881
000050 ef ec e1 3d ff 10 cb bd a5 1c c5 3d 45 cb a2 3d
       0.110315196 -0.09915351 0.09624604 0.07948927
000060 7f 23 bd bd 11 4a f6 3d e7 2c e7 3c 0e 40 87 bd
       -0.09235286 0.12025846 0.028219653 -0.06604014
000070 e2 51 95 3d f5 60 5c 3d 65 44 d3 3d 84 ba a1 3d
       0.072910085 0.053803403 0.103157796 0.07896903
000080 fb 73 20 bd 83 ef 45 bd 9a 38 a3 3c f1 e7 7e 3c
       -0.039173108 -0.04832412 0.01992445 0.015558229
000090 10 08 11 3c fa 01 99 bd f6 dc 6f 3d 06 09 0d 3e
       0.00885202 -0.0747108 0.058560334 0.13772973
0000a0 e7 b9 e3 bc 71 36 cf bd 03 60 7b bd 4e 4e 82 3d
       -0.027798606 -0.10117806 -0.06137086 0.06362592
0000b0 61 2f 2b 3d d8 d6 37 3c 2d da 99 bd 1c 98 0b bb
       0.04179323 0.011220656 -0.07512317 -0.002130038
0000c0 6d fe 04 3d d5 87 8c bd 4e f4 a6 3c 29 cd b8 3b
       0.0324692 -0.068618454 0.020380165 0.0056396914
0000d0 a8 b4 36 3c b7 24 d0 3c f4 49 bc 3b 99 38 04 bd
       0.01115147 0.025408132 0.0057461206 -0.03228054
0000e0 34 2c 79 bd 5a 76 d5 bd 1f 86 af bd d5 79 55 3c
       -0.06083317 -0.104229644 -0.085705034 0.013029535
0000f0 66 e9 c6 3d 55 0f 94 3c a7 72 df 3d 7d a9 1e 3d
       0.09712486 0.018073717 0.1091054 0.038735855
000100 55 17 0e 3e 1c f3 0b be 55 38 d1 3d 1a 20 1c bd
       0.13876088 -0.13666958 0.102158226 -0.038116552
000110 44 ec 5e 3d a0 a5 bc 3d ae c8 af bc a6 91 a1 3c
       0.05442454 0.09211278 -0.021457996 0.01972277
000120 4f 01 80 bc 08 b3 c8 3c 47 c4 a8 bc e9 75 b4 3d
       -0.015625624 0.024499431 -0.020601405 0.08811552
000130 2c 27 c4 bb 99 0d 98 bd c6 26 a1 bd 7d 60 4d bd
       -0.005986115 -0.074244685 -0.078687236 -0.050140847
000140 40 f3 e6 bd 17 4b 93 3d a4 37 aa bd 10 f5 8c 3d
       -0.11276865 0.071920566 -0.08311394 0.068826795
000150 c5 71 7f 3b 1a 08 20 3c 0c d4 88 bd df 46 e5 bc
       0.0038977724 0.009767557 -0.0668107 -0.027987896
000160 e3 8a 0a 3d b1 42 78 3d bd ac ec bd 6d 9b 69 3d
       0.03382386 0.060610477 -0.11556385 0.05703299
000170 d8 b1 74 3d ab 73 c1 bd b8 29 f0 3d 94 84 30 bd
       0.059739918 -0.0944589 0.11726707 -0.043095186
000180 48 de 8a bd e6 4a 23 3d f6 db 2d bc f9 72 b0 bd
       -0.06780678 0.03986635 -0.010611525 -0.08615679
000190 34 73 02 be dd 3a e6 bd e6 d3 37 3d 30 c4 f7 bc
       -0.12739259 -0.11241696 0.044879816 -0.030244917
0001a0 da 57 a8 3d 09 25 85 bd 8d 5b 85 3d f7 51 e4 3d
       0.08219881 -0.065012045 0.065116026 0.11148446
0001b0 2b 1d 23 3d 35 f2 56 3d 4a 9f 09 bd 02 da d9 3d
       0.03982274 0.05247708 -0.033599176 0.10637285
0001c0 28 a3 a6 3d 63 07 1d 3d 6f 5e 5b bd 3e 07 55 bc
       0.08136588 0.038337123 -0.053556856 -0.013002215
0001d0 ae d5 99 bd 59 8c c9 3d 57 c4 b5 3d 8e 57 16 ba
       -0.07511459 0.09841222 0.088753395 -0.00057350926
0001e0 7e 76 c6 bd 6f ec af 3d d6 15 a3 bd 28 e9 95 3d
       -0.09690569 0.08590018 -0.07963149 0.07319862
0001f0 a4 6e ee 3d 06 a7 16 bc 96 50 ea bd f3 24 0a 3e
       0.11642197 -0.009195095 -0.11441152 0.13490658
000200 18 2d da 3d d7 b9 f6 3a f5 73 ff bb ca 3c 9a 3d
       0.10653132 0.0018823695 -0.0077958056 0.07531126
000210 24 45 20 3d 77 3e 23 3d 15 43 1b bd 77 b2 e6 bd
       0.039128438 0.039854493 -0.03790577 -0.11264508
000220 65 e3 d5 3d 62 c2 57 bc 0e c3 c7 3c 96 36 f3 bd
       0.10443763 -0.013168903 0.024385002 -0.11875646
000230 3d a0 61 3d 4e fc 27 3d d8 63 1d 3d a1 d1 ab 3d
       0.055084456 0.0410121 0.038425297 0.08389593
000240 73 43 1e bd dc 28 00 be e9 be a4 3d 2d 26 5e 3d
       -0.038638543 -0.12515587 0.08044226 0.054235626
000250 23 40 ee bc f4 ab b2 bd b4 81 07 be f1 bd 87 bd
       -0.029083317 -0.08724204 -0.13233072 -0.06628025
000260 a5 a1 45 3c 87 8d 62 bd b7 a0 08 bd 56 75 d6 bd
       0.012062465 -0.055310752 -0.033356395 -0.10471599
000270 60 3b c0 bd f4 9d e8 3d b3 d3 f1 3c 3c 0a ca bd
       -0.09386325 0.11358252 0.029519891 -0.09865233
000280 10 c6 c4 3d ba 43 cd 3c 4b 9a e8 3d f5 0e bb bd
       0.0960809 0.025056709 0.11357554 -0.09133712
000290 8f 43 e1 3d 4c 4b 9e 3d 61 5a 46 bc 3f 22 b6 bc
       0.10999214 0.077292055 -0.012106509 -0.022233127
0002a0 05 16 fa 3d 5e b9 6a bd 3a 81 be bd f9 b0 57 bc
       0.12211231 -0.057305686 -0.09301992 -0.013164752
0002b0 ff 93 e0 bd 3f 50 b8 3d d7 21 19 bd e3 cc c1 bd
       -0.10965728 0.08999681 -0.037385788 -0.09462907
0002c0 c5 02 d3 bc 40 c7 38 bc 3c ed ca 3d 0f 5f 98 3d
       -0.025758157 -0.011277974 0.0990853 0.07440006
0002d0 9a 21 9c 3d 43 1f 2d 3d 81 ad cc bc fc 48 99 bd
       0.076235965 0.04226614 -0.024985077 -0.07484624
0002e0 6d d8 c1 3d 15 df f6 3d f4 d5 4d 3d d9 b6 ae bd
       0.09465108 0.12054268 0.05025287 -0.08530969
0002f0 5a 50 5f bd 4c b6 1e 3d 4b af bf 3d 18 dd c3 bd
       -0.05451999 0.03874807 0.09359606 -0.09563655
000300 3e a9 b2 3d 54 b9 d9 3c 24 c7 95 3c c6 a8 6d bb
       0.08723687 0.02657763 0.018283434 -0.0036263927
000310 11 fb 52 bb 58 fe 96 bc e1 f9 02 3e f7 4b ca bd
       -0.0032193104 -0.018431827 0.12790634 -0.098777704
000320 74 60 b7 bd 36 6f 90 bd 59 52 c6 bd 6f 29 8c bd
       -0.08953944 -0.07052462 -0.09683675 -0.0684384
000330 a4 e5 9a 3d 4c 8a 3c bc ce 58 0b bd 79 ef 11 bd
       0.07563332 -0.011507582 -0.034020238 -0.03562877
000340 2f 6a 0c bd b1 fb c2 bc 48 f1 94 3d 16 f6 b8 bd
       -0.034280952 -0.023801656 0.07272583 -0.09031312
000350 60 f9 7e bc 83 13 1a 3d 00 b9 c1 bd 92 c8 94 bd
       -0.015562385 0.037616264 -0.09459114 -0.07264818
000360 6b 18 89 3d d4 e6 8d 3d 3a 0a 92 bd 27 f0 b4 3b
       0.066941105 0.069287926 -0.07130857 0.0055217925
000370 29 d4 9a bc e5 a0 ac 3d 4b c4 19 3d 5e c0 78 bd
       -0.018899994 0.08429126 0.037540715 -0.06073033
000380 59 ba 6f 3c 7d b6 f0 3d 70 94 b9 3d 3d e6 f0 bd
       0.014631831 0.11753557 0.09061515 -0.117626645
000390 9e 1c a6 bd 73 c6 be 3d bc 8f 5d bc ab a3 37 bd
       -0.08110927 0.09315195 -0.0135230385 -0.04483382
0003a0 77 fc 66 3d e2 ee 62 3d 37 8f 06 3c 3b 20 4c 3c
       0.056393113 0.055403598 0.008212856 0.012458856
0003b0 2e 79 a9 3c 03 e8 af 3d e5 ff 87 3d 03 66 e9 bd
       0.020687666 0.085891746 0.06640605 -0.1139641
0003c0 53 21 2d bd 98 ef 45 3d e1 40 00 3d 41 36 39 3d
       -0.04226811 0.048324198 0.031311873 0.045217756
0003d0 56 2f 76 3b 1a 41 d2 bd 13 a8 a2 bd 02 d2 6c 3b
       0.0037564836 -0.102663234 -0.07942214 0.0036135917
0003e0 c6 2a ea bd fe 7c 5d bd ba 24 9d 3c 9f d9 dc 3d
       -0.1143394 -0.05407428 0.019182552 0.107836954
0003f0 52 0d 84 bd e9 51 93 3d aa 47 ed bb a9 9d d7 3c
       -0.06447853 0.071933575 -0.007241209 0.026320295

lstm1.weight_hh_l0 f4 [256, 64]
000000 95 99 58 3d 5e 63 65 bd d8 8b bd 3d 1e b6 0f 3d
       0.052880842 -0.056002967 0.09255189 0.03508579
000010 02 ba 8d 3d e6 3e 2a 3d 77 4a 51 3c 13 42 43 3d
       0.06920244 0.04156389 0.012774101 0.047670435
000020 f2 90 8c bd 25 22 4f bd a3 45 79 bd af a5 f7 3c
       -0.068635836 -0.050569672 -0.060857426 0.030230371
000030 ae ff 01 be 4d fb 01 be ed 51 aa 3c 16 71 84 bd
       -0.1269519 -0.1269352 0.020791018 -0.06466882
000040 3c ed 2d bd 52 25 ea 3d 75 66 19 bd 32 c4 e1 3d
       -0.042462572 0.114328995 -0.037451226 0.110237494
000050 43 33 e4 3c 39 82 45 bd ee 67 99 3d 4c ed b7 bd
       0.027856475 -0.048219893 0.07490526 -0.08980808
000060 84 40 2e 3d 09 db 58 bb cb 86 b4 bd 9d 6b d5 3a
       0.042541996 -0.003308954 -0.08814772 0.0016282682
000070 89 75 3d bd 6c 81 b5 bd cc dd 67 bd a6 7c 21 3d
       -0.04625467 -0.08862576 -0.056608006 0.039425515
000080 57 c0 0a 3d 28 cd b0 bb 59 52 a4 3c 77 5c 9e bd
       0.033874836 -0.0053955503 0.020058798 -0.0773248
000090 2a 8c af 3d 79 bf 58 3d 74 4a 90 bd 88 f6 df 3c
       0.08571656 0.052916978 -0.07045451 0.027339235
0000a0 02 a5 ef 3c 9f 02 ef bd 9f 73 1b bc 2e 67 08 bd
       0.029253487 -0.11670422 -0.009488015 -0.033301525
0000b0 43 24 2c 3d a7 12 7e 3a 77 27 d8 3d 62 8d b7 3c
       0.04202677 0.00096921105 0.10554402 0.022406284
0000c0 9f e6 be 3c e5 f3 84 3d be 00 ea 3d 4b 38 ba bc
       0.023303328 0.06491832 0.11425923 -0.02273192
0000d0 29 35 fb 3d ae 85 1d bd 95 33 d2 bd 5e 31 1f bc
       0.12265999 -0.038457565 -0.10263745 -0.00971636
0000e0 20 83 23 ba f3 eb 7c bd 03 85 b9 bd 6f 1a 14 bd
       -0.00062374957 -0.061748456 -0.09058573 -0.03615802
0000f0 9f 20 87 bd 3c 47 c2 3d 0b 1e dc bd 30 fd 7b 3d
       -0.06598019 0.09486243 -0.10747918 0.061520755
000100 de 30 c9 bd 55 6d bd 3d 19 ad f2 3c 7c 47 44 bd
       -0.09823774 0.09249369 0.029623555 -0.047919735
000110 bc f3 cb bc 02 ac 5b 3d cc 88 5b 3d 9b 62 ba bc
       -0.024896495 0.053630836 0.053597257 -0.022752097
000120 0f 85 da bd 41 73 e2 bc 3c 92 53 bd 49 2e 0a bd
       -0.1066991 -0.027642848 -0.05165313 -0.033735547
000130 7f 7a ae bd da 05 eb 3d 06 d1 b7 3d ce 00 1f bd
       -0.08519458 0.114757255 0.08975415 -0.038819127
000140 ab 16 b9 bd 92 1d 2d bc 91 46 ea bd d5 4d f8 3d
       -0.09037527 -0.010566132 -0.11439241 0.1212422
000150 46 5c 60 3b 2b b8 44 3d 03 c0 ed 3c ff 89 cd bd
       0.0034234687 0.0480272 0.029022222 -0.10036086
000160 7c a8 2c 3d 6c fd 9f bc cc bb ad bd 37 82 80 bd
       0.042152867 -0.01953002 -0.08483085 -0.062748365
000170 5a 87 a9 3d e7 2d ec 3d da 09 7a 3d e5 ef 19 3d
       0.082777694 0.11532193 0.06104455 0.037582297
000180 dc f2 ce 3d c3 77 95 3d 05 8e 81 bd 2a 3c d9 3d
       0.101049155 0.07298233 -0.06325916 0.106071785
000190 54 82 1f 3d 4d 6d a0 bd 7f 22 b0 3d 85 e1 93 bd
       0.03894265 -0.078333475 0.086003296 -0.07220749
0001a0 e9 76 8b 3d 1b 0e 0a 3d c9 d1 cd bd 48 d3 be bd
       0.0680979 0.03370486 -0.10049779 -0.093176425
0001b0 f3 a0 a2 bd 90 30 f1 3d 30 cc 09 3d 87 ab 8f bd
       -0.07940855 0.11776841 0.033641994 -0.07015138
0001c0 cd 73 5a bd 47 23 d7 3d 3c ad d4 3d 57 58 cc 3d
       -0.053333092 0.105047755 0.10384604 0.09977787
0001d0 08 4c b2 bc 13 9a 8a bc 75 18 f9 3d 64 3b fb bd
       -0.02176477 -0.016919171 0.12162868 -0.12267187
0001e0 ab ad 90 bd 3d 1a d3 3d cb 7a d3 3d 98 30 d2 3c
       -0.070643745 0.10307739 0.10326155 0.025657937
0001f0 8f 68 04 3d 31 b6 c4 3d 3d f5 f1 bd 78 b6 34 bd
       0.032326277 0.09605063 -0.118143536 -0.04411933
000200 3e c9 69 3d 0f 02 e4 3c bd 1a 8a bd a5 bd ab 3c
       0.057076685 0.027833013 -0.06743381 0.020964453
000210 3b ef 5d bd b3 22 73 bd 53 fa cb 3c 1a 90 a2 3d
       -0.054183226 -0.059359264 0.024899637 0.079376414
000220 bd a3 7f bd 17 fb ac bd 94 81 b9 bd 1a 03 3c 3c
       -0.062412012 -0.08446329 -0.09057918 0.011475349
000230 9b 69 9d bd fc 2e a1 bd 25 bf e5 bd e4 95 eb bd
       -0.07686158 -0.0787029 -0.112180986 -0.11503199
000240 55 1f 3f 3c 5a 71 5c 3d 4a 13 b0 3d 2f 0e 23 bd
       0.011665185 0.053819038 0.08597429 -0.03980845
000250 f0 d8 e6 bd 7e 54 14 bd 69 26 d7 3d 41 95 ce bd
       -0.11271846 -0.03621339 0.10505373 -0.10087062
000260 28 b8 b7 3c 3d 2f f6 3d be 54 28 bd c1 e4 e6 bc
       0.02242668 0.12020729 -0.04109644 -0.02818525
000270 10 b4 12 3b b3 93 c1 3c 95 eb 05 bc 45 76 b5 bd
       0.0022385158 0.023629999 -0.008173843 -0.08860449
000280 34 2e cb bd b6 cb 07 3c b6 ec 9f 3d 08 36 cb bd
       -0.09920922 0.008288315 0.07808821 -0.09922415
000290 e6 8a 9d 3d 56 ea cf bd 01 b4 4c 3d d1 1c 12 3d
       0.076925084 -0.10152118 0.049976353 0.035672013
0002a0 14 af ae bd 35 c3 e4 3c 0f 82 b9 3d 08 0d ab 3d
       -0.08529487 0.027925113 0.0905801 0.08352095
0002b0 a3 12 ef 3d 46 32 c6 3d 79 bb bf bb a6 60 40 3d
       0.116734765 0.09677558 -0.005851206 0.04696717
0002c0 e4 33 2a bd 37 1e 41 3c 4d 7e a6 bd b1 23 cd 3c
       -0.041553393 0.011786989 -0.08129559 0.025041433
0002d0 9b dd f8 bd bb dd c9 bd 16 9c be 3d 76 2c 7a bc
       -0.12151643 -0.09856745 0.09307115 -0.015269389
0002e0 8c b7 fe 3c da c8 05 3d f1 fb f6 3d c8 db 94 bd
       0.031093381 0.03266225 0.12059773 -0.072684824
0002f0 5f f9 9a bd 9d 6d 35 3c 1f 56 cf 3d 63 6d d8 bd
       -0.07567095 0.011073497 0.10123848 -0.10567739
000300 da 64 03 bd 8c b3 90 bd bd ab c2 bd f5 b4 2f 3d
       -0.0320786 -0.07065496 -0.09505413 0.042897183
000310 ce 18 54 3d 5d f6 81 3b fa 3a f7 bd 45 4c d8 bd
       0.051781468 0.0039661364 -0.12071796 -0.10561422
000320 ee 10 f7 3c 43 fd 21 bb 90 bf ff 3c 28 bd 5c 3d
       0.03015944 -0.0024717606 0.031219274 0.05389133
000330 d7 52 18 bc e5 92 d8 3d 24 81 e1 3d 4c e1 fa bd
       -0.009297094 0.10574893 0.1101096 -0.12250003
000340 1b a6 a3 3d fc a3 87 3b 2a c4 9c 3b 18 4a fd 3d
       0.079906665 0.0041394215 0.0047841268 0.12367648
000350 fc a5 35 bd f4 a7 9a 3d 44 a3 64 bd a1 cd 00 3d
       -0.04434775 0.07551566 -0.055819765 0.031446103
000360 6c ff 10 bc 42 a1 a5 3d 0c d5 20 3d 4e 9d a8 bc
       -0.00884996 0.08087398 0.039265677 -0.020582821
000370 af 52 03 bb ee eb ef bb 2e f8 f2 bd 0a f5 95 3d
       -0.0020038297 -0.007321826 -0.11863743 0.07322128
000380 93 df 10 3d ab d9 11 3d 69 12 e5 bd 97 bb 90 3c
       0.035369467 0.035607975 -0.11185152 0.017667575
000390 9a 5c 62 3d 6d 15 26 3c ba 02 38 bb 0b 78 a2 bd
       0.055264093 0.010136944 -0.0028077797 -0.07933053
0003a0 a2 2b cb bd 6b e0 36 bc eb 16 ca 3d 47 07 98 3d
       -0.09920432 -0.011161904 0.098676525 0.07423263
0003b0 f2 d7 e8 3c 0f b6 61 bd 32 38 8c bc 6b 94 e1 3c
       0.028423283 -0.055105265 -0.01711664 0.027536592
0003c0 c2 06 04 bd 6e ab b4 3d 29 59 2b bc 23 65 52 bd
       -0.032233007 0.0882176 -0.010458269 -0.051365983
0003d0 3c 30 e2 3d b4 c1 a3 bd c5 52 ba bd 05 21 4d bd
       0.11044356 -0.0799593 -0.09097818 -0.050080318
0003e0 da a1 a2 3d c4 ca d0 3d 41 e6 a0 bd dd 0f f9 3d
       0.07941027 0.101949245 -0.078564174 0.12161229
0003f0 c0 c1 f5 bd c7 ec fc bd ab 05 b0 bd 52 bf cb bd
       -0.119998455 -0.12349849 -0.08594831 -0.09948601
