dnn_checkpoints/sIMU2.ckpt (torch_old, 706332 bytes, 18 tensors)

layer1.0.weight f4 [32, 1, 6, 1]
00000000: a8fd 9dbe 2d12 1a3e 94d7 24bd c186 373e
00000010: f7ed 6a3e 737f 4f3e 37cf 42bc 9cc9 89be
00000020: 8683 e9bd 9250 c93e c53d b3be 39ba 44be
00000030: 5bac a83d 6906 8b3e 163e bebe fd87 313d
00000040: e2c7 753d c831 81bd 2593 63be df91 0c3d
00000050: 944b 9fbe 948f debe c5f7 973d a727 63be
00000060: 7acb 1a3d 9ecb 5e3e 8f4e 903d 8cef 473e
00000070: 6889 c8be 58ec 7f3e d964 f9bc 821e 6ebd
00000080: da95 7abe d276 bdbe 2477 e0bd 1a91 eebd
00000090: 9931 57be 72a2 c13e 77d8 3cbe 4b44 a93c
000000a0: b313 f93c 4427 c5be cf4a 4bbd d18f 22be
000000b0: 7d48 2a3e 78c7 f8bd b2c7 bebe 677d c53e
000000c0: a2d4 1cbd 08bc e13d 798a b63e 5efa cb3d
000000d0: c207 7a3e 6ebf 103e 2f51 893d fa50 813e
000000e0: 8c90 1cbe 6d53 b43e 07bf cc3e 83b2 a53e
000000f0: e5ae 2c3d 83c5 19bd a9c5 d43e 331f 8fbe
00000100: ea3e 6a3c 8891 133e 566d 1dbd 8a22 5abe
00000110: a3b9 97bd 829c a83e 04be 9bbe ebfd 9b3e
00000120: 1990 b63d dc17 81be e341 96be edf1 f73d
00000130: 20a8 7abe 70c3 93be 70aa a73e 4d7f d43e
00000140: a027 c03d 3b53 5abd a692 b53e be4b 0d3d
00000150: ad36 c23e c088 afbe cc18 1d3e 332f b1be
00000160: 5c06 753d cb6a c73e 5f61 9abe 6633 e43c
00000170: c9b9 b7bb 5ebb aabe 6cc3 b63e d457 4a3c
00000180: 6c72 69bd 6450 9b3e 27e0 7e3e 839a 9fbe
00000190: 16da c93e 8120 c93d bdcf 803c ffa9 003e
000001a0: d29e a9be 22ad 4b3e a82d 853e f53f 11bd
000001b0: f2ea 473e 3a48 323e 6b8d 86be 161f 90be
000001c0: b7a0 dc3d c40f b6be 1bec 95be 6268 14be
000001d0: 174e 40be ed69 bc3d 8f99 fabc e3c1 e7be
000001e0: b4d6 2e3e 92c5 e73d a007 2c3e 95ad fabd
000001f0: 096e 23be aad2 abbb b517 9dbd 96dc b7be
00000200: 017c c2bd c84c 403e bc23 5a3d e19c c1be
00000210: 7c13 b43e 992c 47be b64c 0e3d 1e0e 6dbe
00000220: 7cd4 e93d 9043 7bbe 406f ee3e af04 b53e
00000230: ac0f bf3e 2524 e13e 1f3b 42be d9d9 b73e
00000240: 79a2 28bd a9f9 dc3d 076b 9bbe 18c4 5e3e
00000250: 0155 65be a04c 1e3e 84e7 b03e 17d9 3fbe
00000260: c144 b93e 40ee 9d3e 1774 c13d c168 cf3e
00000270: e065 10be dbae 88be aa11 f93d a5ee 203d
00000280: ad1b ae3e f226 abbe ae59 dcbe 687a 8d3e
00000290: 08d2 a7be 4533 89be 23a5 9c3e 97ac 98be
000002a0: b7b5 abbb a29b 933e 4d96 903e af7f 72be
000002b0: 864a b1be e45e 723c 8a6f 1bbe 0188 59be
000002c0: 4aa9 c2be d47e a73e 7cd7 f73c efd8 c03e
000002d0: 1905 95be c504 7fbe 0e97 04be 0252 a7be
000002e0: 45ea a73c 795f 7dbe 8a67 76be 6844 943e
000002f0: c9d7 b13e 8ac7 59be 61cd 903e 5d8d ce3d
-0.30857587 0.15045996 -0.040244654 0.17922498 0.22942339 0.20263462 -0.011890224 -0.26911628
-0.11402039 0.39319283 -0.35008064 -0.19211663 0.08235999 0.27153328 -0.37156743 0.04334258
0.060005076 -0.06308323 -0.222241 0.0343188 -0.3111235 -0.43468916 0.07420305 -0.22183095
0.037791707 0.21757361 0.07046234 0.19524974 -0.39167333 0.24992502 -0.030443596 -0.058134563
-0.24471226 -0.37004715 -0.10960224 -0.1164877 -0.21015014 0.37819248 -0.1844195 0.020662447
0.030404901 -0.3850652 -0.04963189 -0.15875174 0.16629215 -0.12147421 -0.3726173 0.38572237
-0.03828872 0.11022192 0.3565252 0.09959863 0.24417022 0.14135525 0.06704938 0.25257093
-0.15289515 0.352199 0.39989492 0.32362756 0.04215898 -0.037541877 0.41557053 -0.2795349
0.014297226 0.14410985 -0.03843435 -0.21302238 -0.07408454 0.32931906 -0.30418408 0.30467162
0.08914203 -0.25213516 -0.29347143 0.121066906 -0.24478197 -0.28860044 0.3274722 0.41503373
0.09382558 -0.05330203 0.35463446 0.03449606 0.3793234 -0.3428402 0.1534149 -0.34606323
0.059820518 0.38948664 -0.30152413 0.02785654 -0.005606864 -0.33346075 0.3569597 0.012350041
-0.056993887 0.3033477 0.24890195 -0.3117257 0.394242 0.09820653 0.015724057 0.12564848
-0.33128983 0.19890264 0.26011395 -0.035461385 0.19523218 0.17410365 -0.26279768 -0.28148717
0.107728414 -0.35558903 -0.29281697 -0.14492944 -0.18779789 0.09199891 -0.0305908 -0.4526511
0.1707409 0.113169804 0.16799784 -0.122401394 -0.15959944 -0.005243619 -0.076705374 -0.3591048
-0.09496308 0.1877929 0.053256735 -0.37815002 0.35171115 -0.19450606 0.034741126 -0.23149917
0.11417481 -0.24537492 0.46569252 0.35355136 0.37316644 0.4397289 -0.18967865 0.35908392
-0.04117057 0.107898064 -0.30355093 0.21754491 -0.22395708 0.15458918 0.34551632 -0.18735157
0.36185268 0.30845833 0.094459705 0.40509608 -0.14101362 -0.26695904 0.12161572 0.03929009
0.3400549 -0.3342815 -0.4303717 0.2763245 -0.3277743 -0.26796928 0.3059474 -0.29819176
-0.005240168 0.28829676 0.2823967 -0.2368152 -0.3462717 0.0147931315 -0.15179268 -0.21243288
-0.38019782 0.3271395 0.030254118 0.37665507 -0.29105452 -0.24904163 -0.12948248 -0.32679754
0.02049745 -0.24743451 -0.24062935 0.2895844 0.34734944 -0.21267524 0.28281692 0.10085557

layer1.0.bias f4 [32]
00000000: 521c a3be 508a aebe 1579 db3e c57b 03bd
00000010: aecd 873d bf15 b63d 394b 713e 121d 1abe
00000020: b61c 74be 1502 433e 8692 9d3e 057b 6d3e
00000030: fa0e b33e 8ae2 abbe acf2 663e ebac 0c3a
00000040: 1bfa c03d d151 36bd 8f1c fdbc eae2 95be
00000050: 38f4 3a3e 9feb f4bd d889 9fbe d5f6 013e
00000060: e38b 4b3e 6807 753e 6043 373e b55e 183e
00000070: 0f08 8dbe fd79 99be 7427 a03e ca89 c03e
-0.31857544 -0.340899 0.42865816 -0.032100458 0.06631027 0.088908665 0.23563851 -0.15050152
-0.23839077 0.19043763 0.3077585 0.2319146 0.34972364 -0.33571273 0.2255351 0.0005366343
0.09422704 -0.04451162 -0.030897407 -0.29274684 0.18257225 -0.11959004 -0.31159854 0.12691815
0.19877581 0.23928607 0.17896795 0.14879878 -0.2754521 -0.29975882 0.312801 0.37605125

layer1.1.weight f4 [32, 32, 6, 1]
00000000: 6d86 5a3d 8f75 88bd 31aa 23bc 13d8 e9bc
00000010: 1789 7dbd 5d9f a0bd bd3f 35bd 2384 3f3c
00000020: 79da 953c 40b8 233d b5f8 563c 9fc8 043d
00000030: 545d 503d db39 5e3c 2cb3 c53a 92bc 2a3d
00000040: f5e2 423d f0c3 a83c ca46 bbbc f967 063d
00000050: 11a2 34bd 53d2 80bc d29f 283d 1c17 853d
00000060: 44eb 96bd c842 2b3d 830d 73bc 86b7 00bb
00000070: 1136 6dbd 6c0f 083d d149 063d eee5 de3c
00000080: e51a e8bc a4c3 a03d 945f 803d 8d42 ba3d
00000090: 0782 c03c 598b a83d 8770 223c 5195 26bd
000000a0: b94e 463c 49ce 30bc b28f 453d 7617 06bd
000000b0: 1397 dfbc 7b09 803d 7a7d 763d 65ca 22bd
000000c0: 5da2 093b 0379 983c e9c4 b9bd a8e6 f8bc
000000d0: 86e2 88bd 6d33 d4bc d487 503d a102 203d
000000e0: 6473 d93c 83a1 21bc 9825 b8bc 76ca 19ba
000000f0: 1768 cdbc b0cf 593c d96e efbb 0082 893d
00000100: 0fb2 1f3d 77c0 60bd 0932 8e3d 5134 a5bc
00000110: 4356 28bd a9e6 b73c 2b01 9c3d a749 18bd
00000120: bd18 8a3d ade2 b23c 32cd 2a3d 1ab9 ac3c
00000130: 745c f4bc c8ad cb3d 8821 ae3c a60a 98bd
00000140: e460 f43b 3907 43bc aae4 523c ad29 41bd
00000150: 31ba 403c 9fdf eabc 9afb d43b 6b54 9f3d
00000160: b14b 2dbd ed56 943d b833 c0bb 2415 46bc
00000170: b5ff 263d 789c 843c cc06 6abd e35f fcb8
00000180: daba 57bc 49bd 3a3b 6597 41bd f93b 17bd
00000190: 4928 b93c d487 23bd 74d5 debc a947 8ebd
000001a0: c2cb 8bbb 9221 90bd ac38 d33c fa0d 3ebc
000001b0: 40eb 973c cdc1 8dbc d6c0 4d3d 79ec 823d
000001c0: 6d02 073d 20d1 0dbd b5b6 88bb 6f02 7d3d
000001d0: 9715 6e3d 9034 2a3d b41d a2bc 87eb d3bc
000001e0: 101f 853d bc4b 7bbd 3625 973d 8033 58bd
000001f0: a51b 8dbc 92a6 69bd fb27 84bd 1767 80bd
00000200: bb99 ce3b 1c67 54bb 89c0 ccbc b92d 5dbb
00000210: 6ceb 803c 6fae 7fbd 96fa a63c 6557 5fbd
00000220: 06b1 91bd 4a79 73bd 29bc 223d e8e4 813c
00000230: 6db9 82bd e26a 023d 1534 a8bd ed77 38bd
00000240: edce a4bc 2f19 f33c 757a 35bd 9e31 f83b
00000250: 3843 32bc 3446 743d e57e 69bd 1bcb 84bd
00000260: 2a73 1c3c f62c f2bc e6b7 173d 4a41 f63b
00000270: e791 a8bc 3807 8d3c afc1 c73c 38e3 55bc
00000280: 4911 55bd f31e eebc f507 183d 34c5 a73d
00000290: fffb 053d 1347 23bd 71b2 64bd ae66 3d3d
000002a0: 4c7d afbd 3928 44bd f362 31bd 33a6 9bbd
000002b0: c20d 10bd 54c9 553d 916a 21bd f2f0 22bb
000002c0: c5a6 9bbd b8bd 85bc 3747 e9bc 3201 bdbd
000002d0: ad90 bd3d 9822 d63d 5b3f b23d af0e 953d
000002e0: 6565 2b3d ee34 4e3c 9574 d6bc 3c23 9a3d
000002f0: f4c7 85bc b521 36bd cc0c 233d 1360 8e3d
00000300: 6baa 0c3d c227 b3bc 1c24 0ebb 83c8 8bbd
00000310: 70e4 563b b200 b2bc ea74 8c3c 04d0 8a3d
00000320: e266 b4bc 8a19 3d3d 72da a43d 3203 1b3d
00000330: 721f 12bd 9cec 253d e741 873d 7112 58bc
00000340: c989 9c3c 5847 7e3d 74a4 ac3d 9764 a53c
00000350: da31 4f3d c481 293b 0a8f c83d 3685 5f3d
00000360: ba63 6a3b 288c 8fbd a449 29bd 7b2f e9bc
00000370: 145c 083d 3d98 3a3d e432 aa3d 4a34 d33c
00000380: afb9 b0bc b05c 26bb 6542 563c 2bc9 733d
00000390: 6f54 9d3d 937d 8c3d 2580 253d 2ea8 813d
000003a0: 0ddf a5bc 133f a23d d648 ecbc 75ca 76bd
000003b0: 224f ce3c d0ff 773d 81cd e33c 0c02 c53c
000003c0: 40f6 503d 6604 74bd ac7b e7bc c3d2 1d3c
000003d0: 1975 a3bd 2fc7 f2bb 5741 94bd 19d4 7bbd
000003e0: 60b7 a8bd 3387 153d 8839 503c 718a c0bd
000003f0: 1c05 75bd 17d9 7f3c 88e8 26bd b41e e4bb
0.053350855 -0.066630475 -0.009989307 -0.028545415 -0.061898317 -0.07842896 -0.04425024 0.011689219
0.018292652 0.039970636 0.01312082 0.03241789 0.050870255 0.0135635985 0.0015083305 0.04168374
0.047579724 0.020601243 -0.022860903 0.032814 -0.04409987 -0.01572529 0.04116804 0.064985484
-0.07369092 0.041811734 -0.014834764 -0.0019640638 -0.05791289 0.033217832 0.03278524 0.027209248
-0.028333137 0.078498155 0.0626823 0.09094725 0.023499502 0.082297035 0.009914524 -0.040669743
0.01210373 -0.01079137 0.04823274 -0.032737218 -0.027293717 0.06251808 0.060178258 -0.0397438
0.0021001317 0.01861239 -0.09070761 -0.030383423 -0.06683831 -0.025903428 0.050910786 0.039065007
0.02654428 -0.009865168 -0.022478864 -0.0005866656 -0.025074048 0.013294145 -0.0073069152 0.06714249
0.03898817 -0.05487105 0.06943137 -0.020166548 -0.04109789 0.022448855 0.0761741 -0.037179615
0.06743 0.021836603 0.041699596 0.021084357 -0.029829241 0.099452555 0.021256223 -0.07423906
0.0074578393 -0.0119035775 0.012871901 -0.047158886 0.0117631415 -0.028671084 0.00649972 0.07779773
-0.042308513 0.07243142 -0.0058655404 -0.012090001 0.040771205 0.016187891 -0.05713539 -0.00012034157
-0.0131671075 0.002849417 -0.04726352 -0.03692243 0.022602217 -0.039924458 -0.027201392 -0.06947262
-0.004266233 -0.07037653 0.02578386 -0.011600012 0.018544793 -0.017304325 0.05023273 0.0639276
0.032961298 -0.034623265 -0.004172171 0.0617699 0.05812606 0.041554034 -0.019789554 -0.025869144
0.06500065 -0.061351523 0.07380144 -0.05278349 -0.017225096 -0.05704362 -0.06452938 -0.06269663
0.006304947 -0.003241009 -0.024994152 -0.0033749177 0.015737258 -0.062422212 0.02038316 -0.054526705
-0.07113843 -0.059441842 0.039730225 0.015856221 -0.063830234 0.031840213 -0.08213059 -0.045036245
-0.020118201 0.029675094 -0.044306237 0.007574274 -0.010880284 0.059637263 -0.05700578 -0.06484052
0.009548942 -0.029562455 0.037040614 0.0075151073 -0.020577384 0.017215356 0.024384348 -0.013054661
-0.052018438 -0.029067492 0.037116963 0.081919104 0.032711025 -0.039862704 -0.055834237 0.0462405
-0.0856882 -0.04788992 -0.043307256 -0.07600059 -0.03516937 0.052193955 -0.03940827 -0.0024862853
-0.07600168 -0.016325817 -0.02847634 -0.092287436 0.0925611 0.10455817 0.0870349 0.07278191
0.041844744 0.012585862 -0.026178638 0.07526252 -0.016330697 -0.04446574 0.039807126 0.069519185
0.03434221 -0.021869544 -0.0021689003 -0.06825354 0.0032789968 -0.021728847 0.017145593 0.06777957
-0.022021715 0.046166934 0.08049478 0.037844844 -0.03567452 0.04050885 0.06604367 -0.0131879905
0.01910867 0.062079757 0.084298044 0.020189567 0.05058465 0.00258647 0.097929075 0.0545704
0.0035765008 -0.070091546 -0.041329995 -0.028465023 0.033290938 0.045555342 0.08310488 0.02578177
-0.021572916 -0.0025384836 0.013077353 0.05951802 0.0768212 0.06859889 0.04040541 0.06330906
-0.02024796 0.07922187 -0.028843325 -0.06025167 0.025184218 0.060546696 0.027807953 0.024048828
0.051016092 -0.059574507 -0.028257214 0.009632769 -0.07981319 -0.0074089984 -0.07239025 -0.06148157
-0.08238101 0.03650589 0.012709029 -0.094014056 -0.059819326 0.015615723 -0.040749103 -0.006961668

layer1.1.bias f4 [32]
00000000: 434d f73d c23e 8b3b f404 803b a30c f03d
00000010: b439 273d 6518 8dbc 1a1e 3b3b f25e 103d
00000020: 0756 553c f825 5ebd b9af 943d fb98 8cbd
00000030: 8ad2 44bd 6033 a03a 96c2 873c 6bcd 853d
00000040: 9efd a5bb e66a 433d 34ec d2bc 8b56 803c
00000050: 0e84 793b e450 723d 0644 d03c 908c c4bc
00000060: 01ad 5abd 0dec 2d3b 4fb4 cfbc dce1 9fbc
00000070: cbf4 bf3c b705 0f3d 2dea 2dbd d3d5 663d
0.120752834 0.0042494247 0.0039068405 0.1172116 0.040826514 -0.017223546 0.0028551877 0.035246797
0.013020999 -0.05423543 0.07260079 -0.06865116 -0.04805235 0.0012222342 0.016572278 0.06533321
-0.005065634 0.04770937 -0.025747396 0.015666267 0.0038073095 0.059159175 0.025423061 -0.023992807
-0.053387646 0.0026538402 -0.025354533 -0.019516878 0.023432156 0.03491756 -0.042459656 0.056356262

layer1.2.weight f4 [32, 32, 6, 1]
00000000: 04d9 e2bc 4c55 7e3c e29d 9e3c 6cfb bebb
00000010: 0c1e e33c 5ade ba3c 6e10 9a3d c6a1 09bd
00000020: f00b 8e3d b0c1 593c 9e0f ab3b 9df5 743d
00000030: eab9 a63c 8041 88bd 3fa7 123d 6d0e 623d
00000040: 604f 7abc c4c6 f8bc 8461 853d c27a c73b
00000050: 4058 353d 6145 823d ca85 f03c 87fc c1bc
00000060: d44f 25bd 9327 823d 83b6 3a3d 8f09 95bb
00000070: 794e e4bc 1b41 7ebd 5563 913c 7526 3fba
00000080: f3da 59bd 0454 ec3c d856 4cbc 49d9 94bc
00000090: 9e54 2bbc 4ca8 38bd f19c 88bc 39ee 603d
000000a0: e54d f43c 4232 43bd fe44 35bd 1fd0 89bd
000000b0: 7031 62bd 880c 61bd 8e57 b23b 27a6 76bd
000000c0: 468b c038 c281 6ebc 5ad7 433d 88cb 513d
000000d0: daf5 30bd c32f e83b 09d1 5abd e146 79bd
000000e0: 0f34 843d 8952 a2bc 5adb 36bd d5ef a5bc
000000f0: bc84 843d e4b9 4ebd 0547 303d b96e c63c
00000100: b0b3 ff3c 7a58 f4bc 272c 183d 3a5e 8dbd
00000110: c9e5 2d3d ac53 71bd 7946 7cbd a361 0ebd
00000120: b00f 973c b610 c43c 7e5b 35bd b247 e73c
00000130: 7cc1 5a3d 06fb 3fbd 6d30 503d 1c65 a83c
00000140: f4a0 693b 91db 07bd 9bbc 893c a44c 693d
00000150: 3ae8 863d e4be e5bc 003d 03bd f419 7bbd
00000160: 27c7 4fbd aab6 883d 661e 73bd c989 303d
00000170: e386 08bd 1f2d 87bd 4f74 74bc 98cb 463c
00000180: 0caf 5a3d 45cd 1e3c ca65 3cbd 4174 f83c
00000190: 436a 5abc 0a80 813d 7b3f 813c 4ed5 3fbd
000001a0: 9226 f6b9 8484 9a3c e61d 4bbb 7228 5e3d
000001b0: 21e5 70bd da57 be3b 38a7 e3bc 9aac 283d
000001c0: 668a 073c 3bb3 9b3c ec4a 90bd bf50 883a
000001d0: 1f0b 123d 4028 173c df1a 063d 157a 4e3d
000001e0: c178 7e3c c327 843d af26 86bd 3e6d 1c3d
000001f0: 0133 85bd e8c5 f13c c683 b8bc f5ad 2bbd
00000200: 099d e13c 7b04 cf3c dfdc 28bc 9674 7b3c
00000210: ac6b 873d eea6 3e3c 5dba 493d 80de f93c
00000220: 2e93 743d f0c5 ec3c d35d 813d 7437 00bd
00000230: b0f1 48bd 0a66 773a 3bf1 1bbd c5bf 81bc
00000240: 99ad 573d 2233 67bd 7a05 66bd 9904 8a3d
00000250: 669e c13c ddf1 8e3d a47a 503d f173 20bd
00000260: 6593 cfbb 3b6c 27bd 112f 9b3b 933b dfbc
00000270: 6f33 84bd f401 2cbc a73f 673d 3b3c 04bd
00000280: b73c 303d 9086 0dbd eacb 4a3d 6ab6 633c
00000290: d0aa 023d bb68 f83c 1a20 413c 4505 2d3b
000002a0: bbde ac3c 644c 853d 759f d139 5808 7e3d
000002b0: b1c1 1dbd 9ef7 903d 0da5 4fbd d940 73bc
000002c0: 6c8c 1a3c 9a6b 2b3b 2564 15bd 2890 493d
000002d0: 92bf 1a3d 829f 473d 2b95 273d 8d32 92bc
000002e0: 6735 96bd be0f 7abd 1f24 153d 9db5 073d
000002f0: 7a69 8c3d d7e3 043c 804b 0ebc 7a10 633d
00000300: 2280 063c c126 75bd f1f1 733d dae7 8fbc
00000310: 518a d93c f002 82bc cc36 a9bd f702 27bb
00000320: c928 c3bd 8ed1 8cbd bcf6 62bc 9f8a 58bd
00000330: 676d d8bc 0b66 98bc 5c9c af3c 111b 21bb
00000340: fc69 dcbc 7d22 7b3d a596 803d 95f5 6bbc
00000350: 962c 243d 54f1 fa3c b502 673d ee70 4e3c
00000360: a63e c7ba e9ad b03d 0b59 ad3c b04d 38bd
00000370: ad63 52bc a2e3 ebbb 7c18 573d 945d b6bb
00000380: 47d7 15bd 2307 983d c083 67bd da9c 67bd
00000390: db43 89bc 95cd 333c 2056 d5bc 1c2a 68bd
000003a0: 8dde 07bb 89bd 5d3d 7e4b bfbd f538 83bd
000003b0: b5de 01bd 33c9 3c3d ae4f afbd f1fc adbd
000003c0: a15f a13d afc2 1e3d 724c 133c 56b7 01bd
000003d0: 7ff5 5bbc 5fbd abbc c4f0 acbc 1167 1fbd
000003e0: a038 843d dcdc 87bd c58f 393d cc2d cc3c
000003f0: 2277 5abc f0dc 583d b7a9 6cbd b0c6 87ba
-0.027691372 0.015523266 0.019362394 -0.0058283117 0.027724288 0.022811104 0.07522665 -0.033601545
0.06935871 0.013290808 0.0052203676 0.059804548 0.020352323 -0.06653118 0.03580403 0.05518954
-0.015277714 -0.030368216 0.0651274 0.006087632 0.044273615 0.06360889 0.02936067 -0.023679985
-0.040359333 0.063552044 0.045584213 -0.0045482586 -0.02786945 -0.06207381 0.01774756 -0.00072918023
-0.053187322 0.028848656 -0.012471877 -0.018170016 -0.010457186 -0.045082375 -0.016676398 0.054914687
0.0298223 -0.04765535 -0.04425525 -0.06729149 -0.05522293 -0.05494359 0.0054425662 -0.06021705
9.181215e-05 -0.014557304 0.047812797 0.051219493 -0.043203212 0.0070857718 -0.053422008 -0.06085861
0.06455242 -0.019814746 -0.044642784 -0.020255962 0.064706296 -0.050470248 0.04303648 0.024222719
0.031213611 -0.029827345 0.037151482 -0.06902738 0.04245547 -0.058917686 -0.061590645 -0.034761082
0.018440098 0.02393375 -0.044276707 0.02823243 0.053407177 -0.046870254 0.050827432 0.020556025
0.0035648914 -0.03316838 0.016813567 0.056957856 0.065872625 -0.028045125 -0.032040596 -0.061304048
-0.050727036 0.066754654 -0.059355162 0.043100152 -0.033331763 -0.06600403 -0.014920308 0.0121335015
0.053389594 0.009692495 -0.04599551 0.030328872 -0.013330999 0.0632325 0.01577734 -0.046834283
-0.00046949513 0.018862016 -0.0030993163 0.05423779 -0.058812264 0.0058088126 -0.027789697 0.04118023
0.008272743 0.019006362 -0.0704554 0.0010400041 0.035655137 0.009225905 0.03274047 0.050409395
0.01553172 0.064528964 -0.06550347 0.03819012 -0.06503869 0.029513314 -0.022523772 -0.041913945
0.0275407 0.025270691 -0.010306566 0.0153476205 0.06612334 0.011636479 0.049249995 0.030501604
0.059710674 0.028902978 0.06316724 -0.031302884 -0.049058616 0.0009437507 -0.038071852 -0.015838513
0.05265579 -0.05644525 -0.056157567 0.06739158 0.0236351 0.069797255 0.05089821 -0.03917307
-0.0063347095 -0.0408747 0.0047358354 -0.027250087 -0.06455123 -0.010498513 0.056457188 -0.032284003
0.043026652 -0.034552157 0.049510874 0.013898471 0.03190118 0.030323377 0.011787439 0.0026400846
0.0211023 0.06508711 0.0003998239 0.062019676 -0.038514797 0.07078479 -0.050694514 -0.014847004
0.009432893 0.0026156665 -0.03647246 0.049209744 0.037780352 0.048736103 0.040913742 -0.01784637
-0.073344044 -0.06105017 0.0364114 0.033132184 0.068560556 0.008110962 -0.008684993 0.055435635
0.00820926 -0.05985141 0.059556905 -0.01756661 0.026555212 -0.015870541 -0.08262405 -0.0025483945
-0.095292635 -0.06875907 -0.013852771 -0.052866574 -0.026419355 -0.018603345 0.021436863 -0.0024582783
-0.026906006 0.061312187 0.06278733 -0.014401813 0.040081583 0.030632652 0.056399066 0.012600167
-0.0015201166 0.08626921 0.021160623 -0.044995964 -0.012841147 -0.007198767 0.052513584 -0.0055653546
-0.036582258 0.07423236 -0.05652213 -0.05654607 -0.016755989 0.010974308 -0.026042044 -0.056680784
-0.0020732016 0.054135833 -0.09340571 -0.06407348 -0.03170653 0.046090316 -0.085601196 -0.0849551
0.07879568 0.038759883 0.008990394 -0.031668983 -0.01342523 -0.020964323 -0.0211109 -0.03891665
0.06456113 -0.066339225 0.045303125 0.024924181 -0.013334068 0.052945077 -0.05777904 -0.0010358896

layer1.2.bias f4 [32]
00000000: b7f8 85bd fb19 1dbd 292c bcbc ea0f 5e3d
00000010: 8980 5a3d d28b 96bd 3691 c2bd ac34 56bc
00000020: 1147 ecbc 9371 823d 6e0a 2cbd 9ef1 5cbd
00000030: f925 b4bc 6dfa 073c e94e 883d 21a7 67bd
00000040: d87e 6c3d 9cf1 b0bd 4007 1e3d f9ed 8f3b
00000050: 8c93 153c c7ae bb3c 9562 28bb ab90 84bd
00000060: 360e 27bd 24f8 0f3d 509a e13c d269 2d3d
00000070: 1a40 47bd c928 abbc d1cb 503d 8ae3 24bd
-0.06541579 -0.038354855 -0.022970276 0.054214396 0.053345237 -0.07350887 -0.09500353 -0.013074081
-0.02884248 0.06369319 -0.042002134 -0.05394136 -0.021990763 0.008299452 0.06655676 -0.05655587
0.057738155 -0.08639833 0.038581133 0.004392382 0.009129416 0.022910489 -0.0025693525 -0.06472906
-0.040785037 0.035148755 0.027539402 0.042337246 -0.048645116 -0.020893471 0.050975624 -0.04025606

layer1.3.weight f4 [32, 32, 6, 1]
00000000: 4043 833d ec38 44bd 3e8d f03c 369e d1bc
00000010: 4e07 8b3d ca6d 683d 5ac3 1cbd bab1 033d
00000020: 5301 b93b ab47 9dbd 30c1 aabd 300f 7bbd
00000030: d7dd 6fbb bc75 5ebd 8aa2 47bc 6a78 95bd
00000040: 6c70 2b3c f85b 0d3d 2d9e 633c f3db 413d
00000050: 79b1 343d 1413 41bd b7f3 663d d35a 463c
00000060: f8a9 9bbc 51e6 d33c 2974 883d 6777 b03c
00000070: 6c31 4c3d 3599 7cbd 5cc8 933d 51b3 693d
00000080: cc3f 333d 6edd 68bd 68b9 e0bc 059c 01bd
00000090: 72af 863c 4af9 9c3d 307f 8c3d f68a c63c
000000a0: 7bab b03c 27c5 f0bc c0a9 60bc 5787 15bd
000000b0: 53bb 66bc 4a33 ff3c c09f 5cbd f6d2 573d
000000c0: 33f4 6a3d 06b0 003d a68b 273d 57da 713d
000000d0: b131 0f3d 7728 1bbc 0ce7 89bc c42f 81bd
000000e0: cca4 453d 078b 123d 3650 6ebd 1192 b33c
000000f0: 5bf7 4abd ed46 06bd f78f 3cbd 6c78 07bd
00000100: 0409 653d a964 b83b c996 b4bc 373c 34bd
00000110: 2f06 6e3d 8e7f 093d 1e81 ab3c d73a 983d
00000120: e3b0 9abd fcdd 1c3d 1588 833d 9965 5abd
00000130: d7bc 903d c6ad 78bc 43fa 753d f0c2 42bd
00000140: d831 39bc 4fe1 403d 717c 3e3d 2840 8c3c
00000150: 4e5f 69bd 3ad4 e53c 5c2b c2bc 04e7 0b3c
00000160: a408 51bc abe0 873d 1ff2 90bd f76b 183c
00000170: 7b0e 3e3d b856 553d 62bc 10bd a263 74bc
00000180: 9b57 9dbd 44f7 87bb f785 163d d311 f4bc
00000190: f744 4e3d b959 3ebd d00a 4abd 59c8 eebc
000001a0: b964 ddb9 ec09 40bd fc2b a1bc 8786 963d
000001b0: 9443 c83d 5dfa 203d 736a ae3d 5f98 e9bc
000001c0: f27d 6fbd f67a d23c c435 f4bc 4043 bfbc
000001d0: 2463 5fbc 4abc 7f3c 4b6e 29bd 4bce 093d
000001e0: c4e1 85bd 93b0 44bd 96cf 04bb fd1f 623d
000001f0: e4b6 71bd 1288 d5bc 6953 b1bc f12c e2bc
00000200: 618e 7f3c df37 833c 78bb 06bd 9dd8 53bd
00000210: fd49 6ebd 976f aebd a9dd 88bd 77b0 4bbc
00000220: 5621 56bb 3ed2 6cbd 4d5b b4bc 2796 703b
00000230: a88a 173d 5dc2 533d 3805 933d da1c b83c
00000240: d9ae 073d 8903 833c eba0 1dbd da6f 3a3d
00000250: f045 f23b fbb1 39bb 4632 b2bd a42d 8fbc
00000260: 6795 cd3c b244 a9bd 2a5b 723a ea1f 0a3d
00000270: 6cb9 dbbd 672a 03bd 506f b83c 5be7 a8bb
00000280: c677 e43b 4f6c 6fbd 25ca ff3a 7919 9dbc
00000290: 81a6 b73c 470e 9e3c 96e5 46bc 6c22 6c3d
000002a0: af4f 4abb 9c03 b4bc 30b0 953c c998 4cbd
000002b0: fe1d 34bd 20ce 0c3d 1ca4 1abd d517 ea3c
000002c0: 008c 87bd 73ce 28bc 88dc 8abd 2352 a9bc
000002d0: 0fc1 51bd ee4d 82bd 4a0f 84bd 425b a13c
000002e0: 1a42 67bc 0c6b 17bd 3b44 34bc f157 843d
000002f0: 5705 93bd 1012 b8bc 225c a63b fe57 063d
00000300: 604a 75bc 3c57 63bb ffb8 0e3d 4ccb 4dbc
00000310: 3976 0cbd aefb 54bd 7b64 753c 99c7 45bd
00000320: ce9e a93c 0733 d6bb 5baf 1fbd 1afb b5bc
00000330: 999b c1bc df7b 213d 0fbb d63c 4915 fd3c
00000340: 359c 453d 2e87 4f3d 3844 03bd 04be 9a3d
00000350: fefb 163b 4805 b63c bda5 23bd 3e6e 4d3c
00000360: 67d7 753d 92a1 653d 0f2b 35bd cb48 063c
00000370: 34b1 a8bc a9f8 ce3c 52f7 523d 88e0 343c
00000380: 526c 2ebd 1f45 91bd 001f 6cbd 79d8 643c
00000390: 8a54 a1bd 9467 18bc 3428 2bbd cb71 efbc
000003a0: 5ab7 9ebd 2b3b 98bd d70a 8ebd 59d6 96bd
000003b0: ae67 f8bc 77d3 723d bf45 2bbd c1a4 04bd
000003c0: b6d8 31ba 7c08 8b3a dd1a 8ebd 0586 1d3d
000003d0: 6286 513d cc08 953c 6b50 06bd e026 3d38
000003e0: 8b46 7e3b a91c 4fbb 2619 823d cdfd ef3b
000003f0: 1047 a23c 480e 9abd eabf a4bd 19fb c6bd
0.06409311 -0.047905847 0.029364225 -0.025588136 0.06788503 0.056745328 -0.03827224 0.032151915
0.00564591 -0.07679685 -0.08337629 -0.06129378 -0.0036600733 -0.0543115 -0.012184748 -0.07298358
0.010463815 0.034511536 0.0138926925 0.0473289 0.044114564 -0.047137335 0.05638477 0.012106615
-0.019001946 0.02586666 0.06662781 0.02154131 0.04985182 -0.061669547 0.0721595 0.057055775
0.043762013 -0.056851797 -0.027432159 -0.031642932 0.01644108 0.076647356 0.068601966 0.024236184
0.021566143 -0.029390885 -0.013712347 -0.036506023 -0.0140827475 0.031152386 -0.053863287 0.052691422
0.057361793 0.03141787 0.040904664 0.059046116 0.0349595 -0.009470097 -0.016833805 -0.06307939
0.048252866 0.035777118 -0.058181964 0.021920236 -0.049552303 -0.032782484 -0.046035733 -0.033073828
0.0559168 0.005627234 -0.022044556 -0.044002738 0.058111366 0.03356891 0.020935591 0.07433098
-0.0755327 0.03829764 0.0642244 -0.053319547 0.07067268 -0.01517815 0.06005312 -0.047549188
-0.011303388 0.04708987 0.046505395 0.017120436 -0.056975655 0.0280553 -0.023702316 0.008538965
-0.012758408 0.06634649 -0.07077431 0.009303085 0.04640053 0.052084655 -0.035335906 -0.014916332
-0.07682725 -0.0041493494 0.036748853 -0.029793655 0.05035874 -0.046472285 -0.049326718 -0.029148268
-0.0004222745 -0.046884462 -0.019674294 0.07349878 0.097785145 0.039301265 0.08516397 -0.028515039
-0.05846972 0.025693398 -0.029810794 -0.023347497 -0.013634477 0.015608856 -0.04136495 0.033644002
-0.06537202 -0.048019957 -0.0020265332 0.055206288 -0.05901231 -0.02606586 -0.021646218 -0.02760932
0.015597911 0.016017852 -0.032893628 -0.05172025 -0.05817603 -0.08517378 -0.06682903 -0.012432209
-0.0032673678 -0.05781769 -0.022016192 0.0036710592 0.036997467 0.05169903 0.0717873 0.022474695
0.033125732 0.015992897 -0.03848354 0.045516826 0.007393591 -0.0028334844 -0.08700995 -0.017477818
0.025095655 -0.08265056 0.0009245152 0.033721842 -0.10728726 -0.03202286 0.022514015 -0.005154533
0.006972286 -0.0584529 0.00195152 -0.019177185 0.022418262 0.019293917 -0.0121396985 0.057650015
-0.003087025 -0.021974377 0.01827249 -0.049950395 -0.043973915 0.034376264 -0.037754163 0.028575817
-0.066185 -0.010303128 -0.06780344 -0.020669049 -0.051209506 -0.0636252 -0.06448229 0.019696835
-0.014114881 -0.036967322 -0.011002596 0.06462086 -0.07178753 -0.02246955 0.005076901 0.03279876
-0.014971346 -0.0034689447 0.034844395 -0.012560677 -0.034292433 -0.051997833 0.01497757 -0.048286054
0.020705607 -0.0065368447 -0.03898559 -0.022214461 -0.023633765 0.039424773 0.026212243 0.030893939
0.048244674 0.050666027 -0.03204748 0.07555774 0.0023038383 0.022219315 -0.039952982 0.012538491
0.060019877 0.05606229 -0.044230517 0.008196066 -0.02059231 0.025265055 0.051505394 0.011039861
-0.04258377 -0.07093262 -0.05764675 0.013967627 -0.07877453 -0.009302039 -0.041786388 -0.029229065
-0.07749815 -0.074331604 -0.06935661 -0.07365102 -0.030322876 0.0592837 -0.041814562 -0.032383684
-0.00067843066 0.0010607387 -0.069387175 0.03845789 0.051153548 0.018192671 -0.032791536 4.5097317e-05
0.003879937 -0.0031602776 0.06352453 0.0073239566 0.019809276 -0.07522255 -0.08044417 -0.09715862

layer1.3.bias f4 [32]
00000000: 8cbf 6fbd 819d ae3d d844 b03b 7632 973b
00000010: 5a53 40bd 65ac 6a3d 27a1 203d 62af 7b3c
00000020: 5c78 aa3d b82c 9e3d e11a d8bc 915f ab3c
00000030: 86b7 cb3c 646b 6abd 0779 953c 979a 9a3d
00000040: ba6f b8bc dec9 e7bc baaf 633d cbfb 08bd
00000050: f3bc 143c a2b7 9d3d 5ce2 89bd c10b 143d
00000060: fe22 a83b fa97 d13c 4b99 503d 017a b83c
00000070: 00e5 3bbc d664 acb9 766b 4a3d 8869 a6bc
-0.058532283 0.08526135 0.0053793006 0.0046141697 -0.04695449 0.057293314 0.039216187 0.015361639
0.08323738 0.07723373 -0.026380004 0.020919593 0.024867784 -0.057231322 0.018246187 0.07549017
-0.022514213 -0.0282945 0.055587508 -0.033443253 0.009078252 0.07701041 -0.06732628 0.036144022
0.0051311245 0.025585163 0.05092744 0.022519113 -0.011468172 -0.00032881525 0.04941889 -0.020313993

lstm1.weight_ih_l0 f4 [256, 320]
00000000: 9307 e83d 1f56 7a3d 2700 b3bd 12ab 9a3c
00000010: d51c 123e aa65 193d 2cf0 ab3d 4085 a9bd
00000020: 31e6 75bd a1bc 85bc 4c58 c7bd ec63 f2bd
00000030: b8d2 943d 7474 e73d cbb7 84bd 7461 98bd
00000040: 6024 46bd acfe 643d d116 40ba d31e 683d
00000050: bbb2 93bc d2c0 e03c 7761 dd3d e6e7 5bbd
00000060: 3f76 aabd dcfa ec3c 35f5 8ebd fe15 99bd
00000070: d290 abbc 51b8 b23d 7d06 0f3e 651f 40bd
00000080: 6678 73bc 6917 a93d e687 a0bc 5b50 4a3d
00000090: bd40 66ba 70c2 16bd 81fb d7bd 0927 013e
000000a0: 88cb ebbb bedc 843d 10fd 0ebd 5e38 763d
000000b0: 65ce 68bd 1547 043e 0d64 013e 7a1a 1fbd
000000c0: 7985 43ba dc00 9b3d e9b9 653d 29ee febb
000000d0: 84f3 cabd 3d45 a63d 7da6 cdbd 1337 afbd
000000e0: 76a9 093d 253c 9b3c 0ea0 e03d 8bf3 0e3e
000000f0: 5dea bfbd cb13 d8bd baab be3d e7af 44bd
00000100: bd77 56bd 005b a1bb f1b2 b53d d4c4 d03d
00000110: ec58 50bd c1c1 9ebd f1ed 353c a3ce dbbc
00000120: e0f2 a4bd d8e3 0b3d 0f26 743d 121a 893d
00000130: 2826 033d fb11 a8bd f344 153a 801b 7d3d
00000140: d77a f53d 2f32 dd3c 3a78 d8bd 4063 143c
00000150: 701a 243d 548a ebbd 67ad af3b 7eb2 533d
00000160: 5273 80bd 5b57 b5bb de9f 963c 8004 3d3c
00000170: 46b8 613d 2829 313d c233 9c3c 2156 bf3d
00000180: aa21 703d fd52 2fbd 8020 b13d 1cf6 883d
00000190: dbf8 abbd 7687 86bd 0fc1 6d3d 93e9 dabd
000001a0: cc7f 773c 97f5 4c3c 25b1 bd3d 08c6 5fbd
000001b0: c1a0 8dbd 4847 7f3b b12e 953c e348 c33c
000001c0: f60d 5ebd e80e bb3d 5e04 193d 3cc8 143d
000001d0: 71b0 e53d 5834 1f3d 9c22 333d efd7 303d
000001e0: c46c de3d 2f07 543b a860 f2bd 67a7 b3bd
000001f0: af5e 91bd 9918 4abd 429f d9bd 8ba6 b33c
00000200: 8f50 9abc 3994 f13d 8b8a 02bd 66d7 303b
00000210: d7bd 8abd 1a57 e9bd 43c9 cfbd 2b20 393b
00000220: cd16 c13d 3800 88bd c2fa 5dbc 912d cbbd
00000230: 1ba4 053e 2b2f e03d 0419 e73c 52dc edbd
00000240: 316a c83d 90b3 9dbd 7e55 d63d 26ed c53c
00000250: 81db 9fbc 323d ee3d 798f d33d d409 cd3d
00000260: 5484 8e3d 4376 ef3d 4f61 8c3b ed2d 123d
00000270: 523e 9c3c 747d 8e3d 93e0 57bd c395 06bd
00000280: bd57 fd3d 506f b43c dc8d ce3d 182e 873d
00000290: 204e 45bd b873 4bbd 979f 94bc 6ed6 70bc
000002a0: d2ed 3fbd f5cc f2bd 5966 87bd 97cb 2c3d
000002b0: 4878 8e3d 10d8 8ebb 158b d0bd 4c8f 443d
000002c0: 7541 4e3c c83e 173c e335 5c3d 70c6 8e3c
000002d0: 9060 b13d de95 babd 1f18 dcba acdf a33d
000002e0: 5b14 fa3d 73f2 9bbc 0ad2 1cbd 497a 4c3d
000002f0: 914c 103d 2f32 b03d 8274 893d ddaa 3cbb
00000300: c4dd 603d c3c1 e93d 0256 15bd b9ef 1c3d
00000310: 172c 143d 4a5f 7cbd 896b 8b3d cf4d 8cbd
00000320: 1e9f 1d3e 5433 1abd ac5f 26bb c546 ac3c
00000330: e3bc d7bc 97e9 a0bd 5525 633d b4a1 d43d
00000340: 74d2 5f3d 2d2a f2bc b7bc 8fbc 7eb8 073d
00000350: fd06 adbb 2d6e e13d f7f4 6bbd dc8c fb3b
00000360: 74d8 67bd 7670 f7bd 70d4 47bd 004a b1bd
00000370: 745b d5bc 860d fd3d f125 bd3d 275e 4ebd
00000380: ad75 923d c9ae 3c3d 657a 213d 9059 e2bd
00000390: b8d5 b83d 31e0 7b3c 853e 3b3d 1d13 8c3d
000003a0: c281 98bd d6d5 e8bb 4da1 cd3c 5a73 9ebd
000003b0: 227e 3bbd 4443 833c 198b 043d ec17 fd3d
000003c0: 1a90 733d a0f9 41bd 0f21 e9bc 7940 7c3d
000003d0: 1568 363d e3d0 a1bd ef62 b2bd 9045 8abd
000003e0: 85e1 b63c ab31 e2bb 9644 77bd a14c e83d
000003f0: ed13 b43d 44f6 533d e5c1 1a3b 34b4 713d
0.1132957 0.061117288 -0.087402634 0.0188804 0.14268811 0.03745047 0.083954185 -0.082773685
-0.06003398 -0.016325297 -0.09733638 -0.11835465 0.07266754 0.113015085 -0.06480368 -0.07440463
-0.048374534 0.055906937 -0.00073276187 0.05667002 -0.018029561 0.027435694 0.108096056 -0.053687952
-0.08323335 0.028928213 -0.06980363 -0.07474898 -0.02094308 0.08726562 0.13967319 -0.04690494
-0.014860248 0.08256418 -0.019596051 0.04939304 -0.00087834505 -0.036806524 -0.105460174 0.12612547
-0.0071958937 0.06487416 -0.034909308 0.06011235 -0.05683746 0.1291774 0.12635823 -0.03884361
-0.00074585486 0.07568523 0.0560855 -0.0077798557 -0.09909728 0.08118675 -0.10041521 -0.085554264
0.033608876 0.018949578 0.10968028 0.13960092 -0.09370873 -0.1055065 0.09310098 -0.048019316
-0.052360285 -0.004924178 0.08872021 0.10193792 -0.050866053 -0.077517994 0.011104093 -0.02683193
-0.08054137 0.034152836 0.059606608 0.06694426 0.03201881 -0.082065545 0.0005694173 0.061793804
0.119863205 0.027001468 -0.105698064 0.009056866 0.040064275 -0.11500993 0.0053612473 0.051683895
-0.062719956 -0.005534095 0.018386777 0.011536717 0.055107377 0.04325214 0.019067649 0.093426
0.058625855 -0.042803753 0.08648777 0.06687567 -0.08397075 -0.06568806 0.058045443 -0.10689082
0.015106153 0.012509725 0.09262303 -0.054632217 -0.06915427 0.00389524 0.01821074 0.023838466
-0.054212533 0.091337025 0.03735768 0.03632377 0.11215294 0.03886828 0.043734178 0.04317468
0.10860589 0.0032352915 -0.11834842 -0.08772164 -0.070981376 -0.049339864 -0.10626079 0.02193
-0.018837241 0.11795849 -0.031870406 0.0026983856 -0.0677449 -0.113935664 -0.101458095 0.0028247933
0.09428177 -0.06640667 -0.013548555 -0.099208005 0.13050883 0.109464966 0.02821017 -0.116142884
0.097858794 -0.077002645 0.10465525 0.024160933 -0.019513847 0.11632766 0.103300996 0.1001164
0.06958833 0.116924785 0.004284061 0.03568833 0.019072685 0.06957522 -0.052704405 -0.032857668
0.123702504 0.022025734 0.10085651 0.066005886 -0.04817021 -0.049670905 -0.018142505 -0.0146995615
-0.046857662 -0.11855499 -0.06611318 0.042186346 0.069565356 -0.0043592528 -0.10182778 0.04798822
0.012588848 0.009231277 0.053762328 0.017428607 0.08660996 -0.09110616 -0.0016791857 0.080016464
0.12210914 -0.019036507 -0.038286246 0.049921308 0.03522927 0.08603322 0.06711675 -0.0028788366
0.054898992 0.1141391 -0.036458977 0.038314555 0.03617486 -0.061614312 0.0680762 -0.06850778
0.1539273 -0.037646607 -0.0025386615 0.02102984 -0.026335185 -0.07857054 0.055455524 0.10382405
0.054644063 -0.029561127 -0.017546041 0.03313493 -0.005280374 0.110073425 -0.057606664 0.007676704
-0.05660291 -0.12081997 -0.04878658 -0.086566925 -0.026044585 0.12356095 0.092357524 -0.05038276
0.07151351 0.046065126 0.039423365 -0.11052239 0.090251386 0.015373276 0.04571392 0.06839583
-0.07446624 -0.0071055694 0.025101328 -0.07736845 -0.045774586 0.016023286 0.032359216 0.12358078
0.059463598 -0.0473572 -0.028458146 0.061584923 0.044532854 -0.0790117 -0.08710276 -0.06751549
0.022324333 -0.0069028935 -0.060368143 0.11342741 0.08792863 0.05174853 0.0023614105 0.059009746

lstm1.weight_hh_l0 f4 [256, 64]
00000000: 2a19 debc 005c 8fbb a731 983d 1359 61bc
00000010: e306 993d 5403 a5bd 07d7 e5bd e16b ed3d
00000020: 2003 f5bd 7726 e73d 93c6 af3d 0947 733d
00000030: 12b3 d33d 057a c7bd ca1b 1a3b 2c30 cc3d
00000040: 57ce 55bd 69c7 e53d 8aeb f43c 3dae a63c
00000050: e083 c1bd 38ea a53c 65de dc3d fd25 0fbd
00000060: b6d6 78bd 552d 97bd 777c f0bc 50ff d53d
00000070: 1db1 e73d b8b2 17bd 4eae d6bd 0c53 84bd
00000080: 0ca7 39bd b06d 84bd df77 103d 6c00 fbbd
00000090: b8d6 483d 3b42 bb3d 386d febd 441c 3ebd
000000a0: b3f4 823c ea8d ab3d 2514 f5bd 8752 92bd
000000b0: cae0 ccbd bde4 813d 31a8 e4bd 0432 1a3d
000000c0: 881d da3d 578e 9ebb 95ea f43d 042a 7bbc
000000d0: 7035 71bd 148e 703d 64a8 5c3d ebef f83d
000000e0: badb d13d 7409 21bd 9d80 b9bb 025d c63d
000000f0: d18d 3f3d 9e5a ac3d dc77 a03d 3cd7 83bd
00000100: 4049 cfbd 083f d83d 3321 cc3d 0ab8 bdbd
00000110: 2c66 bc3d 3743 c73d ccdc 713d 626d 94bc
00000120: 6f73 cfbd 5066 d73d ddd9 c1bd 8ce2 a03d
00000130: efc1 bdbd 71d5 c93c 0cc8 ba3d b62f ce3d
00000140: d568 9abd 241c 7c3d 5b51 a2bb 945b c03d
00000150: 30cf 973d 4d61 f7bd 73b9 07bd 5fe4 983d
00000160: ce9d dabd 2e29 cebd 23b9 f53d 01ca dabd
00000170: 1df5 883d f014 ad3d e36e a8bd 2a8d a93d
00000180: 29bc 1f3d ac25 813d 8adc 053d 04d1 943d
00000190: beca b3bd a870 dc3d f003 a53d cace fcba
000001a0: 09d6 28bd c635 d3bd a2a3 e13d 758d bd3d
000001b0: f95a bd3d 162d 8d3d edcf a03d e5f8 63bd
000001c0: 9373 12bd baf3 673d 5fb2 543c 1b97 cebc
000001d0: 6cc6 7e3d e7d5 383b 7e23 b03c db38 f33d
000001e0: 2628 a7bd ff68 bc3d 64e4 e1bd 9485 a53d
000001f0: abdd e3bd 07a6 0c3c 3f7a 0e3d e72f 5a3c
00000200: 1698 e3bd a793 03be 7179 933d 5273 4c3d
00000210: 5941 d63d 17f4 163d 8354 c63d a5f9 bf3d
00000220: e4fa a53d 005a e8bc 388c e53c 5054 b2bd
00000230: 620c a53d 148a 98bc 32cc e33c a405 4dbd
00000240: ff76 e5b9 9452 fcbc 49d3 84bd 9fc2 f53c
00000250: 6d3c ea3c 52b5 aabd b699 dbbd ce14 e5bd
00000260: dedd fcbd e1d9 8dbb 660c 093d b8e9 40bd
00000270: e0ab 8fbd 2d3f 6f3b ab8e dfbc 8a59 d53d
00000280: e9f7 c8bd ea6d bebd 633f a23d 2300 a9bd
00000290: c99c c4ba 3614 d1bd 7199 04bd 8a57 4cbd
000002a0: 1a1c 33bd c791 2f3d 59bd 913d 62a5 d1bd
000002b0: 8248 b73d 60ef 20bd 252a 693d f721 8abc
000002c0: 0c82 79bc b393 fbbb da29 88bc de0e d73d
000002d0: 0fb4 97bd ba59 f53d 581d de3d 6cf9 c53d
000002e0: ae64 003e 8626 cfbb 86b9 7cbd ffc6 d53d
000002f0: 9d37 d63c 881b 833d 1619 85bd d7d1 aabd
00000300: 8e20 993c 48a1 75bd 2305 023d 431d 813d
00000310: a13c 6c3d 6f92 073d 9e05 19bd 1c74 56bd
00000320: d142 e93d d6f6 f4bc 191b edbd f8fd a63d
00000330: 4107 aa3d a033 c63d 4c76 e83d 35e4 98bc
00000340: 15e5 5abc ec57 09bd 4802 c23b d7c9 ecbd
00000350: 9005 1e3d b0bb d0bd e71e f53d 2faf fa3c
00000360: 7334 9b3d b5ea c4bd ec0d a2bb 1675 063d
00000370: 3200 27bd ac45 96bd 2abe 9cbd 7cae d6bd
00000380: 8ad6 1dbc 8448 063d 9cfd 2abc 65d3 e3bd
00000390: ca25 c2bd 7508 81bc 9f1f 62bd abbb e03b
000003a0: b8d7 d0bd 6a7e 90bd d5d8 01bd 7cc3 c0bc
000003b0: f2b7 a43d aedf c0bd 810e e93d af30 c1bd
000003c0: d3cd d93d a7d2 36bd cfdb 02bd 175a 92bb
000003d0: 395d 133d 8391 4fbd 0aea b8bc 8b0e be3d
000003e0: 3445 8c3c 8cf0 f1ba 6abc 743d e6ba 9c3d
000003f0: fde4 e13c 93fc eabc a7d4 c93d 094b 0ebd
-0.027111609 -0.004374981 0.074313454 -0.013754147 0.07472017 -0.080572754 -0.11222654 0.11592842
-0.11963487 0.112866335 0.08582797 0.059393916 0.10336889 -0.0974007 0.0023515099 0.099701256
-0.052198734 0.11219675 0.02989747 0.020346755 -0.09448981 0.020253286 0.10784606 -0.034948338
-0.06075164 -0.07381693 -0.029356224 0.104490876 0.113130786 -0.037035674 -0.10482465 -0.064611524
-0.045325324 -0.06466234 0.035270568 -0.1225594 0.049032897 0.09143492 -0.124231756 -0.046413675
0.015985822 0.08376677 -0.11966733 -0.07144647 -0.100038126 0.063424565 -0.111648925 0.037645355
0.10650164 -0.0048387456 0.119588055 -0.0153298415 -0.058888853 0.058729246 0.053871527 0.12155136
0.10246988 -0.039315656 -0.005661084 0.096857086 0.046766106 0.08415721 0.07835361 -0.06437537
-0.10121393 0.10558897 0.0996727 -0.09263618 0.09199175 0.09729617 0.05904846 -0.018118564
-0.10129439 0.105175614 -0.09465382 0.078557104 -0.092655055 0.02463791 0.09120187 0.10067694
-0.075395264 0.061550274 -0.004953546 0.09392467 0.07412565 -0.120791055 -0.033135843 0.07465433
-0.1067463 -0.10066448 0.11998203 -0.106830604 0.06687377 0.08451259 -0.08224275 0.08278878
0.038997803 0.063060135 0.032681026 0.07266429 -0.087789044 0.10763675 0.08057392 -0.0019287702
-0.041219745 -0.10312991 0.110175386 0.092554964 0.09245867 0.06893365 0.07852159 -0.055657286
-0.03575475 0.05662892 0.01298198 -0.025218537 0.06220095 0.0028203668 0.021501299 0.11876079
-0.081619546 0.09199714 -0.1102989 0.08082119 -0.11126264 0.008584506 0.03478455 0.013317085
-0.111129925 -0.12849294 0.072008975 0.049914666 0.10461683 0.036853876 0.09684088 0.09373788
0.08104494 -0.028363228 0.028020963 -0.087074876 0.080590025 -0.018620528 0.027807329 -0.050054207
-0.00043766943 -0.030801095 -0.06485612 0.03000003 0.028593266 -0.08335365 -0.107226774 -0.11185609
-0.12347005 -0.0043289517 0.03345909 -0.04709789 -0.070152044 0.0036506162 -0.02728971 0.10417469
-0.0981291 -0.09298308 0.07922246 -0.08251979 -0.0015000339 -0.10208933 -0.032372896 -0.04988817
-0.04372797 0.042863633 0.07116193 -0.102366224 0.08949377 -0.039290786 0.056924958 -0.016861899
-0.0152287595 -0.007677519 -0.016621519 0.105008826 -0.0740739 0.119800046 0.108454406 0.09666714
0.12538406 -0.006321731 -0.061700366 0.10438346 0.026149565 0.064017355 -0.064989254 -0.08340805
0.018692281 -0.059968263 0.03174318 0.06304409 0.057675008 0.033098634 -0.037358873 -0.052356824
0.11389697 -0.029902857 -0.11577434 0.081539094 0.08302165 0.096778154 0.11350688 -0.018663505
-0.0133602815 -0.033531114 0.005920682 -0.115619354 0.038579524 -0.101920485 0.11968785 0.030601112
0.07578363 -0.09615079 -0.0049455073 0.032826506 -0.04077167 -0.073375076 -0.076534584 -0.10482499
-0.00963367 0.032784 -0.010436442 -0.11124305 -0.09479864 -0.015751103 -0.055205937 0.0068583093
-0.10197395 -0.070553616 -0.031700928 -0.023530714 0.08042897 -0.094176635 0.113797195 -0.09433114
0.10634961 -0.044634487 -0.031947907 -0.004466306 0.035977576 -0.05067588 -0.022572536 0.092801176
0.017122842 -0.0018458529 0.05975 0.076528355 0.02757501 -0.02868489 0.09855013 -0.034739528

lstm1.bias_ih_l0 f4 [256]
00000000: 00a5 b53d 88ac cabd ebbc a93d 8c03 0f3d
00000010: 25d9 81bd 903f 6cbd 7a48 34bd b190 433d
00000020: f77f c7bd 8948 cabd 404c 833d 12d6 d83d
00000030: 811d 043e 4277 3cbb 002a 183d e035 acbd
00000040: 9f5d 2c3c 86b4 8c3b 3781 793d 6296 7b3d
00000050: 91bb d73d c0cd 493d c9ba 2c3d d4bb 9e3c
00000060: 61d9 2fbd acb8 903c 0bdd fcbd 77ab adbd
00000070: 7075 7fbd 0277 46bc 2ee6 c3bd 33a2 e4bb
00000080: d60d ee3d fea2 913d 7c52 5bbb abe1 ec3d
00000090: 1ced b43d da85 8f3d 8397 08bd 132d 703d
000000a0: 0976 f03d 0d82 1ebd ca6b b7bc df04 5fbd
000000b0: ad13 a3bd a8fb 8b3d a926 a2bd 59ef 99bd
000000c0: 1af5 94bd 8704 b63c aead 41bc d566 113e
000000d0: f9b3 f93d d147 69bd cced b1bb b9f5 bc3d
000000e0: 4a50 173e b60b e83c 39d5 63bd 2a6d 62bd
000000f0: 0294 62bd cfa7 fdbd 0848 d33d fce8 d7bd
00000100: 2962 99bd 9b3c 89bd 9383 943b 0591 7abd
00000110: 4d0e 11bc 3d32 6f3d 5edb b23d f489 043d
00000120: 6566 0abe c6d6 d2bd f13e 83bc a275 bc3d
00000130: f1e4 7bbd c7ff ecbd ecfd ebbd fa1b d6bc
00000140: 0382 cbbd 13b4 80bc 24b0 203d 7b3a c93d
00000150: 5943 a43d 8453 953d e25e 49bd e955 88bc
00000160: dc0e 223d 5188 e63c ce32 c0bd c49f 0f3d
00000170: 0c03 d7bd 915d df3b bc70 9c3d 8aee 81bd
00000180: bfcf 6abc 8504 3e3c 8087 08bd d5dd 84bc
00000190: d632 f3bd 7938 583d d173 b0bd 7efc 7ebd
000001a0: 1227 49bd 6951 cf3d c24c f43c 9bf6 b7bd
000001b0: f849 bdbc 98d5 a73d a693 9dbd fc89 5fbc
000001c0: ec37 ee3d 1cde debd 55c9 6abd 88e5 7b3d
000001d0: 6705 e23d a07f b03c 329f cc3d cedd b6bd
000001e0: 39e4 f3bd 6b74 1bbe 052c bd3d 4539 7e3d
000001f0: e601 85bd adaf 5e3d c146 703d 5519 d63c
00000200: d7b4 2a3e d603 c83d 23ab 9a3d 8e2a a5bd
00000210: a883 c03d 987b 7e3d 6dcf 24bd 7685 763d
00000220: fcea cbbc fc9d 613e c475 94bd a52d 13be
00000230: ffde 36bd 2af8 95bd 4f47 973d 5e47 c53d
00000240: ea3c 183d 7a2a b53c d38a f8bc 482b 123d
00000250: 24ea 7f3b 7d7c 9bbb 887c 51be 2d30 87bd
00000260: 925c 82bd 57d9 dd3d c42e 153e 1c67 17be
00000270: 23d8 0f3d bb50 463c 67f4 b23d b6cd 44be
00000280: bb90 ebbd 65d7 f7bd 95c5 31bd d9d1 57be
00000290: 74bc 2f3e 012c 313b f2d0 92bd 2a97 153e
000002a0: a699 ae3d cd3d 87bd b835 a13c 0d37 8e3d
000002b0: 69bd a7bd c699 083e 2620 e3bd 4540 15bd
000002c0: 8ad9 ddbd 65f3 5d3d 095e e8bd 7ebb ad3d
000002d0: e7c9 34be 255b e83a 53cf 84bd 154d eb3d
000002e0: fc9e 2e3e f7c0 e83c 6080 93bd dcba 3d3d
000002f0: 6857 d7bd dad1 0fbd 1f8f 283e abcf 45bc
00000300: d5e0 1e3d 1d7c 09be dd8e d93d 694a 603d
00000310: 5025 e3bc 6d24 213d 6853 5bbd b69c 123c
00000320: 0653 e6bd b032 06bd be9d e2bb 850b 0cbc
00000330: 94e9 a8bc 7c0d 453d 2451 80bd 338d 433d
00000340: 50de b9bd 859f 933d 880d 273c 1701 d23b
00000350: 6e79 0dbd 4352 15be 75dc 70bc b6be 843d
00000360: d897 ca3d 2b52 a8bd 53e7 553d 3b26 5ebd
00000370: 92c3 dabd f01c df3c 7355 84bd 05ea 0d3d
00000380: 083e a63c 8a6c c4bd a083 143d d028 1fba
00000390: 3390 bb3c 7ad4 8a3d 7374 963d a04e b8bd
000003a0: 00eb 9fbd bc58 44bd b7e6 103c b944 803d
000003b0: ffdb 9c3d 573f 593d 49dd b63c 15bf 8dbc
000003c0: c7f5 5bbd 59a5 04bd 801b bcbd 0ef0 b8bc
000003d0: 29b4 0b3e e6b4 963d 9cc0 9dbd 5ed1 5a3d
000003e0: 6f39 003d 7769 7cbd 7685 1cbd 4bb6 ac3d
000003f0: 5298 043e 86d1 3a3d a3c3 ddbd a12d 2dbd
0.08869362 -0.09896189 0.08287986 0.034915492 -0.06340245 -0.057677805 -0.04401443 0.04774541
-0.09741204 -0.09877116 0.06411028 0.10587706 0.1290188 -0.0028757607 0.03714943 -0.08408713
0.010520368 0.004293981 0.060914245 0.061422713 0.10533822 0.049268484 0.04217032 0.019376673
-0.042931918 0.017666183 -0.12346848 -0.0847997 -0.062367857 -0.012113335 -0.09565388 -0.0069773435
0.11623733 0.071111664 -0.0033465913 0.1156648 0.088342875 0.07007952 -0.033347618 0.058636736
0.117412634 -0.038698245 -0.022390265 -0.054448005 -0.07962737 0.06835109 -0.0791753 -0.07516355
-0.07273312 0.022218956 -0.011821194 0.14199384 0.1219253 -0.056953255 -0.005429959 0.092265554
0.14776722 0.028325897 -0.055623267 -0.05527989 -0.055316932 -0.123855226 0.10316473 -0.10542485
-0.07489426 -0.06701013 0.0045322864 -0.061173458 -0.008853507 0.05839752 0.08733247 0.032358125
-0.13515623 -0.10294871 -0.016021224 0.09202124 -0.061497632 -0.11572223 -0.11523041 -0.026136387
-0.09936907 -0.015710866 0.03923048 0.098256074 0.08020658 0.0729132 -0.049162753 -0.016642528
0.039564952 0.028141173 -0.0938469 0.035064474 -0.10498628 0.006816574 0.0763869 -0.06344326
-0.014331757 0.011597757 -0.033332348 -0.016219059 -0.118749306 0.05278823 -0.0861584 -0.062252514
-0.049109526 0.1012295 0.029821757 -0.08982583 -0.02310656 0.08195037 -0.07694177 -0.013643738
0.1163176 -0.10882208 -0.05732091 0.061498195 0.11036187 0.021545231 0.099913016 -0.08929025
-0.119087644 -0.15181129 0.09236912 0.062066335 -0.06494503 0.054366756 0.058661226 0.026135126
0.16670547 0.09766357 0.07552173 -0.08064757 0.094001114 0.062129587 -0.04023688 0.060185872
-0.024892323 0.22032923 -0.072490245 -0.14372881 -0.04464626 -0.07322724 0.07386648 0.09632753
0.037167467 0.022114981 -0.030339634 0.035685807 0.003904947 -0.004745065 -0.20457661 -0.06600986
-0.06365313 0.1083247 0.14568621 -0.14785427 0.035118233 0.012104209 0.08738022 -0.19219097
-0.115022145 -0.1210163 -0.04340132 -0.21076144 0.17161733 0.0027034285 -0.071687594 0.14608446
0.085254 -0.066035844 0.019678935 0.06944094 -0.08190424 0.1333991 -0.11090116 -0.036438245
-0.10832508 0.054187197 -0.11346061 0.08483027 -0.17655145 0.0017727358 -0.064848565 0.114893116
0.17052835 0.028412325 -0.0720222 0.04632078 -0.10514718 -0.03511224 0.16460846 -0.012073438
0.038788635 -0.13426252 0.10622952 0.054758463 -0.027727753 0.03934138 -0.05354634 0.008948496
-0.11246304 -0.032763183 -0.006915777 -0.008547668 -0.020619191 0.048108563 -0.06265476 0.04774208
-0.09075606 0.0720816 0.010196097 0.0064088213 -0.034539632 -0.14582162 -0.014700999 0.06481688
0.09892243 -0.08218797 0.05222256 -0.05423568 -0.10681833 0.027235478 -0.06461611 0.034647007
0.02029325 -0.09591015 0.03625834 -0.000607145 0.022895908 0.06778808 0.0734643 -0.089993715
-0.078084946 -0.047936186 0.008844069 0.06263108 0.076591484 0.05303892 0.022322314 -0.01730303
-0.05370119 -0.03238425 -0.09184933 -0.022575404 0.13642944 0.073587224 -0.07702753 0.053422324
0.031304773 -0.061624017 -0.038213216 0.08433207 0.1294873 0.045609973 -0.1082833 -0.042279843
