sIMU3L.ckpt (torch_old, 870162 bytes, 18 tensors)

layer1.0.weight f4 [32, 1, 6, 1]
000000 1c f6 fc 3d 4e b6 54 3d 71 78 1a 3e 04 31 93 be
       0.12351629 0.05193167 0.15085007 -0.28748333
000010 26 b0 5b be 31 dc a5 3e 5f 9f 8e bd 0e 4d 36 be
       -0.21453914 0.32394555 -0.069639914 -0.17802832
000020 f0 46 1f be 95 ac ab 3e 00 0b b6 3d 68 77 54 3e
       -0.15554404 0.33530107 0.08888817 0.20748675
000030 ba a8 3b be 9a 7d 3d bd d8 1c 9a 3e 45 ae 25 3e
       -0.18326083 -0.04626236 0.3010013 0.1617976
000040 59 1e ce be 00 7f b1 bc 63 21 86 3e bb ec 3e 3d
       -0.40257528 -0.021667004 0.26197347 0.046612483
000050 c7 6f ea bd 06 88 ca 3b 3a c9 53 be 9b 4d 21 be
       -0.11447101 0.006180766 -0.2068223 -0.1575226
000060 ca fc 38 3d f3 e5 9b be 03 70 e5 bd 02 ae a0 bd
       0.045162953 -0.30448875 -0.11203005 -0.07845689
000070 e6 df 3f be d8 b1 b1 be 79 6d dd 3e 47 22 de 3e
       -0.18737754 -0.34705997 0.43247584 0.43385527
000080 61 2a 8f 3e a8 35 b1 bd ba b2 0d be 69 46 b1 bd
       0.2796202 -0.08652812 -0.1383771 -0.08656008
000090 48 40 de 3e a8 d4 92 3d 00 72 4d be ef 8a 63 3e
       0.43408418 0.07169467 -0.20063019 0.22220968
0000a0 18 b1 9e 3e a7 09 76 3e 10 48 ca bd 90 82 91 be
       0.30994487 0.2402712 -0.09877026 -0.28419924
0000b0 35 f6 c0 3d 28 49 90 be 66 0f d1 bd 33 3a 71 be
       0.0942196 -0.28180814 -0.10208015 -0.23557357
0000c0 a4 42 f2 bd b0 fe 21 3e c7 70 ef 3d d6 c3 7c 3e
       -0.11829117 0.15819812 0.116914324 0.2468408
0000d0 ec b2 18 3e c1 a5 83 3e 24 7e 99 bd 45 bf 8e be
       0.14912003 0.25712398 -0.074947625 -0.27880302
0000e0 13 b8 ad be d7 ab 2b 3e 15 78 67 3e 0e ab a7 3d
       -0.339295 0.1676477 0.22604401 0.08186923
0000f0 3a a0 d6 be 4c ed 41 3c 10 80 a5 be d8 e5 1d 3e
       -0.41919118 0.011836361 -0.32324266 0.1541971
000100 60 22 e7 3b 88 25 5e be 37 d3 de bd b1 02 9c 3e
       0.0070536584 -0.21694005 -0.1088013 0.30470803
000110 53 73 16 3e a9 f1 a9 3e d0 fa d2 3e ea 35 ca 3e
       0.1469243 0.33192185 0.4120698 0.39494258
000120 1b d9 a2 3e 50 65 a4 3e 12 a9 8c 3d 06 10 22 be
       0.31806263 0.32108545 0.06868185 -0.15826425
000130 52 0d 87 3d 9c 92 70 be 47 c0 92 3e c5 4a d5 3e
       0.065943375 -0.23493427 0.2866232 0.41658607
000140 38 c7 24 3e bc 42 44 3e db 1f 97 3e b0 8c a3 3d
       0.16091621 0.19166082 0.2951649 0.079858184
000150 48 09 aa 3d a6 71 59 bd 84 6a 6e 3e 4a d3 c7 be
       0.083025515 -0.0530869 0.2328282 -0.39028388
000160 ed 12 8a 3e 56 e9 3c 3e 2a e4 ee bd d3 77 b5 be
       0.26967564 0.18448386 -0.116646126 -0.3544298
000170 49 f1 9e 3e b7 e2 5b 3e 30 5c 3c 3d 2a 86 8e 3e
       0.3104346 0.21473204 0.045986354 0.27836734
000180 bd 27 93 be 52 c9 94 3e 16 9f 49 3e e5 d4 ab be
       -0.28741255 0.29059845 0.19689593 -0.33560863
000190 99 74 37 3e f7 69 a1 3e 23 eb 9e be c3 fd 7f be
       0.17915572 0.31526157 -0.3103877 -0.24999146
0001a0 29 33 9c be 95 37 9c be 8c 29 e8 bd 8c 08 47 3e
       -0.30507782 -0.30511156 -0.113360494 0.19436854
0001b0 fd 9d a3 bd 02 64 cf 3e 20 8b c4 be 2a a7 83 bd
       -0.07989118 0.40505987 -0.38387394 -0.064283684
0001c0 be 93 bd 3d 6e f9 11 be 76 65 0e 3e 3e 14 95 be
       0.09256695 -0.14255306 0.13905892 -0.29117006
0001d0 86 4f 4a 3e dd 88 5d 3e 01 b0 db 3e b3 da d1 bc
       0.19756898 0.2163424 0.42907718 -0.02561698
0001e0 8b 53 80 3e a9 c3 8c 3e 4f e6 50 3c 2f 18 cd be
       0.25063738 0.27493027 0.012750222 -0.40057513
0001f0 23 ce 40 be 6d e5 d1 be a9 d3 a8 be 32 de dc be
       -0.18828635 -0.4099535 -0.32973984 -0.43138272
000200 1b af 4e bd 48 d9 cb be b2 95 45 3e 36 d7 26 be
       -0.050459962 -0.3981421 0.19295385 -0.16293034
000210 28 65 8d 3e fc 1e 90 be 19 60 9a 3e 97 36 b8 bd
       0.2761624 -0.2814864 0.30151442 -0.08994787
000220 38 47 06 be ed 1a 9b 3d 75 b6 96 3e 70 5c 17 3e
       -0.13113105 0.07573495 0.2943608 0.14781356
000230 07 e5 c2 3e 1b cc 92 be d1 38 0e be 4a 8f 1a bd
       0.3806536 -0.28671345 -0.13888861 -0.037734307
000240 3f e9 1c be ae 5c 5e be 48 54 03 be 9d f6 8c bd
       -0.15323351 -0.21715042 -0.1282512 -0.06882975
000250 d5 2f 93 bc e1 f5 97 3d af f9 ba be 07 b0 3f be
       -0.017967144 0.074199446 -0.36518618 -0.18719493
000260 b9 41 b0 be 01 09 9c be 44 f7 54 be 01 86 47 3e
       -0.34425142 -0.3047562 -0.2079745 0.19484712
000270 21 ef 47 bc aa 29 a9 3e 77 9f 8f be 49 9e 22 3e
       -0.012203009 0.330396 -0.2805135 0.15880693
000280 46 c9 a2 3e 5e f7 3f 3e a7 8f 1b 3d 49 0b e8 3d
       0.31794184 0.18746707 0.037978794 0.113302775
000290 f2 a3 bc be f7 37 65 bd 0e 33 59 bd 62 40 5c 3d
       -0.3684383 -0.055961575 -0.053027205 0.053772338
0002a0 45 0a 7a 3c 82 8b 92 be 76 70 a0 be e6 38 71 3e
       0.0152612375 -0.2862206 -0.313358 0.23556861
0002b0 20 c2 26 bb 40 b0 93 3e 7f 03 92 bb cd b2 c3 3d
       -0.0025445297 0.28845406 -0.004455983 0.09555588
0002c0 89 98 94 3d 4c bf e3 be d0 af c4 3d 7b 0e 9c be
       0.07255656 -0.44481885 0.09603846 -0.30479798
0002d0 e7 8b f9 3e 30 bc 01 3e 8b 9d 93 3e 16 90 3a 3e
       0.4873955 0.12669444 0.28831133 0.18219027
0002e0 25 fd 90 3d 4f 78 d9 3e 3a 2f 7b 3d 13 de 90 3d
       0.070795335 0.424746 0.061324336 0.07073607
0002f0 db e9 86 be 0d b1 ca 3c 9f 46 93 3e 75 0b b1 bd
       -0.26350293 0.024742628 0.28764817 -0.086447634

layer1.0.bias f4 [32]
000000 8a 2b ce 3d b6 c0 16 3e 5d ee 28 3e d6 e0 3c be
       0.10066898 0.14721951 0.16497178 -0.18445143
000010 38 c6 98 3e 9e 49 8b 3e 42 6c cf 3e c0 d4 f4 3c
       0.2983873 0.27204603 0.40512282 0.029886603
000020 05 5f 85 be f7 21 99 be c2 99 a5 3e a2 26 48 be
       -0.26049057 -0.29908726 0.3234387 -0.19545987
000030 86 ed e7 bd bc ba 0f bd 19 16 61 bd 01 fb 05 3e
       -0.11324601 -0.035090193 -0.054952715 0.13084032
000040 c2 54 25 be 88 79 59 3e 08 7a 2f be 27 a8 b1 3e
       -0.16145614 0.21237767 -0.17136395 0.34698603
000050 7f 06 4e 3e d3 c7 c6 be 67 5c 7b 3e 08 54 f3 bd
       0.20119666 -0.3882433 0.24546967 -0.11881262
000060 c8 dd 20 be 00 56 c4 be fc 21 bf 3e 0b 4f 88 be
       -0.15709603 -0.38346863 0.37330616 -0.26622805
000070 aa 60 81 bd 1a 0f 1e be f7 d5 22 bd f4 a7 bf 3e
       -0.06317265 -0.15435448 -0.039754834 0.37432826

layer1.1.weight f4 [32, 32, 6, 1]
000000 7a df f7 bc 11 f1 46 3d 12 fe a6 bc 98 ed 23 3d
       -0.03025793 0.048569743 -0.020384822 0.04002151
000010 fd 0b 33 3d 5f a9 5d bd 2c c1 13 bd cd 5b a2 bc
       0.043712605 -0.054116603 -0.036072895 -0.019819165
000020 51 ae 01 bd e1 58 83 bd b0 ad 68 3d 1f 17 46 3d
       -0.03166038 -0.06413437 0.056806266 0.048361894
000030 52 66 0f bd 54 df 91 3d 48 1f 36 3d b5 49 53 3d
       -0.03500969 0.071226746 0.044463426 0.051583964
000040 59 f3 2f 3d 9a 4c f3 bc 73 33 dd 3c c1 ad 0f 3d
       0.042956684 -0.029699612 0.027002072 0.035077814
000050 b3 dc 0a 3d 13 db 76 3d cd 1f 56 bd 94 04 5f bd
       0.03390188 0.06026752 -0.05227642 -0.054447725
000060 7c 2e bf 3d b3 d5 f2 bc 67 d4 56 3d 9f 86 b2 3b
       0.09335038 -0.029642915 0.052448656 0.005448177
000070 79 24 a2 3c 17 20 c6 3c bf 62 b9 bb f3 02 87 3b
       0.019792782 0.024185224 -0.0056575234 0.0041202246
000080 22 95 c3 bb dd a7 a7 bd 95 11 a2 3c 33 4e 11 3d
       -0.0059687058 -0.08186314 0.019783774 0.035474967
000090 b1 bc 52 bd 7e 40 c6 bd 79 6f 4e bd 34 fc 5d bb
       -0.05144948 -0.0968027 -0.050399277 -0.0033872249
0000a0 ba 9a 35 3d d4 6a ac bd e6 b7 46 bc ba ef 43 bc
       0.044337012 -0.08418813 -0.012128806 -0.011959011
0000b0 90 8e 82 bc b5 17 ce bc 26 59 60 3d d4 5a b9 bb
       -0.01593712 -0.025157789 0.05477252 -0.0056565795
0000c0 07 14 5a 3c 85 bb 39 3d b9 e0 8f bd 96 a1 2d bd
       0.013310439 0.04534485 -0.07025284 -0.04239043
0000d0 1a 61 9c bd 13 2b 38 3d 23 53 14 bd c5 1a 62 3d
       -0.07635708 0.044962954 -0.036212098 0.05520131
0000e0 28 37 e4 bc f5 42 45 3d 6f 04 f4 bb b8 ae 6d 3c
       -0.027858332 0.04815956 -0.0074468176 0.014506988
0000f0 ee dd 23 bd 5c 3a 9b bc 00 73 4e bd 20 e0 39 bd
       -0.04000657 -0.018948726 -0.05040264 -0.045379758
000100 62 e7 82 3c 8a 45 75 3d d8 fd 93 bd 53 b8 c7 bc
       0.015979473 0.05988077 -0.07226151 -0.024379885
000110 94 f1 22 bd dc 34 cc 3c 2d 0e 84 bd b9 c4 05 3b
       -0.039781168 0.024927549 -0.06448016 0.0020411445
000120 67 8e 8f bd 8e 11 84 bd f6 9e 9b bc d9 fc b6 bc
       -0.07009583 -0.06448661 -0.018996697 -0.022337364
000130 1c 1c 77 ba 04 b1 f8 3c 65 dd 53 bd 6d 36 ae bd
       -0.0009426491 0.030357845 -0.05172481 -0.08506475
000140 7c 2f ad bd 3e b9 83 bd e7 28 85 3a b6 ad fc bc
       -0.084563226 -0.064318165 0.0010159285 -0.03084455
000150 8b dd d6 3c 93 20 54 3b 6f 22 23 bd b2 60 ec bc
       0.026228687 0.0032368049 -0.03982776 -0.028854702
000160 ab e4 2f bd 24 9c d2 3c 8d 37 b3 3c 8b 15 60 bd
       -0.042942684 0.02570922 0.021877075 -0.054708045
000170 36 3f 77 bd d3 a7 94 bd f5 d8 93 bd f9 3a 83 bd
       -0.060363017 -0.072585724 -0.07219116 -0.064077325
000180 20 57 f0 bc a8 40 26 3d 8d c8 19 bc eb d4 db bc
       -0.02933842 0.040589005 -0.009386194 -0.026834926
000190 7a 94 7b 3d 0d 6c 5d 3d 1c 5b cb 3d 91 67 2a bd
       0.061420895 0.054058123 0.09929487 -0.041602675
0001a0 47 68 a9 3d 5f 96 24 bd fd 8c b4 3c 50 fa 4a bd
       0.082718424 -0.040182468 0.022039885 -0.049555123
0001b0 c0 b3 6a bd 89 5f aa 3c 2b ff ca 3b 91 10 ac bc
       -0.05730033 0.020797508 0.006194969 -0.021003993
0001c0 70 5d 84 bd 48 e9 6c bd f0 4b f4 bc 52 2a fc 3c
       -0.06463134 -0.05783966 -0.029821366 0.030781899
0001d0 2c 6c 77 3b fc b8 59 bd 4a 67 0f bd c8 d6 a6 3b
       0.0037753684 -0.05315493 -0.035010614 0.005091522
0001e0 99 88 86 bc b5 31 52 3d 3b 7f 9e bc 99 6c 05 3c
       -0.016422557 0.051316936 -0.019347778 0.0081435675
0001f0 f6 fa 47 3c 4a 32 92 3d aa f3 22 3d ee 4d b0 3d
       0.01220583 0.07138498 0.039783157 0.08608614
000200 7e 08 00 3d 95 37 9c 3d 31 ac bd 3d 98 e2 b6 3d
       0.0312581 0.07627789 0.092613585 0.08929938
000210 21 bd 6f 3c 76 a0 56 ba c9 f6 36 3d 97 df 6e 3d
       0.014632494 -0.00081873627 0.044668946 0.0583187
000220 ce 01 5b 3b 77 f8 01 bd 50 61 25 bc 80 c5 04 bd
       0.0033417824 -0.031731095 -0.010094002 -0.032414913
000230 ef d4 51 bd 97 ee 85 bd 0c 9e 5d bd 15 e2 67 3c
       -0.05122846 -0.06539648 -0.054105803 0.014153023
000240 c9 36 15 3d f8 ea 0f 3d ec 28 b6 3b f7 9f 86 3d
       0.0364292 0.035136193 0.0055590775 0.065734796
000250 ae 08 1a bb eb 0c 0b 3d 0c 4c 96 3b 62 e9 ee 3c
       -0.0023503709 0.033947866 0.004586702 0.02916402
000260 e9 b4 68 3d 24 36 21 3d 31 00 54 3c 94 06 9c 3d
       0.056813154 0.039358273 0.012939499 0.07618442
000270 a8 96 78 bc 77 4d 2d 3c 64 7e a6 bd 6b 4a 80 bd
       -0.015172638 0.010577551 -0.08129576 -0.06264194
000280 8b cf 58 bd d5 6f b7 38 47 ee 3b 3b 5e 53 89 3d
       -0.052932303 8.74695e-05 0.002867596 0.06705354
000290 8f f2 41 bc 9b 6e 16 bc 81 83 96 bc 29 8a a3 3c
       -0.011837616 -0.009181644 -0.018373253 0.01996334
0002a0 41 1c a0 bc b3 c8 f6 bc 08 06 37 bc 87 dd 3e bd
       -0.019544723 -0.030124998 -0.011170872 -0.046597984
0002b0 f0 53 8a bd a4 49 74 bc 78 3f 2b bd a9 2c 08 bc
       -0.06754291 -0.014910135 -0.041808575 -0.008311429
0002c0 4c b8 ba 3c 33 bd d8 3c 56 30 c4 bb f2 6a 30 3b
       0.022792958 0.026457405 -0.0059872074 0.0026919213
0002d0 de 0e c9 bd b0 00 57 bd 5e 93 cd 3c ff d6 7e bd
       -0.09817289 -0.05249089 0.025094684 -0.062216755
0002e0 ac 19 bc 3c 74 4d 63 bd d2 0c 63 bd d4 e7 98 bd
       0.02296146 -0.055493787 -0.05543215 -0.07466093
0002f0 a2 b0 49 bd 73 e9 34 3b b9 78 81 3d cf f7 15 bd
       -0.049240716 0.0027604967 0.06321854 -0.03661328
000300 19 81 aa 3c db dd 45 bd a7 31 ef 38 4d 99 30 3d
       0.020813512 -0.04830728 0.000114056566 0.04311495
000310 77 71 90 3d 52 99 90 bd d3 08 50 bc bc 00 a1 bc
       0.07052892 -0.070604935 -0.012697416 -0.01965367
000320 7d c8 5d bd a9 cd 60 bd 39 60 89 3d e5 42 5f 3c
       -0.05414628 -0.054883633 0.06707806 0.013626789
000330 32 a2 5c bd be 21 a0 bc e0 d8 57 3d 61 9c 7d 3b
       -0.05386562 -0.01954734 0.052697062 0.0038697945
000340 bb 59 58 bd 4b 7c 0e bc 9a 7c 30 bd 82 6a 8d bd
       -0.05281995 -0.008696626 -0.04308758 -0.069050804
000350 ce 16 79 bd 3d 56 83 3d da 84 82 bd 7b 3c a3 3c
       -0.060812764 0.06412933 -0.06372996 0.0199263
000360 bc 11 53 bd ef f2 36 3d ae ba 0b 3d 0b 39 bf bc
       -0.051530585 0.044665273 0.03411358 -0.02334263
000370 77 95 91 3d 7b 59 01 bd 75 ba 8c bd 4e f1 95 3c
       0.07108586 -0.031579476 -0.06871501 0.01830354
000380 59 1c 04 bd bc f9 dd bc 3f 5e 4b 3d 98 81 02 bd
       -0.032253597 -0.027096622 0.049650427 -0.03186187
000390 ac fb 87 bd ed cf a4 bc 74 3f f8 bc 00 a5 4c 3b
       -0.066397995 -0.020118678 -0.030303694 0.0031226277
0003a0 0e bd 8a bc e6 30 3e bd e2 f0 f8 3b 46 60 58 3d
       -0.016935851 -0.046433352 0.007597075 0.05282619
0003b0 82 30 27 3d 94 17 85 3d 8e 1b 13 3d da e7 7a 3d
       0.040817745 0.06498638 0.03591495 0.061256267
0003c0 58 f1 0f bd 8e 8f bd 3c 6a 00 8b bd ca aa 34 3d
       -0.035142273 0.023139741 -0.06787188 0.04410819
0003d0 b9 0c 54 bb 3c 5c 1f bd c2 d0 ec bc 3f 47 3d bc
       -0.0032356216 -0.03890632 -0.028908137 -0.011552631
0003e0 10 67 44 3d e4 24 69 bc fe 02 c0 3c 72 01 a5 b9
       0.04794985 -0.014229987 0.023438927 -0.0003147233
0003f0 33 99 84 bd dc f4 bc 3c 04 86 16 3d 92 c3 90 3d
       -0.06474533 0.023065977 0.0367489 0.07068552

layer1.1.bias f4 [32]
000000 c4 de 10 3d a7 b8 ca 3c bc 76 62 bd a7 1a 92 bd
       0.035368696 0.024746252 -0.055289015 -0.0713399
000010 f5 c6 31 bd 63 ad 6f bd 56 6c 0a 3d 3a fa 95 3b
       -0.04340263 -0.058514964 0.033794723 0.0045769485
000020 3d a9 33 3c 59 c7 07 bd eb 70 03 bd 8f 1f 83 bd
       0.0109656425 -0.033149097 -0.03209011 -0.06402504
000030 06 99 b3 bd c4 a7 06 3d 7c ad 45 bd fd 7f 10 bd
       -0.08769421 0.032874838 -0.04826115 -0.03527831
000040 96 7c b6 3c e3 40 86 3d 78 a3 50 3d 56 35 66 3c
       0.022276204 0.06555345 0.050937146 0.014050802
000050 b0 09 17 bd 6e bf 14 bd 62 88 3d 3d 7c f6 c4 bb
       -0.036874473 -0.036315374 0.046272643 -0.0060108285
000060 74 b5 14 bd 1f c5 90 bc 92 35 c1 bb 23 37 a8 3c
       -0.03630586 -0.01767212 -0.0058962787 0.020534104
000070 a4 74 92 3d 4a fc 6f bc fc 49 8f bb 6e b1 8a bc
       0.07151154 -0.014647553 -0.0043728333 -0.016930308

layer1.2.weight f4 [32, 32, 6, 1]
000000 da 45 fe 3a 66 41 be 3c e2 d1 a8 3b c2 d3 0b 3d
       0.001939948 0.023224544 0.005151973 0.034137495
000010 88 03 5c 3d 6e 28 54 3d b1 e4 84 bd ea df 3e bd
       0.053714305 0.05179637 -0.06488932 -0.04660026
000020 22 40 76 bd f7 72 83 bd aa 89 91 bd e9 c7 35 3d
       -0.060119756 -0.06418412 -0.071063355 0.044380102
000030 41 5d 3b 3d e3 be ec 3c 49 eb 90 bc d1 fd 30 bd
       0.04574323 0.028899616 -0.017690318 -0.04321081
000040 ca dd 24 3d 0d eb c6 bc db 7b 0e bd 72 a7 37 bc
       0.040250577 -0.024282003 -0.034786087 -0.011209356
000050 0d 94 82 bd e0 e0 15 3d b6 09 05 bd 3a 31 1e 3d
       -0.06375895 0.03659141 -0.032479964 0.038621165
000060 56 94 67 bd 7f 8c ea 3c 4e c8 81 3b 1b a3 47 3c
       -0.05653795 0.028631447 0.0039606458 0.0121848835
000070 32 85 e7 3a 0a 88 48 bd 70 3c ad 3c 22 57 21 bd
       0.0017663597 -0.048957862 0.021146983 -0.039389737
000080 a7 ab 72 bd f0 a1 85 bd 63 8d 2a bc d0 e0 27 bd
       -0.05924573 -0.06525028 -0.010409686 -0.040985882
000090 e3 18 df 3c cb 12 e6 3c 52 25 09 bb dc 6c 77 3d
       0.027233547 0.028085133 -0.0020926786 0.06040655
0000a0 ea 61 35 bd 79 ff 73 3d d9 d3 74 bd fc 21 d4 bc
       -0.04428283 0.05956981 -0.059772346 -0.025895111
0000b0 5d 06 5b bc fc 57 06 3d 74 6a 8a bd ca b2 1b bd
       -0.013368216 0.032798752 -0.067585856 -0.038012303
0000c0 0c f7 d9 3b 7b 8a 23 bd 82 82 8a bd 11 85 92 bd
       0.0066517647 -0.039926987 -0.06763174 -0.07154287
0000d0 54 88 99 bd ee b3 36 3c 21 ff 38 bc b7 f8 81 3c
       -0.07496706 0.011151297 -0.011291296 0.015865667
0000e0 9d 38 6d 3c af e9 80 bd fc bc 8a 3c 3a 87 9e bd
       0.01447883 -0.062945716 0.016935818 -0.07740636
0000f0 9f 61 86 bd 98 e4 be 3c 42 de b1 bc 5a 5c 60 bd
       -0.065615885 0.023302361 -0.021712426 -0.054775573
000100 38 57 31 bd 1c c5 83 3d a6 fc 3b 3d c4 81 73 3d
       -0.04329607 0.0643408 0.04589524 0.059449926
000110 c9 3b 88 bd a5 4d 23 3d ce c4 fa bc 19 75 3d 3d
       -0.06652028 0.03986897 -0.030611422 0.04625425
000120 22 a5 d4 3c 0e da 84 3d ef 63 29 3d 95 b3 72 bd
       0.025957648 0.06486903 0.04135507 -0.059253294
000130 6f 6c 80 bd 00 5a ee 3b 45 0f aa bb bd 93 20 3d
       -0.06270682 0.0072739124 -0.0051898086 0.039203394
000140 17 ba 81 bd eb 3b 61 bc e6 53 89 3c 91 6d 8a 3d
       -0.06334322 -0.013747196 0.016763639 0.067591794
000150 32 d3 e6 3c 92 50 39 bd a0 a8 eb bc c4 0a 6c 3d
       0.028176878 -0.045242853 -0.02876693 0.057627454
000160 58 be 05 3d d9 21 65 3d a1 04 95 3d 3e da 94 bc
       0.03265223 0.055940483 0.072762735 -0.018170472
000170 5e 83 b1 3c 6c c1 eb bc a6 f8 e3 bc fc ff c0 3b
       0.021669086 -0.028778754 -0.027828526 0.0058898907
000180 74 21 ff 3c 15 2e 91 3d 17 ab 83 bd 3f c6 69 3d
       0.031143881 0.070888676 -0.06429117 0.057073828
000190 58 31 ff bc 5c ab 23 bc 38 b0 a7 bc b4 ba 1d 3d
       -0.031151459 -0.009989586 -0.02046977 0.038508132
0001a0 9f 40 49 bd 6b 2d 36 bd bd 29 c9 3c a1 11 41 3d
       -0.049133893 -0.044476908 0.024556035 0.047135953
0001b0 7e b3 6b bd b2 c3 39 3d 3f 26 3f 3d db 62 92 bd
       -0.057544224 0.045352645 0.046667334 -0.071477614
0001c0 6a 78 82 bd 49 96 ed 3c 36 fd 96 3d 7f f9 44 bd
       -0.063706234 0.029002326 0.07372515 -0.0480895
0001d0 2a 88 39 bd c7 27 3d bd 54 4e c0 3c 93 87 92 3d
       -0.04529587 -0.046180513 0.02347485 0.07154765
0001e0 7e a9 d1 ba f6 4c 3b 3d c9 17 e9 3b 11 90 52 3d
       -0.0015995947 0.045727693 0.007113431 0.051406924
0001f0 3e a2 42 bd 2a c8 ec bb 02 ef 56 bd 4d d3 48 bc
       -0.047518007 -0.00722601 -0.05247403 -0.012257409
000200 30 8e 45 bd 7d b4 aa 3c 3b e6 04 3d ec 38 85 bb
       -0.048231304 0.020838017 0.032446127 -0.0040656235
000210 2b 05 96 bc 6d 99 28 3d 3a 39 66 3d b5 e4 43 3c
       -0.018313011 0.041161943 0.05620692 0.0119563835
000220 d7 81 2a 3d 83 e7 de bc 3c c9 4b 3d 5b 37 22 bd
       0.04162773 -0.027210003 0.04975246 -0.039603572
000230 d3 86 5f bd 90 f8 d7 3b 83 fe f0 3c 30 c4 aa 3c
       -0.054571938 0.0065909103 0.029418236 0.020845503
000240 a5 63 90 bd 39 7a c2 bc d4 b5 07 3d 93 ee 42 3d
       -0.07050256 -0.02373992 0.03313239 0.047590803
000250 72 6c 14 bd 2c ef 6a 3b 17 2d 08 bd 65 ca 3e bd
       -0.036236234 0.0035848124 -0.033246126 -0.046579737
000260 b0 61 37 bd ac 37 3b 3d ce 96 99 bd 69 84 19 bd
       -0.044770896 0.04570739 -0.07499467 -0.03747979
000270 ea da 81 bd a4 71 c3 3c 63 6e 69 3d fe 96 8c bd
       -0.06340583 0.023857899 0.05699004 -0.06864737
000280 c4 02 88 3c 26 b4 8c 3d 7f 98 cb bc 35 dd 97 bd
       0.016602881 0.06870298 -0.02485299 -0.07415239
000290 35 b2 e7 3c 74 73 7a 3d 97 88 07 bd f9 62 68 bd
       0.028283218 0.06114526 -0.033089247 -0.056735013
0002a0 14 41 2e 3d 6e 6d ad bc 17 af c4 ba 13 ab 8b 3c
       0.042542532 -0.021170344 -0.0015005794 0.017049348
0002b0 11 ec 0b bd be 95 d2 bc d6 3f 82 3d fd f1 b2 3c
       -0.034160677 -0.025706168 0.06359832 0.021843905
0002c0 77 8d e8 bb b9 10 50 bd 39 ff 82 bb f7 b1 91 3c
       -0.007096942 -0.050797198 -0.00399771 0.017785056
0002d0 ec f9 4b 3d 4f 78 91 bd 20 80 48 3c b5 54 7f bd
       0.04979889 -0.07103025 0.012237579 -0.062336642
0002e0 29 e2 3a 3d ec ce 0a 3d ce 61 0a bd ec 5c 1b 3d
       0.04562584 0.033888742 -0.03378468 0.037930414
0002f0 e7 f7 25 bd 53 e0 90 3d 8f 4a d3 3c 7d de 4d 3d
       -0.04051962 0.070740364 0.025792388 0.05026101
000300 2d 09 71 bd d4 9b ed 3c d5 b0 5b 3d 29 17 de bc
       -0.05884664 0.029004969 0.053635437 -0.027110653
000310 b3 c5 4e 3d 7f 9c 86 3d 04 5a a3 bb 8d d8 44 3d
       0.05048151 0.06572818 -0.004985096 0.04805808
000320 32 76 bd 3b 44 c8 44 bd 2e 82 47 3d bf d3 41 3d
       0.0057819122 -0.04804255 0.048708133 0.047321077
000330 61 95 94 bc b8 83 86 3d df 5e 05 bd 76 c2 4b 3c
       -0.018137636 0.06568092 -0.03256118 0.0124365
000340 cf 07 82 3d 2c 7b 75 bb 1a 31 87 3c f7 8a 6f bd
       0.063491456 -0.003745745 0.016502906 -0.058482137
000350 ec 2c ad bc 58 8b 5d 3d 49 4f 6d bd 22 67 bf 3c
       -0.021139584 0.054087967 -0.05793694 0.023364607
000360 8a fc a0 bd a9 a0 f5 3b a1 19 38 3d ca ad c6 bc
       -0.07860668 0.007495959 0.044946317 -0.024252791
000370 e1 4e 98 bc b8 15 07 3d a3 a3 df bc 86 50 98 3c
       -0.0185923 0.032979697 -0.027299708 0.018593084
000380 d1 8a ed 3c d9 ed 59 bc 61 7b 49 3c 34 ca 8d bd
       0.028996857 -0.013301336 0.012297482 -0.06923333
000390 21 cf cd bc b5 c7 7a 3c f7 0d 91 3d ca 3b 16 3d
       -0.02512318 0.015306403 0.07082742 0.036678113
0003a0 4d 7d 13 3b 51 0b fa bc ca 48 ad 3c b6 81 9c bc
       0.0022505105 -0.030522974 0.021152873 -0.01910482
0003b0 2f 9a 3a 3d 4f 27 2f bd e6 d8 e3 bc 89 8b 6a 3d
       0.045557197 -0.042762097 -0.027813386 0.057261977
0003c0 c4 4d 81 3c 22 06 68 bd a2 e0 73 3d 55 42 3f 3d
       0.015784152 -0.056646474 0.0595404 0.04669412
0003d0 be 07 c3 3c bc 73 49 3d e6 f5 95 3d 70 d8 b3 3d
       0.023807403 0.04918264 0.07322292 0.087815166
0003e0 17 f5 0a 3d f5 5d b7 bc 6a 3f d9 bc 6c d4 89 3d
       0.033925142 -0.02238367 -0.026519496 0.067299694
0003f0 92 b3 c7 bc 24 83 89 3c c5 1e 73 3d 80 77 1c bc
       -0.024377618 0.016786166 0.059355516 -0.009549975

layer1.2.bias f4 [32]
000000 ea 5d 32 3d 69 88 3a 3d de bf c7 3c 10 67 2b 3d
       0.043546595 0.045540247 0.024383482 0.041846335
000010 2e dd 73 3d f2 3e 00 bd 8c 41 90 3d dc 7e b5 bc
       0.059537105 -0.03131003 0.07043752 -0.022155218
000020 0b 54 e6 ba 7a 94 c7 3b d6 9a ae bc ce 6e 5c 3c
       -0.0017572654 0.006090698 -0.021314066 0.013454152
000030 3a 2f 34 bd 3a b9 b1 bb 78 03 7c 3d 31 fc cc bc
       -0.04399035 -0.005423692 0.061526746 -0.025022598
000040 65 ac 96 3d dc 69 60 bd 9a ab 5e 3d 82 54 d1 bc
       0.073571004 -0.054788455 0.05436287 -0.025552992
000050 6d 37 bc bc f8 c0 8a 3d db b9 55 bb 81 4c a0 3d
       -0.022975648 0.06775087 -0.0032612 0.07827092
000060 a5 8a 6a bd b7 3e f9 3c bd c3 06 3d 33 5c af 3c
       -0.057261128 0.030425413 0.032901514 0.021406269
000070 c4 02 a5 3d 1b 64 b9 3b 1a 63 79 3d ff c6 82 3d
       0.08057168 0.0056576855 0.060885526 0.06385612

layer1.3.weight f4 [32, 32, 6, 1]
000000 4f cb 0d bd e5 f4 1c bc 19 44 83 bd d9 99 13 bd
       -0.03461772 -0.009579872 -0.06409473 -0.036035392
000010 75 72 04 3d 20 84 86 bd 6c 8c 09 bd a7 67 3d 3d
       0.032335717 -0.065681696 -0.033581182 0.04624143
000020 ca 9a ae bc 8d 1d 85 3d cc 7e 8d 3d 07 48 1e bd
       -0.021314044 0.06499777 0.0690895 -0.03864291
000030 e2 c0 13 bd 29 4e 7f 3d c0 33 2b bd 68 ca 69 bc
       -0.03607262 0.0623304 -0.0417974 -0.014269449
000040 84 f3 d9 bc f3 bf f7 bb 85 18 e3 3c 5f 29 81 3d
       -0.026605375 -0.007560724 0.027721653 0.06306719
000050 e7 11 b8 3b ff 43 73 3d 4b 52 15 3d 32 13 83 bd
       0.0056173685 0.059391018 0.036455434 -0.064001456
000060 58 c5 cc 3c a3 47 f3 3c a4 4a 3f bc b6 39 55 3d
       0.024996445 0.029697245 -0.011675511 0.05205699
000070 ef 0a 5d bd df ce da bc 3e 19 47 3d 25 25 0b 3c
       -0.053965505 -0.026709972 0.048608057 0.008492743
000080 9e 19 5e bd 50 95 a5 bd f4 fe fc bc 3e 32 6b bc
       -0.05422365 -0.0808512 -0.03088329 -0.01435524
000090 41 3e 59 bd 63 bb c9 3c 86 77 13 3d 26 b1 4e 3d
       -0.053037886 0.024625486 0.03600266 0.05046191
0000a0 72 96 57 3b c6 40 88 bd 72 c6 76 3c c7 00 57 bc
       0.003289607 -0.066529796 0.0150619615 -0.013122744
0000b0 7f 53 58 bd 36 c9 a7 bb cc 44 9e bd cb 3e 2b bd
       -0.052814003 -0.0051204218 -0.07727966 -0.04180793
0000c0 14 3b c7 3c 5a 8f a5 bc 07 53 04 3d 87 1b 39 bd
       0.024320163 -0.020209957 0.032305744 -0.045192268
0000d0 40 5c 82 bb 03 7f a7 bb ac 29 8c 3c e0 34 3a 3c
       -0.003978282 -0.0051115765 0.017109714 0.011365145
0000e0 4b 16 3f bd de 4f 4d 3d 54 68 5c bc c6 57 58 3a
       -0.04665212 0.050124995 -0.013452608 0.00082528254
0000f0 bb b5 ab bd 02 ae 8e bd b0 f2 5b bd 73 0a 79 bb
       -0.08384272 -0.06966783 -0.05369824 -0.0038000613
000100 65 f4 4e bd b1 95 5e bd c5 f0 44 bd fa c0 96 3d
       -0.05052604 -0.054341976 -0.04808118 0.07361026
000110 60 20 5e 3d d6 bb 5e 3b 35 46 1e 3c bc 76 6b bd
       0.054230094 0.003398647 0.009660293 -0.05748628
000120 c7 23 85 3d 41 ac ea 3c 69 72 60 bc 4b 64 88 3d
       0.065009646 0.02864659 -0.0136991525 0.06659754
000130 31 7e 67 bd fd 0e 98 3d 49 85 b0 3c 5c 12 34 3d
       -0.05651683 0.07424734 0.02154793 0.04396282
000140 14 46 43 bd 7f bb 06 3d f7 a5 83 bd e0 59 2d 3d
       -0.047674254 0.032893654 -0.0642814 0.04232204
000150 30 77 84 bb 42 7e 82 3c 44 6d a2 3c 79 ac a9 bc
       -0.0040425286 0.015929345 0.019827493 -0.020712124
000160 83 7b df 3c 26 c4 68 3d 61 e8 4e bc d3 2c 6c 3d
       0.027280575 0.056827687 -0.012628646 0.057659935
000170 f5 82 45 3d 46 8a 06 3c 83 58 88 3d ad f0 87 3d
       0.048220593 0.008211678 0.06657507 0.06637702
000180 76 f1 77 bc 86 d5 70 bd 59 72 f5 3a 62 53 0f 3d
       -0.015133252 -0.05879738 0.0018726095 0.03499163
000190 e6 a9 55 3c b1 b9 54 bd d1 5c ad 3d 69 c1 26 bc
       0.013040995 -0.0519349 0.08464969 -0.0101779485
0001a0 96 5f 95 3d 24 b5 1e bd 97 6c e7 bc c5 0b 5d 3d
       0.07293622 -0.038746968 -0.028250022 0.053966302
0001b0 bb 18 29 bd 20 03 79 3d da 5a 40 3d 50 cc 0e 3d
       -0.04128335 0.060793996 0.046961643 0.034862816
0001c0 b5 e4 1f bd c4 df 97 3d 44 d1 bd 3c 85 80 99 bd
       -0.03903647 0.07415727 0.023171075 -0.07495216
0001d0 98 13 49 3c e8 5c 8f 3a 23 ae 93 bd 47 c7 42 3d
       0.012272738 0.0010937722 -0.07210948 0.047553327
0001e0 4a 92 95 3d d6 c3 ab bb d0 3a 33 3d 37 93 c3 3c
       0.07303293 -0.0052418513 0.04375726 0.023873908
0001f0 3f a0 6b bd 12 75 07 bb c6 e0 31 bd c1 6c 1a bd
       -0.05752587 -0.0020669145 -0.04342725 -0.037701372
000200 e5 ec c5 ba 70 b9 84 bd 64 67 19 bd 61 25 80 bd
       -0.0015100507 -0.06480682 -0.037452117 -0.062571295
000210 d8 a8 7a bd d5 99 89 3c e3 80 e9 bc d6 9d 5a bc
       -0.06119618 0.016796986 -0.02850384 -0.013343295
000220 57 27 ae 3c f6 00 74 3c 18 24 39 3d 51 a6 87 bd
       0.021258993 0.014892807 0.045200437 -0.06623519
000230 57 88 a0 bd 3b 2e 5e 3d 46 52 84 bd f7 27 03 bd
       -0.07838505 0.054243308 -0.06461005 -0.032020535
000240 b5 3e 89 bd 22 82 24 3d 6c 30 4b bd ae 9a b7 3c
       -0.067014135 0.040163167 -0.049606726 0.022412624
000250 cf 84 02 3d 3a 3d 3d 3d a2 00 d4 3a 6c 7f 5d bc
       0.031864937 0.04620097 0.0016174505 -0.013519149
000260 62 d3 86 bc ad 78 a0 bc 62 64 1b 3d 97 a6 9e 3b
       -0.016458217 -0.019588793 0.03793753 0.0048416364
000270 96 e8 8d 3d 20 75 57 bd e0 1f a8 3b dd 88 22 3d
       0.06929128 -0.052601933 0.005130753 0.039681304
000280 b5 ca 49 3d a7 3a 04 bd 02 69 29 bd e1 87 d5 ba
       0.049265582 -0.032282498 -0.04135991 -0.0016291105
000290 42 c4 38 bd f7 be f7 bc 2d 06 d4 bc 04 04 8b bd
       -0.04510904 -0.030242426 -0.025881851 -0.06787875
0002a0 57 09 38 3d ab d8 5c 3d 68 c4 1b 3d a3 95 8b bd
       0.044930782 0.05391757 0.038029104 -0.0681565
0002b0 58 49 47 bd 08 6a 51 bd df 8e 4c 3b 2c 85 e7 bc
       -0.04865393 -0.05112651 0.0031213087 -0.028261743
0002c0 4d 68 16 3d 7c 10 96 3d 98 ef 60 ba 70 3c 88 bc
       0.036720563 0.07327363 -0.0008580624 -0.016630381
0002d0 97 ee 96 3d c8 e4 a3 3d b2 b5 66 3d bf 44 21 3b
       0.07369726 0.08002621 0.056325622 0.0024607626
0002e0 37 a4 13 bc 59 1e 67 bd b6 01 fc 3c c2 a6 71 bd
       -0.00901132 -0.056425426 0.030762535 -0.058996923
0002f0 8d 94 38 3c ce 22 65 3b bb e1 30 3c a6 1f 73 bd
       0.011265886 0.0034963372 0.010796006 -0.059356354
000300 f0 f1 53 3d b6 c9 c8 bb f3 4f 85 3d eb cc 4b 3d
       0.0517444 -0.0061275614 0.0650939 0.049755972
000310 1b 62 21 3d dd 2e 71 bd 0f 8a 4a bd c2 63 55 bd
       0.0394002 -0.058882583 -0.04944807 -0.05209709
000320 3c c7 fe bc 3a b9 1b 3d 32 76 2f bd 68 c9 0e bd
       -0.031100862 0.038018443 -0.04283733 -0.034860045
000330 e2 76 06 3d d1 8c 6c bd 0e d7 14 bd d6 e2 ee bc
       0.03282822 -0.05775148 -0.036337905 -0.029160898
000340 a4 02 1e bc 1f 0f 0a 3d 38 68 77 3d 04 d4 5d 3d
       -0.009644184 0.033705827 0.060402125 0.054157272
000350 00 c6 47 bc 5d d0 f2 3c e3 9d ae 3b 48 94 e6 bb
       -0.012193203 0.029640371 0.00532888 -0.0070367195
000360 94 af ef 3c 46 d6 3a 3d 12 15 83 3d 13 de 1d 3d
       0.029258527 0.045614503 0.06400503 0.038541865
000370 7a 3f 8b bc b1 58 75 3b a9 94 84 3d f5 ca 35 3d
       -0.016998041 0.0037436897 0.06473667 0.044383008
000380 54 5c 69 3d aa 60 80 3d da 53 4c 3d 62 d1 3b 3d
       0.056972817 0.06268437 0.049884655 0.04585398
000390 b6 bc d1 bc 0e 38 e4 3a 15 05 25 bd fc 88 4b bc
       -0.02560268 0.0017411725 -0.04028805 -0.012422796
0003a0 35 61 d4 bc f6 da 9e bd 0e c6 38 3c 2c 01 ac bc
       -0.025925258 -0.07756607 0.011277689 -0.020996653
0003b0 5c 2e 39 3d dc 69 b4 bc e1 d5 ae 3b 73 1d 97 3d
       0.045210227 -0.022023134 0.005335555 0.07378664
0003c0 21 dd 17 3d 82 d6 95 3d f0 f4 23 bd 2b 4b 8d 3c
       0.03707612 0.07316305 -0.040028512 0.017247757
0003d0 b5 8b 71 bd 17 fc 1f bd 17 93 b9 3c f5 0c 75 3c
       -0.058971126 -0.03905877 0.022653146 0.0149567025
0003e0 96 9f 88 bd ba e0 9f 3c b5 1a 60 3c 34 35 5b bd
       -0.066710636 0.019516338 0.013678242 -0.053517535
0003f0 93 c6 3e bd b1 9b 30 3d 09 35 4a bd 0c e1 95 bc
       -0.046576094 0.04311723 -0.049366985 -0.018295787

layer1.3.bias f4 [32]
000000 79 04 58 bb 59 6d a0 bd c5 c9 18 bd 47 57 77 bc
       -0.003296165 -0.078333564 -0.037301797 -0.015096492
000010 bf 23 2b bd 78 04 30 bd 20 08 f6 3c 23 c8 98 3c
       -0.041782137 -0.04297301 0.030033171 0.01865012
000020 fb b2 e3 3b 64 7d e6 bc 6e cc 1b 3d b0 8e aa 3d
       0.0069488264 -0.028135963 0.038036756 0.08327997
000030 7e 9a 0c 3d 90 f1 27 3d 11 b9 6f bd bf f5 6d 3d
       0.034327023 0.041001856 -0.058526102 0.05809569
000040 70 21 46 bd d6 fe 93 bd 9c 9d f9 3c 3a 2f 43 bd
       -0.048371732 -0.072263405 0.030470662 -0.04765246
000050 94 90 11 bd cb 4f ef 37 4e 2a 41 bd 34 bb 6f 3d
       -0.03553827 2.8528177e-05 -0.047159486 0.05852814
000060 92 19 47 bd 9f be 27 3c e5 0e 85 bd ff 1d 88 3c
       -0.04860837 0.010238319 -0.064969815 0.016615866
000070 3f a3 a4 3d 3d 04 bf 3d 2f 97 8d bd 88 ec de 3c
       0.08038949 0.0932698 -0.069136016 0.027212396

lstm1.weight_ih_l0 f4 [256, 480]
000000 19 17 13 3d bc ec de bc d0 c7 f8 bd 60 37 90 3d
       0.0359107 -0.027212493 -0.12147486 0.07041812
000010 25 eb 9a 3d 3f 02 19 bd 12 58 fc bd ac 12 d3 bd
       0.075643815 -0.037355658 -0.123214856 -0.10306296
000020 c2 e9 cb bd 8c 76 3c bd b6 a7 de 3c ad 29 1a bd
       -0.09956695 -0.046011493 0.02717958 -0.0376374
000030 c1 cd b8 3d a2 8c 9e bd d2 c5 89 bd 1e db 23 3b
       0.090236194 -0.07741667 -0.06727184 0.002500243
000040 85 57 d2 3d 47 9f a8 3c eb cb 07 bd 8d 41 e2 bd
       0.10270599 0.020583762 -0.033153456 -0.11047659
000050 73 8d b4 bc 44 bf 13 bc 40 71 81 3d ea b2 8f 3d
       -0.022040104 -0.009017769 0.06320429 0.07016547
000060 98 64 09 3c d7 20 64 3d 5b 39 f1 3b de b2 47 3c
       0.0083858 0.05569538 0.0073615736 0.012188641
000070 f9 76 29 bd fb 0e bb bd ad 0f a2 3d 6e 87 5f 3d
       -0.041373227 -0.09133717 0.07913146 0.054572515
000080 0f c3 a9 3d 13 75 97 bd f3 2b 4f 3d f5 a0 89 bc
       0.082891576 -0.07395377 0.050579023 -0.016800383
000090 60 32 dc bd e5 eb 58 bc 1c d1 9c bd 51 cb 85 bd
       -0.10751796 -0.013239835 -0.07657072 -0.0653292
0000a0 42 6f 85 3d 78 63 a3 3d 32 3b f2 3d 59 84 cb 3d
       0.06515361 0.079779565 0.11827697 0.09937353
0000b0 10 06 db 3d 9f 69 88 3d b2 d0 ce bc 84 89 f3 39
       0.10694516 0.066607706 -0.025245998 0.0004645103
0000c0 37 3e 87 bd 42 9b 7d bd f5 93 fc bb c9 07 cb 3c
       -0.066036634 -0.061915644 -0.0077080675 0.024783986
0000d0 f7 33 e8 3b 26 21 ee 3d 5c eb ab bd 42 13 e2 3d
       0.007086273 0.11627416 -0.083945006 0.110388294
0000e0 c1 e7 65 bd 93 81 9d bc a0 6c bd 3d 36 87 da bd
       -0.05612922 -0.019226825 0.09249234 -0.10670321
0000f0 e1 c8 ad bd 1c 9c 61 3d 5b 1a 7e 3d c4 3b 19 3d
       -0.0848558 0.055080518 0.062036853 0.037410513
000100 ec 4a c7 bd 56 c1 70 bd 1f 34 49 bd a3 60 f2 bd
       -0.09731087 -0.05877813 -0.049121972 -0.11834838
000110 6b e5 e0 bd 5a 29 35 bd 0c fb a2 bd 24 e6 69 bd
       -0.10981258 -0.04422889 -0.0795804 -0.057104245
000120 60 78 9b bc 45 17 0b bd 27 85 55 bd f9 29 94 bc
       -0.018978298 -0.03395774 -0.052128937 -0.01808642
000130 a6 2e e7 bd 98 bb ca bd 0b e4 f6 3d 3c 4f cf bd
       -0.11288194 -0.09899062 0.120552145 -0.10122535
000140 1c ce 17 3d f2 f3 96 bd 43 fc fb bd 30 2e 87 bd
       0.037061796 -0.073707476 -0.123039745 -0.066006064
000150 14 9a 43 3c 63 b8 71 3d 9e 47 54 bd a9 cb a0 3d
       0.011938591 0.059013736 -0.051826112 0.07851345
000160 99 02 cc 3c 8a cf bc bd 14 0b 41 3c 6b 0c de 3d
       0.024903582 -0.092192724 0.011782426 0.10842212
000170 d0 73 40 3d c0 d5 d3 bd 2a 7d 9c bd 67 37 a9 bc
       0.046985447 -0.10343504 -0.07641061 -0.0206563
000180 6c 55 d7 3d 4a 30 77 bc c1 1e 85 3d 7d 01 46 bd
       0.1051434 -0.015087197 0.065000065 -0.048341263
000190 32 cc de bd 1f 72 44 3d 0a 72 85 bd ba 33 87 3d
       -0.10878791 0.047960397 -0.06515892 0.06601663
0001a0 7d 24 b0 bd aa 9b 08 3d d1 0f 9b 3c fd 0f 8d 3d
       -0.086007096 0.033351578 0.01892844 0.06887815
0001b0 23 d6 95 bc df b9 da bd 57 00 66 bd 36 19 91 bd
       -0.018290585 -0.10679983 -0.056152668 -0.07084887
0001c0 2c d8 01 bd 87 f6 dc 3d 53 7a a2 3d 61 eb 9f 3c
       -0.0317003 0.10789209 0.07933488 0.019521417
0001d0 9a c4 13 3d 3b 58 cf ba 87 be b6 bc 08 4f 76 3b
       0.036076166 -0.0015819141 -0.022307647 0.0037583727
0001e0 e3 48 d0 3d 38 87 4e 3d c8 7d 30 bd 72 ba 22 bd
       0.10170152 0.050421923 -0.043088704 -0.03972859
0001f0 6f c3 e0 bd 30 2b 04 bd 9d 97 9e bd 63 1b 0a 3b
       -0.10974776 -0.03226775 -0.07743762 0.0021073453
000200 32 d3 1a 3d 02 17 5c bc 7c cf 42 3d 2b 51 b2 3d
       0.037799068 -0.01343322 0.047561154 0.08706888
000210 87 44 ce bd bf a3 a4 bd 1e 6e 52 b9 17 65 97 bd
       -0.10071664 -0.080390446 -0.00020068182 -0.07392328
000220 5e 8d 6a 3d 8f 50 8d 3c 70 48 65 bd 43 8b c3 bc
       0.057263725 0.017250327 -0.055977285 -0.023870116
000230 89 4b a3 bd b2 19 3b 3d 74 3f dd bd 4f 51 ee bb
       -0.079733916 0.0456788 -0.10803118 -0.0072728763
000240 b0 13 86 3c 13 84 a1 bd 4f be ee 3d e1 82 c3 3d
       0.01636681 -0.07886519 0.11657392 0.095464475
000250 1c 5f 73 bc f0 31 bd bc b6 93 b3 3d cd 82 00 3d
       -0.014854219 -0.023095101 0.08768408 0.03137474
000260 bf 15 96 bd be a3 70 bd 7a c5 84 3c 26 58 a1 bd
       -0.073283665 -0.058749907 0.016207445 -0.07878141
000270 e1 c3 0c 3d 98 99 9d 3d b8 4d 75 3d 7b b9 c5 3d
       0.034366492 0.07695311 0.05988857 0.09654518
000280 c2 c2 a7 bc 0e 92 48 bc fa cd d8 3c 6b f9 fb bc
       -0.02047861 -0.012241853 0.026465405 -0.03075858
000290 3b bb 36 3b 95 fa d8 bd a3 40 93 bd 0b d8 89 bd
       0.0027882594 -0.1059467 -0.07190063 -0.0673066
0002a0 cc 0b 9d 3d 5f d3 86 bd da 06 65 bd 59 10 a3 bd
       0.07668266 -0.065832846 -0.055914737 -0.079621024
0002b0 e1 23 b9 bd e7 7c ed 3d 85 40 1d 3d 84 ce a0 3d
       -0.090400465 0.11596089 0.03839161 0.0785189
0002c0 c4 9c 4c bc 8c 8d 6d 3a dc 73 1e 3d aa 79 24 bd
       -0.012488548 0.00090619246 0.03868471 -0.04015509
0002d0 c6 03 79 3d ca 28 81 bd 73 a6 1b 3d 24 74 ba bd
       0.060794614 -0.06306608 0.038000535 -0.09104183
0002e0 25 1b 96 bd d1 56 b6 3d 71 89 3f bd 1d 84 80 bd
       -0.07329396 0.08903278 -0.046761934 -0.062751986
0002f0 0e 3f 3b bd 2b 49 93 3d b0 47 ab bd 4f ab 58 bc
       -0.04571443 0.0719169 -0.08363283 -0.013224437
000300 57 81 20 3c 17 28 99 3d 18 75 98 3d 62 d5 b6 3c
       0.009796462 0.0747835 0.07444209 0.022318546
000310 d6 28 98 bc 5a 16 94 3d ce ba ed bd c9 17 f5 3c
       -0.01857416 0.07230826 -0.11607896 0.029918568
000320 09 23 08 3d 3b 08 fc bd e5 2e 26 3d af 86 a5 3d
       0.033236537 -0.12306257 0.040572066 0.080823295
000330 e8 6d c3 3c a1 20 8a bd 7e 4d f5 3d 2e 32 fe 3b
       0.023856118 -0.06744505 0.11977671 0.0077574467
000340 7b 99 1b bc 72 5c 54 bc 29 62 f4 bc ae fa ce bc
       -0.009497042 -0.012961494 -0.029831963 -0.025266018
000350 ba 12 b6 bd dc fe dc 3d 68 1b 4c bd 9a 20 a0 3d
       -0.088902906 0.10790798 -0.049830824 0.07818718
000360 41 c4 c3 3c e5 7d ed bd 47 57 91 bd 7b 6f b9 bd
       0.023897292 -0.11596278 -0.07096725 -0.09054466
000370 d6 cf ec bd 32 04 18 bd dc 69 bc 3c ea 35 59 3d
       -0.11563079 -0.037113376 0.022999696 0.053029932
000380 30 35 11 3c 06 6c 07 3e 55 99 40 3d 12 ee 66 3d
       0.008862779 0.13224801 0.04702123 0.056379385
000390 cc 08 a2 3d 60 8e 4e 3d 9a c8 78 bc f0 d9 b5 3d
       0.07911834 0.050428748 -0.015184546 0.08879459
0003a0 37 3d bb bd e8 5e 9b 3d 9b 46 b4 bd a0 14 e4 bc
       -0.09142535 0.07586461 -0.088025294 -0.027841866
0003b0 f2 89 29 3d ee a5 bf bd a3 2e 94 bd 06 d4 96 bd
       0.04139132 -0.093578205 -0.07235458 -0.07364659
0003c0 88 c2 32 3d f1 18 ce bd 1c 68 1c bc d6 30 4f 3d
       0.04364255 -0.10063351 -0.009546306 0.050583683
0003d0 fb 55 87 3d c6 27 93 bd 2d 52 11 3d 69 d7 c5 3a
       0.06608196 -0.071853206 0.03547876 0.0015094104
0003e0 be d0 81 3d 6b 12 89 3c 62 3f 8a bd 13 1f 50 bd
       0.063386425 0.016732415 -0.067503706 -0.050810885
0003f0 99 a1 3d 3c ee ea ff bc 91 43 8f bd af 45 27 3d
       0.011574172 -0.031239953 -0.06995309 0.04083794

lstm1.weight_hh_l0 f4 [256, 64]
000000 9b b9 65 3d 67 6c aa bd 98 17 ae bc 83 b9 fb 3c
       0.05608521 -0.08321457 -0.021251485 0.030728107
000010 87 fa 87 bc 2d f1 a9 3d 38 6f 89 3c 5e ef f0 3d
       -0.016598953 0.08297954 0.016776666 0.11764406
000020 5c 2d 8e bd 34 1c 69 3d 94 b7 42 bd 84 63 ca bd
       -0.06942245 0.056911662 -0.047538355 -0.09882262
000030 7a 63 8b bd e9 4f 32 bd 39 9f a2 3d f4 e6 c1 3d
       -0.06806083 -0.04353324 0.079405256 0.09467879
000040 33 b6 b5 bd fa 6d ef bd fe da 2a bd d1 39 46 bd
       -0.08872642 -0.11690898 -0.041712753 -0.04839498
000050 8a a4 c6 bd 12 58 01 be cd 62 de 3d 6f 2b a6 bd
       -0.09699352 -0.12631252 0.108586885 -0.08113753
000060 29 bf 01 bd 8d 79 b0 3d 8e 22 24 3d 95 8d 8e 3d
       -0.031676445 0.08616934 0.040072016 0.069605984
000070 6e 41 af 3d 73 f6 22 3d 19 1f a0 3d f5 ed 71 bd
       0.085574016 0.039785814 0.078184314 -0.059064824
000080 0c ad 75 3d 98 52 8f bd a5 d4 d9 3c bf 85 b2 ba
       0.059979483 -0.069981754 0.026590655 -0.0013620182
000090 a6 30 6b bd 3b bd b2 3d d1 a9 a5 bd be 9d 4b 3d
       -0.05741944 0.08727499 -0.080890305 0.04971098
0000a0 38 2e e2 3d 78 61 10 bd 14 2b d0 3d c8 fc 3d bd
       0.11043972 -0.035249203 0.101644665 -0.04638365
0000b0 68 86 e4 3c e0 2e 81 bd 02 f2 90 3d a9 c9 c7 bd
       0.027896121 -0.06307769 0.07077409 -0.097552605
0000c0 ef f5 29 3d 43 ee 71 3d 2d 10 c6 bd 08 eb d1 bd
       0.041494306 0.059065115 -0.09671054 -0.10249907
0000d0 ca 9c 49 3d ec 2e 6e 3d 88 ef 9d bc 53 71 ec 3d
       0.04922179 0.058150217 -0.019279256 0.115450524
0000e0 9d 08 59 3d 0a 81 52 bc 2f 39 cd 3d 04 9f 6b bd
       0.05298673 -0.012848148 0.100206725 -0.057524696
0000f0 b9 98 b2 3d 00 52 a8 bb de 48 33 bd 03 e3 a9 3d
       0.08720536 -0.0051367283 -0.043770663 0.08295252
000100 2b f7 7d 3d 9e cf 1b 3d 29 fa 9d 3c a5 d3 2e bd
       0.062003296 0.038039796 0.019284325 -0.04268231
000110 34 c5 02 bc a5 e8 8a bd b8 d9 82 bd 68 e2 3c 3d
       -0.007981587 -0.06782655 -0.06389183 0.046114355
000120 e8 d0 f9 3d 4f 27 e4 3d 05 b1 ed bd 67 ba ec bd
       0.12198049 0.1114031 -0.116060294 -0.11558991
000130 57 c2 bc bd b9 8d 8d bc 55 af ad bd 4a e9 de bc
       -0.09216755 -0.017279493 -0.084807076 -0.02721085
000140 ef 24 c2 bd 0b 94 d6 3d 07 ac 23 bc f6 50 5f bc
       -0.09479701 0.10477456 -0.009989745 -0.013630142
000150 dc db c7 3d 5b e5 ca 3d 2b 6e 91 3c 06 a3 ce 3d
       0.09758732 0.09907027 0.017752727 0.10089688
000160 b7 0e ab bd cf a0 a6 bd f5 af 99 bd 1a d2 0f bd
       -0.08352416 -0.081361406 -0.07504264 -0.035112478
000170 cb bc 31 bd 8d cd 74 bd 19 14 74 3d 9e df b1 3d
       -0.043392938 -0.05976634 0.05958948 0.0868523
000180 6e 7f 56 3d 24 87 77 3b 78 ef ed bc 19 96 c9 bc
       0.05236762 0.003776976 -0.029044852 -0.024607705
000190 a5 2c df bc 1b 42 3b 3d 7e 4b c8 bc e9 84 85 bd
       -0.027242968 0.04571734 -0.02445006 -0.06519491
0001a0 18 64 1d bd ec b5 ec bc 5f 47 93 bd 28 c9 77 bd
       -0.038425535 -0.02889534 -0.07191347 -0.060494572
0001b0 04 78 f3 bd 25 42 f2 3d 5a 89 8e bb 71 9c c8 3c
       -0.118881255 0.11829022 -0.0043498697 0.02448866
0001c0 4b d9 41 bd fe 2d be bc 6a 00 5c bc 9b 4e ae bd
       -0.047326367 -0.02321529 -0.013427833 -0.085110866
0001d0 e7 73 93 bd 56 f3 94 bd 17 36 50 bc 1c f3 89 bd
       -0.07199841 -0.07272975 -0.0127082085 -0.067358226
0001e0 4e ec bf bc a4 a9 dd 3d 64 4f 2c bb 0d 0a 70 3d
       -0.023428109 0.10823372 -0.0026292438 0.058603335
0001f0 06 67 cb 3d b7 0c 27 3d 22 2f ae bc df 13 ca bd
       0.099317595 0.04078361 -0.021262709 -0.09867071
000200 33 0e f0 3c c3 d7 74 bb a0 4e 34 3d aa df 10 bd
       0.029303646 -0.003736005 0.044020295 -0.035369553
000210 d4 bc af bd de f8 ec bb b0 45 9a 3d 22 ba 7c bd
       -0.08580938 -0.0072318157 0.07532823 -0.061700948
000220 68 96 20 bd 4c 25 a6 bd 88 65 7d 3c 3a 5e c4 bd
       -0.03920594 -0.081125826 0.0154661015 -0.09588285
000230 5f 00 f8 bd 72 13 0c 3d 23 91 aa bd 5c d6 21 3d
       -0.12109446 0.034198232 -0.08328464 0.03951107
000240 db eb 92 bb 99 bd ac bb a6 c5 35 3b 0a c2 e3 3d
       -0.0044836826 -0.0052716252 0.0027736216 0.111209944
000250 33 e1 d2 3d 94 88 18 3d 9d 55 e8 3d 21 25 15 3d
       0.102968596 0.037239626 0.113444544 0.036412362
000260 9f db 49 3c ec 8d f7 bc 19 30 be 3c 2d ea df 3d
       0.012320428 -0.03021904 0.023216294 0.10933337
000270 e4 bf 87 3d 67 d9 08 bc f5 eb 4c bd 3b 6b e6 bd
       0.06628397 -0.008352614 -0.050029714 -0.11250921
000280 6f fa b5 bd fc 60 c5 3d 17 8f c9 bd 44 c1 2e bd
       -0.08885657 0.09637639 -0.09841745 -0.04266478
000290 94 20 b2 bd 13 52 f7 bd 1a 03 db 3d 73 ed 12 3d
       -0.0869762 -0.12076201 0.10693951 0.03587098
0002a0 ab 62 93 3c 98 1f f9 3b 02 69 14 3c b0 3d c0 3b
       0.017991384 0.007602643 0.009058239 0.0058667287
0002b0 75 f6 0c bd 3f 9a d0 bd f0 36 d7 bd 50 81 cf 3d
       -0.034414727 -0.1018567 -0.10508525 0.10132086
0002c0 22 93 19 3d e4 c1 db 3d 3c 9d 9a bc 73 6c d4 bd
       0.037493832 0.10730341 -0.018873803 -0.103722475
0002d0 b6 ab 72 3d f2 5e 81 3d 42 d1 97 b9 4b 53 ee 3d
       0.059245788 0.063169375 -0.00028956874 0.116369806
0002e0 f1 0a f8 3d f6 ed 9e 3d 6c 13 53 3d ce 39 ac bc
       0.12111462 0.07760231 0.051532194 -0.021023657
0002f0 5f 36 f5 3c 3e 0e a3 3d d7 4e 02 bd 6e 45 19 bd
       0.029933153 0.07961701 -0.03181347 -0.03741973
000300 b1 b8 54 3c dc 1f e1 3d 29 b8 28 3d 58 ed e8 3d
       0.012983487 0.10992405 0.041191254 0.11373395
000310 e2 93 ec 3d 02 e6 0a 3d 8b 47 b3 bd e9 13 3c bd
       0.11551644 0.03391076 -0.0875388 -0.045917425
000320 eb d7 66 3d 25 66 f9 3d d8 0f b6 3d 3a 78 ec bd
       0.05635826 0.12177686 0.08889741 -0.11546369
000330 fd 77 82 bd 4d 79 50 bd df d7 a1 3d 88 e8 de 3c
       -0.06370542 -0.05089693 0.07902502 0.027210489
000340 05 99 81 bc 83 5f 26 3d c0 70 c0 3d d5 dd bb 3c
       -0.015820036 0.04061843 0.09396505 0.022932926
000350 5f 0c e3 3d 80 fb 91 bc ea 73 e6 3c 95 2c 30 3d
       0.11086344 -0.01782012 0.028131444 0.043011267
000360 18 6c 8f 3c 0e c2 91 bd a4 09 6f bb 7c 03 f4 bc
       0.017507598 -0.07117091 -0.0036474252 -0.029786818
000370 ef e1 b8 bd 45 d8 81 bc 60 c3 51 bc 5f 35 f9 bd
       -0.090274684 -0.015850196 -0.012802929 -0.12168383
000380 b8 57 e5 bd cf 48 a9 3c 89 b6 fc 3d d1 b2 cc 3d
       -0.11198372 0.0206646 0.12339503 0.09995044
000390 0d 95 c4 3b 94 13 87 3d 30 31 97 3d 55 72 d6 3d
       0.0059992136 0.06595531 0.07382429 0.10471026
0003a0 46 c3 ac 3d c7 8b d9 3c 12 9a 80 3d c2 54 a8 3c
       0.08435683 0.026555909 0.062793866 0.020548228
0003b0 1b 00 d1 3c 81 dc 94 bd b4 c8 d5 3d 58 94 42 bd
       0.025512746 -0.0726862 0.10438672 -0.047504753
0003c0 2f 6e 91 bc a8 63 12 3d c0 c0 75 3c 2a 43 d7 3d
       -0.017752735 0.03573957 0.014999568 0.105108574
0003d0 00 c2 d7 bd e0 76 71 bd 1c 4b b9 3c 4c be e5 bd
       -0.105350494 -0.05895126 0.022618823 -0.11217937
0003e0 89 7c 1d 3c 40 9f b0 3d a8 7a 79 3d 32 cb 85 3d
       0.009612211 0.086241245 0.06090799 0.06532897
0003f0 7f 91 db 3d 29 c9 fd 3c 40 90 ba bd 7c f8 dd 3d
       0.107211106 0.03097971 -0.09109545 0.1083841
