sIMU3U.ckpt (torch_old, 870162 bytes, 18 tensors)

layer1.0.weight f4 [32, 1, 6, 1]
000000 01 55 e9 be d3 35 46 bd e2 2c 64 3e b6 f7 3e be
       -0.45572665 -0.048391175 0.22282746 -0.18649182
000010 5a cb be be 56 52 c9 be d9 0b f2 bd 23 64 0c be
       -0.3726452 -0.3932063 -0.11818666 -0.13710074
000020 87 b2 83 3e d9 d0 8e 3e 07 98 bd 3e 23 3f f5 bd
       0.25722143 0.27893713 0.3703005 -0.11974933
000030 c4 72 de be a7 14 a8 3c be be 6a be 3b 6b 2c be
       -0.43446934 0.02051766 -0.22924325 -0.1683778
000040 7e 3f 33 3e 09 1f a1 be 8e 9d c8 be 46 ad 98 be
       0.17504689 -0.3146899 -0.39182705 -0.29819697
000050 c8 49 e2 bd 84 3b 7c bc 2e d4 e8 be bf 4a f7 3c
       -0.11049229 -0.015395049 -0.4547438 0.030187009
000060 81 e8 ca 3e 8a 87 fe 3c fb 50 ca 3e 52 1b d7 bd
       0.3963051 0.03107049 0.39514908 -0.10503258
000070 3a ed 87 be cf 57 33 3e 53 9a d9 3e 9c e4 df 3e
       -0.26548177 0.17513965 0.42500553 0.43729103
000080 a7 4e 41 3e ec e7 b6 3e e7 81 04 3e e8 f9 20 3d
       0.1887766 0.35723817 0.12940179 0.03930083
000090 f3 32 c7 3d 3f f6 87 3a 02 5d 0c be 07 7e 80 be
       0.09726515 0.001037307 -0.13707355 -0.2509615
0000a0 fb 30 55 3d 8a 95 9b 3e de cd 43 3e 6b a7 11 be
       0.052048665 0.30387527 0.19121501 -0.14224021
0000b0 3d 89 91 bc f1 53 d4 3e 62 91 1c 3e 4a 83 de 3e
       -0.017765636 0.41470292 0.15289834 0.4345954
0000c0 4d d0 19 3d a7 9d 97 be fb 67 b6 be 3c 69 69 3e
       0.037552167 -0.29612467 -0.35626206 0.2279405
0000d0 6a d9 f6 bb f7 0e a5 3e 33 af 91 be 85 c1 1d be
       -0.007533242 0.3223798 -0.2845398 -0.15405853
0000e0 fe b3 d5 be ee 06 78 be e9 89 c1 bc a3 63 ee be
       -0.41738886 -0.24221393 -0.023625331 -0.46560392
0000f0 38 de 34 bd b4 81 a0 3d 0b 74 a8 be 82 68 3e 3e
       -0.044157237 0.07837239 -0.32901034 0.18594554
000100 e7 78 9c 3e 94 fa b5 3e 04 5c 94 be 21 a5 ce bd
       0.3056099 0.35542738 -0.28976452 -0.100900896
000110 29 73 9e 3e a8 78 57 3e 7e f5 1b 3e d6 fb 83 bb
       0.30947235 0.2104212 0.15230367 -0.004027824
000120 cb b9 ee 3d fc c7 f7 bd c7 a7 a3 be 1d 24 8f bc
       0.11656531 -0.12098691 -0.3196394 -0.017473275
000130 57 f8 72 3e 1e fd 2b 3e a0 c7 cc 3c 5f d7 85 3d
       0.23727547 0.16795775 0.024997532 0.065352194
000140 3a 25 0f bd f0 b9 d0 be b0 3f ae be 0d 13 cd 3e
       -0.03494761 -0.4076686 -0.34032965 0.40053597
000150 1c 37 1a 3e 5e 8b 6b 3e 2c d3 11 3e 69 1f aa be
       0.15060085 0.23002383 0.14240712 -0.3322709
000160 96 08 7c be 6b a3 ae be 15 36 62 be e7 99 7a be
       -0.2461265 -0.34109053 -0.22090943 -0.24472772
000170 6f 62 ab 3e 5c a9 94 3d ca 75 1b be c7 b9 c8 be
       0.33473536 0.07258865 -0.15181652 -0.39204237
000180 c6 da 66 3d 6f 5b e3 bd 53 87 2d be 09 07 58 3e
       0.056360982 -0.11101424 -0.16946153 0.21096434
000190 37 4f 11 3d 76 44 49 3d d6 dc e3 3d 1a 3d ae be
       0.035475936 0.049137555 0.111261055 -0.34030992
0001a0 91 0e d3 be db e2 e2 bd 43 b4 d9 bd 92 e1 ab bc
       -0.4122205 -0.110784255 -0.10630085 -0.020981584
0001b0 76 61 da be cd 3c b0 be c0 b4 bc 3e b4 98 6f 3d
       -0.42652482 -0.34421387 0.3685665 0.05849524
0001c0 d3 cf be be 86 90 84 3e 4a 40 b0 3d fe 0b 84 3e
       -0.37267932 0.25891513 0.08606012 0.257904
0001d0 f2 1d a4 be 94 89 96 3e 44 06 94 bd 63 94 3b bd
       -0.32054096 0.2940184 -0.072277576 -0.04579581
0001e0 1d 4c 8f 3e 31 99 72 be 59 b8 7a 3e e5 89 44 bd
       0.27987757 -0.2369125 0.24484386 -0.04798307
0001f0 6f cf 64 3c de 6e 9f be a1 27 9e 3d 17 ea 83 3e
       0.013965472 -0.31139272 0.07722402 0.25764534
000200 c2 10 ae be e9 65 ac 3d e2 81 ab bc 05 cf e2 be
       -0.3399716 0.08417875 -0.020935956 -0.44298568
000210 96 06 c0 3e 76 0d a9 3e db 56 2f 3e 5d 48 29 be
       0.37505025 0.33018082 0.17122976 -0.1653151
000220 b4 9c 4b be 5d 9c a5 be 79 ea 08 be 49 52 45 be
       -0.19883996 -0.32345858 -0.13370694 -0.1926967
000230 22 9d 70 be 47 de 73 be c8 be a8 3e 28 88 0c be
       -0.23497441 -0.23815261 0.32958055 -0.13723814
000240 e8 71 55 be c1 4a 17 3e f9 37 5f 3d 59 04 38 be
       -0.20844233 0.1477461 0.05449674 -0.17970408
000250 06 93 7b 3d 9e 16 43 3e c8 c1 2f be 8b 74 da bb
       0.06141951 0.19051597 -0.17163765 -0.006666725
000260 d7 02 56 3c 63 b3 8a 3d 78 63 63 be 55 69 41 3e
       0.0130622005 0.067724966 -0.22205913 0.18887837
000270 e8 90 41 bd 0c 86 85 3e 26 d6 cb ba 31 ec 07 3b
       -0.047257334 0.26078832 -0.0015551492 0.0020740146
000280 83 f2 72 bd b3 40 92 be 55 d8 d4 3d ed bb 2f 3e
       -0.05931331 -0.28564987 0.103928246 0.17161532
000290 ba 86 c6 3d f0 84 ce 3d b8 77 af 3d c1 22 72 3d
       0.09693666 0.100839496 0.085677564 0.059115175
0002a0 18 28 a6 3e 7e d8 5c 3d 0e 24 28 3e 09 7f 61 3e
       0.32452464 0.0539174 0.16420004 0.22021116
0002b0 23 5f a0 be ae a1 b6 3d e7 df 1a 3e c1 3e b6 3e
       -0.31322584 0.08917557 0.15124474 0.35594752
0002c0 19 a7 96 3e 68 a2 8b be 37 6c cb 3e db 40 68 bd
       0.2942436 -0.27272344 0.39731 -0.056702476
0002d0 7c 32 b4 be 54 c2 97 3d ac 9f 98 3e a2 0c 9d be
       -0.35194767 0.07410112 0.2980932 -0.306737
0002e0 d8 54 86 3e f4 bf 56 3e c1 9a 38 bd 1e cf 23 3c
       0.26236606 0.20971662 -0.04506946 0.009998111
0002f0 00 24 8f be 1a 39 fa bc 6e 85 7a 3e 8a 8b c5 3e
       -0.27957153 -0.030544806 0.24464962 0.38583022

layer1.0.bias f4 [32]
000000 f8 ec b9 3b d7 5f 92 be f7 2f e8 be 40 8c 9d ba
       0.005674001 -0.28588745 -0.45349094 -0.0012019947
000010 39 77 b3 3e f4 9c 99 3e c9 6f 76 3e d9 fb 64 bd
       0.35051897 0.30002558 0.2406608 -0.055904243
000020 cd 49 23 3e f7 0d b1 be 66 22 c7 be 3d c0 6c 3e
       0.15946122 -0.34580967 -0.3889343 0.23120208
000030 2b 44 b5 be 02 54 0e be 68 51 1c be 85 4f d6 3e
       -0.3540357 -0.13899234 -0.15265429 0.41857544
000040 f3 6e ad be 9b 91 45 3b 87 f3 91 be b5 f2 b4 be
       -0.3387371 0.0030146602 -0.2850611 -0.3534142
000050 87 73 1a be ba d5 c0 bd 3c ca cc be 3c fb 9e 3e
       -0.15083133 -0.09415765 -0.39998043 0.31051052
000060 03 e7 a1 be b6 e8 d5 3e 54 b5 26 3e 89 da 9b 3e
       -0.3162156 0.41779107 0.16280109 0.30440167
000070 fc 3e 92 3e 69 53 d8 3e 74 54 88 3e fa 09 85 be
       0.28563678 0.42251137 0.26626933 -0.25984174

layer1.1.weight f4 [32, 32, 6, 1]
000000 7a 24 5f 3d db 63 28 3d 16 81 bb 3c bb bd 77 bc
       0.054478146 0.041110855 0.022888701 -0.015120919
000010 df 8a e2 3c 9c ad 71 bc ab 3c 39 3d 08 a4 dc 3c
       0.02765411 -0.014750864 0.045223873 0.026933685
000020 a7 60 21 3d eb bb 97 3b fc 23 f0 ba b4 d5 2c 3d
       0.039398815 0.004630556 -0.0018321271 0.04219599
000030 91 71 52 3c 66 00 14 3d 35 55 eb 3b 86 5c 5d 3d
       0.012844459 0.036133192 0.0071817883 0.054043315
000040 0a 51 45 3d 74 9c 29 bd 39 91 c3 3d 9d 8b 5b bd
       0.048172988 -0.04140897 0.095491834 -0.053599942
000050 fd ed ee bb 62 a4 3b 3d b6 28 da bc 90 d7 84 3d
       -0.007291554 0.045811065 -0.02663074 0.06486428
000060 8c 89 44 bd 2f 86 a0 bd 7b 57 15 bd 31 d6 99 bd
       -0.047982737 -0.078380935 -0.03646038 -0.07511557
000070 ba ee 4d bd 67 54 7a bd d1 2d bf bc 4b ec e1 ba
       -0.050276496 -0.06111565 -0.023337277 -0.0017236558
000080 d3 3f 2f bd 86 52 54 bd 7b 2f 2d 3d 0c a2 aa bb
       -0.042785477 -0.051836513 0.04228161 -0.005207306
000090 9a 2a 51 bd 03 ff 9e bd b5 eb 42 3d fb 20 a6 bc
       -0.05106602 -0.077634834 0.04758807 -0.020279398
0000a0 a9 bf 7c 3d ef 4c f5 bc 69 ef 0f 3d b2 73 70 bd
       0.06170622 -0.029943911 0.03514043 -0.058704086
0000b0 73 ca 56 bc c9 67 67 bd 5c 67 20 3d 10 b3 e4 bb
       -0.013109791 -0.05649546 0.03916107 -0.0069793537
0000c0 a5 78 9b bc 27 9b 87 3c d5 ee 04 3d 2a 94 d8 3c
       -0.018978426 0.016553475 0.03245433 0.026437838
0000d0 73 a0 2e 3c 61 83 30 bc 72 dd cb 3c 5b 07 19 3d
       0.010658371 -0.010773511 0.024885867 0.03736053
0000e0 73 f1 03 ba c5 3b f8 bb c0 f3 44 bd ec 49 95 3d
       -0.0005033232 -0.0075754845 -0.04808402 0.0728949
0000f0 93 9b 26 3d 4f 6d 38 3c a7 11 9a 3d 48 15 fb bc
       0.04067571 0.01125653 0.07522898 -0.030649796
000100 2e cf 4f 3d cc 88 13 bd d4 12 2c 3d 00 c7 9d 3a
       0.05073469 -0.03601913 0.042010143 0.0012037456
000110 77 2e 49 bd 77 d9 b6 3a 67 b2 c7 bb 0f d9 d4 bb
       -0.049116578 0.0013950308 -0.0060942653 -0.006495602
000120 78 c2 93 3d 8d 96 86 3d 56 4b 85 bd c9 1c 09 3d
       0.07214826 0.06571684 -0.0650851 0.033474717
000130 38 fc 2b 3d 63 f4 7e bd b0 09 83 3d 02 0e 78 bd
       0.04198858 -0.062244784 0.06398332 -0.060560234
000140 1a 04 ae bc 52 f6 49 3d d0 4c 4b bb ce 1f 5c bc
       -0.02124219 0.049307175 -0.0031021126 -0.013435317
000150 29 4f 7f bd 8b ee 20 bd 79 dc 91 3d f8 f7 c6 3c
       -0.062331352 -0.039289992 0.0712213 0.024288163
000160 6b d9 9b 3d cf 81 94 3d 41 49 3a bc 48 e0 6e bd
       0.076098286 0.072513215 -0.011370004 -0.05831936
000170 10 f4 a2 3c 4c 26 a1 bc fb 27 51 3b 42 78 72 bd
       0.019891769 -0.019671582 0.00319147 -0.059196718
000180 3b bd e1 bc 1e 5f 4d bb 67 56 12 bc ba 08 96 3d
       -0.027556052 -0.0031337212 -0.008931733 0.07325883
000190 48 29 00 bd fe 06 73 3d 53 ec 05 3b c1 03 55 bd
       -0.03128937 0.05933284 0.002043505 -0.052005533
0001a0 37 17 d1 3c bb c8 0d bd b7 dc 24 bd a0 90 57 3d
       0.025523765 -0.03461526 -0.040249553 0.05262816
0001b0 e1 a4 03 3d c5 f6 0f 3c 04 00 59 3d b0 79 3e bd
       0.032139663 0.008786862 0.05297853 -0.04650277
0001c0 d6 11 4f bd c9 43 e3 bb 16 b7 5f bc 31 38 83 bd
       -0.05055412 -0.006935571 -0.013654491 -0.06407202
0001d0 c6 ae 2e 3d 1f 87 15 bd ab 24 ea 3c 6f 16 61 bd
       0.042647146 -0.036505815 0.028581938 -0.054953035
0001e0 58 5b d8 3c 8a a5 50 3d 79 db 20 bd 54 20 1c 3c
       0.026410744 0.05093912 -0.039271805 0.009529192
0001f0 db e2 69 bd 7d c0 64 3d a3 09 84 3d 60 37 57 bc
       -0.05710111 0.055847634 0.064471506 -0.013135761
000200 cc e5 57 3d 15 a9 16 3d 8f 65 40 bd 5e fa 82 3d
       0.052709386 0.036782343 -0.046971854 0.0639541
000210 e0 a7 09 3d dd d7 68 3b d8 95 62 bd 2d ca 7f bd
       0.033607364 0.0035529055 -0.055318683 -0.06244867
000220 a1 f7 9e 3d ea c7 af 3d df 93 bb 3b ad f9 cf 3c
       0.07762075 0.085830525 0.0057244147 0.02538761
000230 2f a0 18 3d 17 7c ba 3c e9 d0 3d bd f0 c2 54 3d
       0.037262138 0.022764249 -0.04634181 0.05194372
000240 97 cf 91 3d 72 40 31 bd ba cd 6d 3d e8 cd 18 bd
       0.07119673 -0.04327435 0.058057524 -0.037305743
000250 91 93 0d 3d 3b 31 86 3c a7 66 91 bb fc 73 83 3d
       0.03456456 0.016380897 -0.004437286 0.06418607
000260 79 28 7b 3d c7 c7 84 bd 79 df 7f 3d 3c 47 12 bd
       0.061317895 -0.06483417 0.06246898 -0.035712466
000270 1e 4e 59 bd 58 09 45 3d d7 09 8d bd 4b 16 6d 3d
       -0.053053014 0.048104614 -0.068866424 0.05788259
000280 e6 fd 6a bd 14 40 54 ba 2d 57 35 bd 00 12 45 3c
       -0.057371043 -0.00080967066 -0.04427259 0.012028217
000290 5e 69 c6 bc 04 33 99 bd 48 07 73 bd 8e cb 58 3d
       -0.024220165 -0.074804336 -0.059333116 0.0529285
0002a0 cb f8 a9 bd e3 d9 fe 3a 6b 5c 38 bd bf 6c 4a bd
       -0.082994066 0.0019443597 -0.04501001 -0.049420115
0002b0 60 cc d4 bc 93 b3 16 bc 5f d9 e6 bc 4f b8 95 bd
       -0.02597636 -0.009198087 -0.028179822 -0.07310545
0002c0 bc 58 8b bd 6a 6b 9e bd af d6 2f bc 20 17 37 bd
       -0.06804034 -0.07735331 -0.010732337 -0.044699788
0002d0 c6 21 7e bd 95 f3 0d 3d a7 87 88 3c 80 e1 d4 bc
       -0.062043928 0.034656126 0.016666247 -0.025986433
0002e0 6c 25 8a bb f8 64 40 bd 51 1b 3c bd d7 35 23 3c
       -0.004215887 -0.04697129 -0.04592449 0.009961567
0002f0 45 02 f0 3c e1 6c d9 3b a5 91 c9 3c 1e c3 a4 bc
       0.029297957 0.006635294 0.024605582 -0.02011257
000300 4d f6 8f 3d 4e 80 05 bd f2 49 13 3d 0e c6 7a 3d
       0.070294 -0.032593064 0.03595919 0.061224036
000310 ce 90 d9 bc 80 f5 39 bd 54 44 85 3c e9 69 bb 3b
       -0.026558306 -0.045400143 0.016267933 0.0057194126
000320 f2 18 8f bd 06 45 38 bd d6 3f df bb de de 4b 3d
       -0.0698718 -0.0449877 -0.0068130298 0.04977309
000330 60 3f 9a bc ba 42 24 3a 70 9e 8e bd 1a 67 4b 3b
       -0.018829048 0.00062660465 -0.06963813 0.0031036795
000340 c8 af d8 3c bc a8 7d bd b2 d9 c0 bb 30 21 79 3d
       0.026451007 -0.061928496 -0.0058853263 0.060822666
000350 e4 16 76 3d f2 9b b1 3c 16 7c a0 3d 1d f3 3d 3b
       0.060080424 0.021680806 0.078361675 0.0028984018
000360 ea 4a cb bc 44 fb c1 bc bb 8f 81 ba 83 09 32 bc
       -0.024815995 -0.023679383 -0.0009884754 -0.010866526
000370 de 4f ae 3d f8 9e 94 bb fd 02 66 3d 49 de b8 bc
       0.08511327 -0.004535552 0.056155194 -0.022566931
000380 c4 cc 42 bd 55 ef 95 3c 73 41 96 bc 38 5d 5c 3d
       -0.04755856 0.018302599 -0.018341755 0.053799838
000390 73 f8 ca 3c 3e c8 c9 bc 6a 08 58 3d 68 37 9d bc
       0.024776673 -0.024631616 0.0527424 -0.019191459
0003a0 4a a9 5c bd 9a 99 24 3c e0 0a 61 bd 78 4b c6 3c
       -0.053872384 0.010046387 -0.05494201 0.024205908
0003b0 29 d5 4b bd 3c a3 29 bd a1 0d 51 3d 47 9d 07 bc
       -0.049763832 -0.041415438 0.05103839 -0.008277244
0003c0 2e cb 4b 3d 3a 8b 81 3d b5 87 8b 3d be 88 86 3d
       0.049754314 0.063253835 0.068129934 0.0656905
0003d0 4c 2e 39 bc f4 45 b2 3d 34 01 aa bd 9a e6 84 bd
       -0.011302542 0.08704749 -0.08301011 -0.06489296
0003e0 93 4c 15 bd de 5d b4 3c 88 86 3e 3d e5 a2 29 3d
       -0.03644998 0.022017416 0.046515018 0.041415114
0003f0 f5 7a 23 bd df cb 8f bd cf b8 6f 3c 2d 1a 43 3d
       -0.039912183 -0.07021307 0.014631464 0.047632385

layer1.1.bias f4 [32]
000000 78 6b 66 3b 6f 04 2c 3d e7 ec 2d bd 21 88 e6 3d
       0.0035159271 0.041996416 -0.042462256 0.11256433
000010 38 b7 00 bd 10 ad 19 3d ac 28 03 3d dd 9d 6c bd
       -0.03142473 0.03751856 0.03202121 -0.057767738
000020 7e c9 e7 3c 74 86 ea 3c 8f 4f af 3b 73 89 68 3d
       0.028294321 0.028628565 0.0053500603 0.056771707
000030 7c 8c ca bd b2 43 23 bd 03 a6 e5 bc 94 f5 85 bd
       -0.098900765 -0.03985948 -0.028033262 -0.06540981
000040 01 1b 37 bc a3 e6 c7 3c 36 1e 53 3d af a3 22 bd
       -0.011175872 0.024401968 0.051542483 -0.039706882
000050 96 6b bb bd 96 7d 96 3c f1 12 c4 3d 66 94 28 bd
       -0.0915138 0.01837043 0.09573925 -0.04115715
000060 d9 a3 f6 bc 7b ae d2 bc 97 aa 01 3e c0 06 11 bc
       -0.030107426 -0.025717964 0.12662731 -0.008851707
000070 1c 51 04 3d 82 71 3d bd 60 83 57 bd 64 f3 82 bd
       0.032303914 -0.046250828 -0.052615523 -0.06394079

layer1.2.weight f4 [32, 32, 6, 1]
000000 f5 9a b0 3b cb 0d 63 3d 6b 10 8b bd 72 eb 4b 3d
       0.005389566 0.055433076 -0.06790241 0.049785085
000010 ac 5d 9b 3c 39 8f e8 bc b1 8c 24 bd 59 92 19 bd
       0.018965565 -0.028388606 -0.040173236 -0.037493084
000020 5c 63 5e bd 35 97 dd 3c 0b 74 1c 39 c1 cf 89 3c
       -0.054293975 0.02704964 0.00014920549 0.016822698
000030 a7 05 0d 3d 35 95 46 3c 58 8f 2e bd 3b 23 4b 3d
       0.03442922 0.012120535 -0.042617172 0.049594145
000040 09 24 3c 3d e7 48 09 3c 0d bb 61 3d 7b dd 4f bd
       0.045932803 0.008379198 0.055110026 -0.05074833
000050 80 6f 89 bd 85 83 2c bd 8d b1 59 bd c9 80 24 3c
       -0.0671072 -0.042117614 -0.05314784 0.01004047
000060 e9 1b cf 3c 44 a4 94 3d a5 b7 42 3d fa 50 8f 3a
       0.025281863 0.07257894 0.04753842 0.0010934167
000070 41 5e 35 bd 35 3f 50 3d cc 08 36 3c 92 a1 d0 bc
       -0.04427934 0.05084153 0.011110496 -0.025467668
000080 9b d3 11 3d ba a4 40 3d b0 21 97 bc ed 7f 5e 3d
       0.035602193 0.047032095 -0.01844868 0.05432122
000090 28 5b 01 bd b5 78 00 bd cf f0 71 bd 89 54 3b 3d
       -0.031581074 -0.031365115 -0.059067544 0.045734916
0000a0 ef 2a 29 bd 32 b2 85 bd 88 e7 9b 3d f7 d1 4f bd
       -0.04130071 -0.06528129 0.076125205 -0.050737347
0000b0 64 e0 ee 3c df 85 97 bc 54 3c b6 bc f9 d8 57 3b
       0.029159732 -0.018496452 -0.022245564 0.0032935722
0000c0 ad ec ee 3c 4d be a8 bb b6 c4 2d bd 7d 00 88 bd
       0.02916559 -0.0051496387 -0.042423926 -0.06640718
0000d0 af 02 d9 3a ac 60 94 3c 0e 00 c7 bc 85 5e 43 3d
       0.0016556586 0.018112503 -0.024292018 0.047697563
0000e0 ae 02 9b bd d0 71 a1 bd 05 36 73 bd 14 89 a5 3c
       -0.075688705 -0.07883036 -0.05937769 0.020206966
0000f0 1a 5a 0a 3d 15 23 60 bd 8e 7e 9f bd 54 f2 2e bd
       0.033777334 -0.054720957 -0.0778781 -0.04271157
000100 34 a3 c0 3c 94 8c ce bb 51 28 4a bd 77 be 0e 3d
       0.023515321 -0.0063033793 -0.049354855 0.03484961
000110 c0 fe 55 3d aa db 96 3d 75 d6 23 bd db eb 9f 3d
       0.0522449 0.07366116 -0.039999444 0.07808658
000120 c2 9f aa 3b bb 53 80 3d 43 16 d2 bc f1 be 0f bd
       0.005207033 0.0626597 -0.02564538 -0.035094205
000130 b0 cc c9 bc 1b 96 1a 3d 6a db 1d bd a2 b9 6f bd
       -0.024633735 0.037740808 -0.038539328 -0.058526643
000140 41 cb 25 bc 2c 15 ae 3b de 3a 44 3d e8 d6 32 3c
       -0.01011926 0.0053125825 0.047907703 0.010915495
000150 d4 8a ea bc fe 44 eb 3c c5 4d 16 3d 49 6c b2 3c
       -0.028630652 0.028719421 0.03669526 0.02178015
000160 dd 71 cd bc 3d 8b 29 3d 84 64 6f 3c d7 2e 8a bd
       -0.025078708 0.041392554 0.014611367 -0.06747215
000170 8d 73 1d bd 73 0e 36 bc c0 1d e1 3c 7a 52 17 bb
       -0.038440276 -0.011111843 0.027480006 -0.0023089931
000180 d5 84 6e bd d6 fb 0e bd fd 76 17 bc 51 71 34 3d
       -0.058232147 -0.03490814 -0.009244678 0.04405338
000190 f3 dc 0f 3d 23 ad 9b bd aa 49 e9 3c fb 1b a2 bc
       0.035122823 -0.076013826 0.028477509 -0.019788733
0001a0 06 5b 8b bd 51 9c 3f bc ac 10 55 3b fc 84 62 3c
       -0.06804471 -0.011694984 0.0032511158 0.013825651
0001b0 21 38 04 3d 96 dc 70 bd bb 45 31 bd 7f 85 b4 3c
       0.03228009 -0.058804117 -0.04327939 0.022036312
0001c0 a5 0d 5b 3d f3 9c 4d 3c e4 2c b3 3c e0 c3 88 3d
       0.05347981 0.012549627 0.021871991 0.06677985
0001d0 41 91 77 bd eb e6 f4 3c ff 0d 8d bd f3 7e 82 bc
       -0.06044126 0.029895267 -0.06887435 -0.015929675
0001e0 e3 44 5a 3d 61 37 8c bb c3 a3 9b 3d 46 2b 93 3b
       0.05328835 -0.0042790626 0.075995944 0.0044912426
0001f0 7d 35 bb 3d f0 f6 e4 bb a8 ad 8d 3d a2 06 75 bd
       0.091410615 -0.006987445 0.06917888 -0.05982078
000200 ab d5 5a 3b b8 68 4e 3d 39 aa 91 3d 5b ba 1d 3c
       0.0033391516 0.050392836 0.071125455 0.00962695
000210 cc 85 52 bd 26 af 1e bd 6b 6c a1 bd 85 c0 15 bd
       -0.05139713 -0.038741253 -0.07882007 -0.036560554
000220 78 4f c7 3c 08 a8 bd bd 8d 19 4c 3c e7 1c c2 3b
       0.024329886 -0.09260565 0.012457264 0.0059238556
000230 95 e6 9d 3d 1a 7f 48 3d 87 1a 95 3d 87 0b 75 3c
       0.07709996 0.04894934 0.0728045 0.014956362
000240 2b 84 29 bc 65 17 64 bd 23 6a 1d 3d 87 f6 38 bb
       -0.010346453 -0.055686373 0.038431298 -0.0028223114
000250 12 57 d8 bc f4 fa 9f bd 2e ad 84 bd 23 cb b2 bb
       -0.026408706 -0.078115374 -0.06478344 -0.0054563447
000260 c9 40 8f bd 11 ce 59 bd 0f e3 cb 3c 50 05 80 bc
       -0.06994779 -0.053175036 0.024888543 -0.015627533
000270 8f 3a c4 bc 2c 82 66 bd 78 26 48 bc 54 82 bc bc
       -0.023953704 -0.056276485 -0.012216203 -0.023011364
000280 8d 4f 06 3a 41 37 85 bd 46 d6 90 bc 36 b9 46 3d
       0.00051235483 -0.065046795 -0.017680299 0.048516475
000290 3d e1 32 3d f7 b4 98 3d 7f 10 61 bc 28 f4 13 3d
       0.043671835 0.07456391 -0.013736843 0.036121517
0002a0 70 08 d5 bc c4 f3 29 bd 04 5a 2c bc e6 fd 13 3d
       -0.026005 -0.04149224 -0.010519508 0.03613081
0002b0 5c cb aa bd 42 86 03 3c 1d 41 11 3d ef 26 9a 3d
       -0.08339569 0.008027615 0.035462487 0.07526957
0002c0 5a 6d 80 3d 82 37 30 3d 44 2a 95 3d 04 94 a1 3d
       0.06270857 0.043021686 0.07283452 0.0788956
0002d0 30 2a 51 3c 93 62 d0 bc 8b ee 8a 3d 7c bf f8 bb
       0.012766406 -0.025437629 0.0678378 -0.007591186
0002e0 5a e9 0b 3d 58 0c 4e bb 75 5a b7 bd 47 2c 2c bd
       0.03415809 -0.0031440463 -0.089528 -0.042034414
0002f0 3b f0 a8 bd d9 73 93 bd 45 8e 4b bd d8 25 c8 bc
       -0.08248945 -0.071998306 -0.049696226 -0.024432108
000300 70 fe 55 3c 93 97 51 bd 6f c3 02 bd 3e 25 a4 bd
       0.013061151 -0.051169943 -0.03192466 -0.08014916
000310 ab c7 a0 bd 48 72 82 bd 4e e2 a1 3d 4e db 3b bd
       -0.07850584 -0.06369454 0.07904492 -0.045863442
000320 e7 dc 4b 3d 95 0a c5 38 a7 5b 83 bc 1b 39 b8 bc
       0.049771216 9.395663e-05 -0.016034914 -0.022488168
000330 dd da 5c bd 75 af 2d 3b 36 f6 c3 bc 0b 75 a2 bb
       -0.05391966 0.0026502286 -0.023921113 -0.0049578003
000340 ab 88 4f bd 16 0d 4c bd 5a 1e 0c 3d 2c f3 1e bd
       -0.050667446 -0.049817167 0.034208633 -0.038806126
000350 22 60 8c 3d 34 f7 14 bc 0a 5f 91 3d 45 2f 83 3d
       0.068542734 -0.009092141 0.070982054 0.064055
000360 fc 2b 91 bd 1b 7b a7 bd 1b bd 62 3d f2 c0 55 bd
       -0.070884675 -0.081777774 0.055356126 -0.05218596
000370 06 01 bb bc 64 df 9b 3c 48 b2 ae 3c 88 1a 47 bd
       -0.022827636 0.01902742 0.021325245 -0.048609287
000380 6d f9 c5 bb c4 10 97 3d ed 70 84 bc 94 03 57 bd
       -0.0060416968 0.07376245 -0.016167128 -0.052493647
000390 2c e2 b4 3c 56 d7 a8 3d b6 92 84 bc 7d e6 50 bd
       0.022080503 0.08244197 -0.016183238 -0.05100106
0003a0 b3 d0 79 3d 7e 9a 72 bd 63 36 dd bd e3 2e 13 bc
       0.060990047 -0.059229366 -0.10801389 -0.008983347
0003b0 7b 17 8a bd d8 a3 ce bc aa 93 fc bc 06 71 41 bd
       -0.0674276 -0.025224611 -0.03083213 -0.04722693
0003c0 18 2e 48 3d 25 e6 15 bd 2f 3d 8a bd 4e 3b 69 bd
       0.048872083 -0.036596436 -0.06749951 -0.056941323
0003d0 6d 74 44 3d 84 83 f3 3c 56 f6 5a 3d 7f a4 07 3c
       0.047962595 0.029725797 0.05345758 0.008278965
0003e0 b7 0d 0b bd e9 e7 20 3d 7f 6a 0a 3d 7e aa 8a 3d
       -0.033948626 0.039283667 0.03379297 0.067708
0003f0 2e bc fc 3c 37 15 7a bd bb 08 2c bd e4 21 8f bd
       0.03085145 -0.06105539 -0.042000514 -0.06988886

layer1.2.bias f4 [32]
000000 90 96 b8 bd e3 df d2 3c b4 3a 3c bd 69 68 ee bc
       -0.090130925 0.025741523 -0.04595442 -0.029102521
000010 15 d6 c2 3d ff ca 5f bd 7b 08 a2 3c e0 9a 82 bd
       0.09513489 -0.05463695 0.019779434 -0.06377196
000020 9d aa 01 3d f3 c4 71 3d 88 dd d0 3d 5c 50 c5 3d
       0.03165685 0.059025716 0.10198504 0.09634468
000030 dc de 4b 3d 4a 26 06 3d f8 8d 0a 3d 1b 1b 94 3d
       0.049773082 0.03275136 0.0338268 0.072317325
000040 af 9a 47 3d 7b ab 7c bd e9 6d 65 3c 62 9f f5 3c
       0.048731502 -0.061686974 0.014003255 0.029983226
000050 3e 44 21 bc c0 e1 9b bd fa 03 23 3d b3 28 90 3d
       -0.00984293 -0.07611418 0.039798714 0.07039013
000060 e4 b6 a9 3c 72 45 a6 bd 81 43 74 bc 7b 4e b9 bb
       0.020717092 -0.081187144 -0.014908672 -0.0056551076
000070 3b 95 85 bd be 17 24 bd 93 62 c6 3c 1c d8 97 bc
       -0.06522604 -0.040061705 0.024216926 -0.018535666

layer1.3.weight f4 [32, 32, 6, 1]
000000 2c 14 ff bc cb 7d 7b 3d 86 5f 3f bd 64 08 1c bd
       -0.031137548 0.061399262 -0.046721958 -0.03809394
000010 76 8d 9b bd fd 61 6c bd f7 c9 34 3c f7 4a 67 bd
       -0.07595341 -0.057710636 0.01103448 -0.056467976
000020 4d 2a 27 bd 83 a6 70 bd ab 1f 6f 3d 58 b2 cf bb
       -0.040811826 -0.058752548 0.05837981 -0.006338399
000030 57 fb 33 3d 00 48 c4 bc 2a 8a 3b 3d 20 b8 63 bd
       0.04394087 -0.023960114 0.04578606 -0.055595517
000040 34 82 0b 3c 91 da 86 3a 1f a4 65 bd 09 f6 06 3d
       0.00851493 0.0010288527 -0.05606472 0.03294948
000050 b5 60 97 3b 59 dd 80 bd 21 e2 66 3d 8f b7 46 bd
       0.0046196827 -0.06292219 0.056367997 -0.0485149
000060 db 08 8d bc 90 bb b8 bc 53 1d 44 3d 61 88 b3 3c
       -0.017216137 -0.022550374 0.04787953 0.021915616
000070 6e 81 99 3d f6 80 6c 3c dd 44 ed bc c4 24 53 bd
       0.0749539 0.014435044 -0.0289635 -0.051548734
000080 14 1c f9 3c c0 57 2c 3d 67 b7 78 bc e3 bf ce 3c
       0.030408897 0.042075872 -0.015180445 0.025237983
000090 e7 7f ef 3c 06 d3 85 3c 27 d2 56 bd 40 cc e0 3c
       0.029235793 0.016335975 -0.05244651 0.027441144
0000a0 b2 e7 b4 bc a6 04 bd bb 56 74 50 bd 9a f4 66 bd
       -0.022083137 -0.0057683764 -0.050892197 -0.056385614
0000b0 e9 00 7a bc e9 99 69 3d c8 f1 87 bc 3d eb 00 bb
       -0.015259006 0.057031546 -0.016594782 -0.0019671463
0000c0 6f 90 8d 3d 56 73 90 bc 02 42 7d 3c 4b 3f 94 bc
       0.06912314 -0.017633121 0.015457632 -0.018096587
0000d0 21 35 51 bd 31 77 23 3d 80 32 3e 3d 9c 96 48 bd
       -0.05107606 0.03990859 0.04643488 -0.048971757
0000e0 77 1b b3 bb 51 d5 56 3c 57 0a ee 3c e5 15 b8 3c
       -0.0054659205 0.013112382 0.029057665 0.022471378
0000f0 8e f1 93 bc 7e 47 71 bd fd 46 99 3d 15 1d 98 3c
       -0.018059518 -0.05890607 0.07484243 0.018568555
000100 a1 95 2a 3d a4 2b 01 3b 7b 90 9a 3c 92 b3 83 bd
       0.041646603 0.001970985 0.018867722 -0.06430735
000110 f9 43 91 3d e9 79 6d bd 45 20 ae 3c e3 ac be bc
       0.07093043 -0.05797759 0.021255622 -0.023275798
000120 03 14 76 3d 15 f3 94 3d 15 7f 07 bd 59 f7 34 3d
       0.06007768 0.07272927 -0.03308018 0.0441812
000130 fb d8 27 3d a9 0e 94 3c 81 ff a0 bd 35 5c 89 bd
       0.040978413 0.018073397 -0.078612335 -0.0670704
000140 a6 9a 6f bd fa d5 a1 bd 08 c4 6f bd 67 2a 00 bc
       -0.058497094 -0.07902141 -0.05853656 -0.0078226095
000150 12 05 24 3d 6e 7b 70 bd 2d 35 8c 3d be a0 d3 3c
       0.040043898 -0.05871146 0.0684608 0.025833484
000160 ae 1f 21 3d d6 29 20 3d 32 2e d2 bb 00 94 9b bc
       0.039336853 0.039102398 -0.0064141983 -0.01899147
000170 f8 55 94 3d f2 b4 aa bc e8 9a 1d 3d 1e 72 9a bc
       0.0724296 -0.020838235 0.03847781 -0.018853243
000180 61 2d 6e bc 9a ea a0 ba 4b 2f 8d 3d 2c 3f c9 bc
       -0.014537186 -0.0012276948 0.06893786 -0.024566256
000190 a5 f1 5d 3c 59 72 7c 3a 37 9d 7c bd 00 a1 a6 bc
       0.013546382 0.0009630076 -0.06167337 -0.020340443
0001a0 ab 3b a0 bd 9d 70 aa bc 8b 02 f6 bc c3 9b 70 bd
       -0.07823881 -0.020805651 -0.03003051 -0.058742296
0001b0 82 f3 a3 3c c9 6c 3f bc 29 35 28 bd 1e b6 28 bd
       0.020013575 -0.011683651 -0.041066322 -0.041189305
0001c0 96 5f 98 bd 28 59 32 bd 6f 91 78 3d 30 7c eb 3c
       -0.074401066 -0.043542057 0.06068557 0.02874574
0001d0 91 bf bd bc ed fb 83 3d 4d 26 0e 3d 23 83 d9 bc
       -0.023162635 0.064445354 0.034704495 -0.026551789
0001e0 8d 81 2e bc d3 a9 80 3d b6 8b 86 3d 5b 5d 28 bd
       -0.0106510045 0.062823914 0.065696165 -0.041104656
0001f0 a6 2e 1a 3d 18 f7 90 3c 01 3b 27 3d a4 b8 a1 3b
       0.037642144 0.017695948 0.040827755 0.004935341
000200 0c bb a0 3b 7d 07 90 bd 12 6c 83 bd c3 4a 13 3d
       0.00490511 -0.07032678 -0.06417097 0.03595997
000210 f6 9c 09 bd fd b5 95 3d 49 8c 0f bd 90 8f 92 3c
       -0.033596955 0.07310102 -0.035045896 0.017890722
000220 21 09 50 bd 85 0f 7a 3d f5 c0 0d bd 1d 1d 7e 3d
       -0.050789956 0.061049957 -0.034607846 0.062039483
000230 df a0 54 3c 6a bb 86 3d 3c 38 9f 3c b2 eb 97 bc
       0.012977808 0.06578715 0.019435994 -0.018545005
000240 c1 10 35 bc 92 9a 8f bc d1 c0 66 3d ef e0 3c 3d
       -0.011051358 -0.01752976 0.056336228 0.04611295
000250 d7 d2 69 3c 97 41 0f bd 9e bb 9b 3c 0e b3 b3 bb
       0.01427146 -0.03497466 0.019010361 -0.0054839915
000260 00 df 1a 3c 53 02 75 bd 9e ae 7d 3d 17 1e 04 bc
       0.009452581 -0.05981667 0.061934106 -0.008063815
000270 32 ad 79 bd 0b e6 33 bc ef 78 05 3d b4 7e 2b 3d
       -0.060956188 -0.0109801395 0.032586034 0.04186888
000280 d0 50 80 bd 08 50 3e 3d 8e 2d 68 bd 2f 06 cd bb
       -0.06265414 0.046463042 -0.05668407 -0.0062568407
000290 e3 eb ef bb f6 73 25 3d 2b 6d 8b 3c 5e e0 69 bc
       -0.007321821 0.040393792 0.017019829 -0.014274685
0002a0 ac dd 0a 3c 1a c2 ce 3c ba 3b cd 3c 40 6e cc 3a
       0.008475702 0.02523904 0.025052894 0.0015596822
0002b0 e7 61 48 bc 50 47 59 bc 80 73 d6 bc a2 f5 95 bd
       -0.012230373 -0.013261631 -0.026178122 -0.07322241
0002c0 16 e6 70 3c ff a5 0c bd 73 5c 6e bd 7e 3b 0a 3d
       0.014703294 -0.034337994 -0.058193635 0.033748142
0002d0 b8 0e b1 3c bd 92 f5 bc 99 3e 72 bd 30 0e 59 bd
       0.021613464 -0.029977197 -0.05914173 -0.052992046
0002e0 2f 81 80 bd 83 27 e9 bb 85 f4 87 3d bc 95 86 bb
       -0.0627464 -0.007115306 0.06638435 -0.004107205
0002f0 42 ee 03 3d 7a da 5e bb fb 93 64 bd 17 58 63 3d
       0.032209642 -0.0034004734 -0.055805188 0.05550393
000300 6b 03 b8 bc 1d 01 0f 3b 1c ca 5b 3d 5c d4 bf 39
       -0.022462567 0.0021820732 0.053659543 0.0003658858
000310 91 12 f3 3c c3 45 7f bd d5 9a 7c bb 2f 21 09 3d
       0.02967194 -0.06232239 -0.0038544436 0.033478912
000320 dc d7 6e 3b 8c 81 a1 3d 18 43 a5 bc 64 45 51 bc
       0.003644458 0.07886037 -0.020173594 -0.012772892
000330 b4 11 27 3c de 19 6a 3c 1b 52 47 bd ca b2 30 bb
       0.010197092 0.014288394 -0.048662286 -0.0026962035
000340 9d a2 60 bd 63 16 c1 bd 16 d1 7e 3d e8 74 83 bd
       -0.05484258 -0.09428098 0.06221112 -0.064187825
000350 34 16 ab 3c a2 fb 65 bd b6 1e 02 bd 03 01 89 3d
       0.02088461 -0.05614818 -0.03176757 0.06689646
000360 cf 3d 49 3d 97 8f cb 3c 0e 06 22 3d ae b1 73 bd
       0.04913121 0.024848742 0.039556555 -0.05949562
000370 b8 d3 13 3c cc db 9d 3d 45 9a a8 3d 26 4c 8a 3d
       0.009022646 0.077079386 0.082325496 0.067528054
000380 04 bf 85 bd 60 5a 44 3d b4 cb 95 3c 17 73 e6 38
       -0.06530574 0.04793775 0.01828561 0.00010988692
000390 57 8c e9 3c 47 10 1c bd 13 7a 2b bc d3 9c 65 bd
       0.028509302 -0.03810146 -0.0104661165 -0.056057762
0003a0 55 f1 84 3d cc 75 80 bd 4c a2 9f bb 69 43 0e 3d
       0.06491343 -0.06272468 -0.004871642 0.034732256
0003b0 9a 6c 81 bd 0a a8 0e 3d ba 8f f8 3c 39 8b 52 3d
       -0.06319542 0.034828223 0.030341972 0.051402304
0003c0 ff 1c 02 bb 53 8b e4 bc d9 a0 d6 bc 72 85 48 3d
       -0.0019853709 -0.027898466 -0.026199745 0.04895539
0003d0 96 14 e6 bc ad 53 b3 3a b0 58 6b 3c 96 11 05 3d
       -0.028085988 0.0013681554 0.0143644065 0.032487474
0003e0 6f 66 f5 bc 15 4d 98 3c 0f 1d 59 bd 8b ab 98 bd
       -0.02995607 0.018591443 -0.053006228 -0.07454594
0003f0 c9 cd 23 bb 5b 51 31 3d d4 49 70 3d c8 bb 52 bd
       -0.0024994484 0.043290477 0.058664158 -0.051448613

layer1.3.bias f4 [32]
000000 02 e7 89 3d 0a 05 ce 3c 35 d6 64 bc 44 72 cf bb
       0.06733514 0.025148887 -0.013967087 -0.00633076
000010 7c cb 92 bc 10 86 01 3d 27 2a cb 3d 61 63 90 3d
       -0.017919295 0.031621993 0.09920149 0.07050205
000020 59 e4 7c 3d 93 e0 97 3d 0e c5 c6 3d de 38 9a 3d
       0.061741207 0.07415881 0.09705554 0.07530378
000030 77 7e 60 3d f6 3d 91 3d 11 dc 61 b9 4b 35 ae 3d
       0.054808106 0.07091896 -0.00021539653 0.085062586
000040 79 8a ae 3c 03 9d 92 3c e1 84 3f 3d 7e 90 87 3d
       0.021306263 0.017897135 0.046757583 0.066193566
000050 2a b5 32 3d 71 be f4 3c d9 6c 2b 3d 14 58 8d 3d
       0.043629803 0.029875966 0.041851852 0.06901565
000060 f5 72 04 bd ea 17 06 3d 03 97 09 bd 5f 64 25 3d
       -0.032336194 0.03273765 -0.03359128 0.040378924
000070 b5 fb a1 3d 88 86 d9 3d 98 8a 9e bb 1e 69 b7 3d
       0.079093374 0.10621363 -0.004838299 0.089555964

lstm1.weight_ih_l0 f4 [256, 480]
000000 39 38 81 3d bf 68 6f bd 47 64 99 bd 86 e9 e0 3c
       0.06309552 -0.058449503 -0.074898295 0.027455103
000010 11 ed f6 3b 6d 66 04 3b 1e 00 d8 bd ca 3e 91 3d
       0.0075355847 0.0020202652 -0.10546897 0.07092054
000020 87 95 89 bd b4 ec ea 3d 55 97 fa 3d b4 73 e3 3d
       -0.06717973 0.11470929 0.122358955 0.11106053
000030 26 31 0e 3e 99 85 a6 3d 77 c6 b6 bd 04 b8 b3 3c
       0.13885936 0.081309505 -0.08924573 0.021938331
000040 4c d1 6f 3d c6 2a b8 bd 8c 12 d8 3d 25 c3 2b 3c
       0.05854921 -0.089925334 0.105504125 0.010483538
000050 a4 c0 18 3d b9 ce c7 3d 7f 3d fb bd 85 dc 0a 3d
       0.03729309 0.09756226 -0.12267589 0.03390171
000060 67 6c b2 bd f4 ff 22 39 4d 12 90 3d 74 a8 e8 3d
       -0.08712082 0.00015544874 0.070347406 0.11360255
000070 c1 b1 94 3d f7 f2 84 bc 9c 78 b4 3d 39 bb b9 3d
       0.07260466 -0.016229136 0.08812067 0.09068913
000080 75 54 c5 bb 79 1e 07 3d f3 0a 68 3d 13 21 81 bd
       -0.006022031 0.032988045 0.056651067 -0.063051365
000090 7e 5d 4e 3d b5 82 14 3b b7 9d de bb 8f 50 b7 bb
       0.05038213 0.0022660915 -0.0067937034 -0.00559432
0000a0 b7 ad 73 bc 38 52 8e 3d 53 ff c7 bd 33 a9 a9 3c
       -0.01487296 0.06949276 -0.09765496 0.020710563
0000b0 33 3f b4 bd ea 9d 46 3d b4 c5 e7 3d 5f 24 2b bd
       -0.08801117 0.048490442 0.11317006 -0.041782733
0000c0 ea 50 a3 3d 57 50 e4 bc 6c 2d f1 3d 11 2b b5 3c
       0.079744175 -0.02787034 0.11776242 0.022115262
0000d0 0d 7f 4c bc 28 ce 43 bd d5 55 75 3b 8d de 25 3d
       -0.012481463 -0.047804028 0.0037435193 0.040495444
0000e0 23 31 1a bd 96 7b 25 bd b0 9c 96 3d 89 da bf bd
       -0.037644517 -0.040401064 0.073541045 -0.09367854
0000f0 b7 ba ba 3d 35 a2 c2 3c 2b e4 ca 3d bf c2 c7 bd
       0.09117644 0.023758987 0.09906801 -0.09753942
000100 22 f3 6f 3d 99 73 d8 3c 22 73 c6 bd ea a5 fd bc
       0.05858148 0.026422309 -0.096899286 -0.030962903
000110 e7 ae 32 bc 08 f3 cc bd 91 96 e1 3d 1c 3c a7 bd
       -0.010905958 -0.10007292 0.110150464 -0.08165762
000120 6b 76 be bd 6b 3f 9b bc 2d c6 f5 bd 21 28 b4 bd
       -0.0929993 -0.018951138 -0.1200069 -0.087967165
000130 bb 06 4f 3d d0 46 20 3c c8 c3 91 3d 03 2e e1 3d
       0.050543528 0.009782508 0.071174204 0.10995104
000140 37 c4 cc bd 98 5f ab 3d 79 d0 0a 3b d3 1e 8b 3d
       -0.099983625 0.083678424 0.0021181388 0.06792989
000150 70 50 b0 3d 2c e8 23 3d 91 18 99 bd f0 88 ea bc
       0.08609092 0.04001634 -0.07475389 -0.02862975
000160 ba d4 eb 3c 1c 90 ce bd 6a 3a 91 bd 72 dd 49 3d
       0.02878796 -0.100860804 -0.0709122 0.049283452
000170 74 03 47 bd c2 6f cf 3d ef f6 c7 bd 15 55 cf 3d
       -0.048587278 0.10128738 -0.09763896 0.1012365
000180 5f fe 55 bb 8b 24 e4 3d 49 5b 8d 3d 71 27 b6 bd
       -0.0032652838 0.111397825 0.06902177 -0.088942416
000190 0f b4 bd bd 0c 3d 1f bd da ee 7a bd 9b 9a 3b bc
       -0.09262859 -0.03887658 -0.061262943 -0.011450435
0001a0 1b d4 5f 3c 48 ea d8 3d 70 f2 6d 3d bc 83 13 3d
       0.01366141 0.105915606 0.058092535 0.036014304
0001b0 00 11 c9 bc 33 36 be 3d 88 c6 c8 bd f4 6f 82 bd
       -0.024544239 0.092876814 -0.09803492 -0.063690096
0001c0 3b 61 a6 3c fa ef f4 bc d6 54 cc 3d 9f ba 0f 3d
       0.020310035 -0.029899586 0.09977119 0.035090085
0001d0 35 75 91 bd 85 3d 6a 3d dc a2 3b bd 88 cc 00 3d
       -0.071024336 0.057187576 -0.04580961 0.031445056
0001e0 99 3e e9 3d 45 7d b3 3d 33 8b 39 bd f8 c8 45 bd
       0.11388893 0.08764128 -0.045298766 -0.04828736
0001f0 2b 86 0a bd 93 7b 82 3d d1 cf 9a bd a2 50 39 bd
       -0.03381936 0.06371226 -0.07559169 -0.045242913
000200 c1 78 e6 3b bc 0e bf bd c7 e9 8c bd 64 04 9d 3d
       0.007033438 -0.09328982 -0.06880527 0.07666853
000210 cd e7 ba 3c b6 a0 9f bd 62 dc 51 3d 32 ed b7 bd
       0.02281561 -0.07794325 0.051235564 -0.08980788
000220 60 01 c7 b9 ef e6 c8 bd d6 c4 21 3d 98 60 1d 3d
       -0.00037957262 -0.09809672 0.039494358 0.038422197
000230 a4 8c 80 3d 34 51 ca bd 5f 43 e9 3d 94 66 67 bd
       0.06276825 -0.098787695 0.11389803 -0.05649431
000240 d2 b5 4c 3c f4 bb ec bb f5 19 04 3d 1c 3c 20 bb
       0.012494521 -0.007224554 0.032251317 -0.002444989
000250 35 b6 bf bd 45 ac 57 3d 48 d3 5c 39 c2 b5 b4 3d
       -0.09360925 0.052654523 0.00021059543 0.0882373
000260 e4 1e e6 bd 6a c9 da bd da 4d 9a bd 76 bb 3f bd
       -0.11236361 -0.10682948 -0.0753438 -0.046809636
000270 e0 19 6d 3d cf 06 38 3d 7a ab 62 bb 5f 29 81 bd
       0.057886004 0.04492837 -0.0034587071 -0.06306719
000280 1b 24 ee 3d e3 8e a4 3d 2b 2b fd bd 99 5b ae 3d
       0.1162798 0.08035066 -0.12361749 0.085135646
000290 d8 69 f6 3a ea 2c dd bd bd e7 5c 3c 58 f9 a1 3d
       0.0018799854 -0.10799582 0.013482985 0.07908887
0002a0 6e d9 97 bd db 4b d7 bd 31 98 b7 3d 90 8f 19 3d
       -0.07414518 -0.10512515 0.08964575 0.037490427
0002b0 0b a8 c8 b9 46 76 30 bd 52 15 ae 3d bf 6f 46 bc
       -0.00038272174 -0.043081544 0.0850016 -0.012111603
0002c0 58 0e 74 3c 67 af 7b 3c ef 5e c3 bd 1a 6c f4 bc
       0.014895998 0.015361643 -0.095395915 -0.029836703
0002d0 77 dd e3 3d 43 e9 62 bd 96 72 51 3d b3 ca 8f bd
       0.111262254 -0.055398237 0.05113467 -0.07021084
0002e0 55 8d cf bd 24 ce bc bd a7 fb 85 3d 9c 51 3e 3d
       -0.10134379 -0.09219006 0.065421395 0.046464548
0002f0 d8 c5 8d bd 0b 3b e3 3d fa 9a c1 bc 06 06 d2 3d
       -0.06922501 0.11095246 -0.023633469 0.10255055
000300 ba 97 b0 3d 72 0e b6 3c ab 52 89 3d a0 20 80 3d
       0.086226895 0.022223685 0.06705221 0.06256223
000310 4d b9 e4 3d de b9 01 3b ca 04 e5 3d 2d f9 a5 bd
       0.11168156 0.0019794623 0.11182554 -0.08104167
000320 a1 9a cf bd 87 f3 c5 3d 9c fa af 3d 52 1d 1f bd
       -0.10136915 0.0966559 0.08592722 -0.03884632
000330 55 92 b0 3d be 3f c7 bd c0 54 9d bc 88 93 d3 3d
       0.086216606 -0.09728955 -0.019205451 0.10330874
000340 7e 68 dd bd ba 24 f8 3d 4e 3a b1 3d e7 a9 8a 3d
       -0.10810946 0.1211638 0.08653699 0.067706876
000350 f9 26 de 3d db a5 87 3c cc 93 9a bd 32 63 ad bd
       0.10847277 0.016558578 -0.07547721 -0.08466186
000360 11 3b ac bc 7d ad de bd cf 03 f3 3d 8a e7 dc 3d
       -0.021024259 -0.10872934 0.11865961 0.1078635
000370 19 3d 07 bd 3a 9d 7d 3c 56 5f bb bd 8f b7 9e 3d
       -0.03301725 0.01547938 -0.09149043 0.07749855
000380 8a 1b 52 3b ad 2e ea 3c 11 e3 4f 3d f0 a9 c5 bc
       0.0032059872 0.02858671 0.050753657 -0.024128884
000390 67 bf bd 3d 43 95 84 3c 74 a1 6d bd f5 b9 08 3d
       0.09265023 0.016184455 -0.0580153 0.033380467
0003a0 1c b2 fd 3d 71 ee 92 bd 8a b9 ad 3d 1e 71 c3 bd
       0.12387487 -0.07174385 0.084826544 -0.0954306
0003b0 8d d1 50 3d 94 02 c4 3d 09 5b 51 bc 60 a8 8a 3d
       0.050981093 0.09570804 -0.012778052 0.06770396
0003c0 7b 47 14 3d 60 36 e4 bd 49 b2 3b 3d f4 99 69 bc
       0.03620098 -0.11143184 0.045824323 -0.014257897
0003d0 46 fa f5 bc 95 c2 9f 3d 67 27 87 3d e2 3a 89 bd
       -0.030026566 0.078007855 0.06599312 -0.06700684
0003e0 c0 a2 28 3d b1 89 1e bd 5f 16 d8 bd 19 0a e8 bd
       0.041170835 -0.03870553 -0.10551142 -0.11330051
0003f0 56 90 1e bd f1 4f 58 3d 2b 64 3b bd 3f 06 ee 3d
       -0.03871187 0.052810613 -0.045749824 0.11622285

lstm1.weight_hh_l0 f4 [256, 64]
000000 bf 12 f0 bd 72 66 bc 3d 7b 78 c4 3c c1 d0 4d bd
       -0.117223255 0.091992274 0.02398323 -0.05024791
000010 9a 8a 04 bc bb 8f 84 3d 38 7d 14 bc 26 9e 81 bd
       -0.008089686 0.06472727 -0.009063058 -0.063289925
000020 ab e6 af 3d 11 d0 90 3d 01 e1 6d bd a8 e6 59 bd
       0.08588918 0.070709355 -0.05807591 -0.053198487
000030 3b 91 03 3d 4c 4b 90 3d ed 4e 9c bd c9 45 20 3c
       0.032120924 0.07045612 -0.076322414 0.009782263
000040 7e ec 56 bd 5c 8c d9 bd 54 c6 ce bd 6c 89 3a bd
       -0.05247163 -0.106224746 -0.10096422 -0.045541212
000050 5f 4d 6a 3d 42 97 ef bc 71 e3 bd 3d 76 66 d1 bd
       0.057202693 -0.02924693 0.09271897 -0.10224621
000060 8a c0 a2 3c 94 0b 82 3d 28 6e 9c 3d 7c 85 fb bd
       0.0198672 0.063498646 0.07638198 -0.122813195
000070 3f dd 40 3d a9 2e f8 3c 26 ab 80 bd 35 e2 14 3d
       0.047085997 0.030295687 -0.06282644 0.03634854
000080 70 5c 8d 3c 7a 6d cd 3c 9d 5c 93 3d ef 88 2d 3c
       0.017255992 0.025076617 0.07195399 0.01059173
000090 32 13 48 3d 45 4a ee 3d a9 fb c9 3d d3 51 94 bd
       0.04884643 0.116352595 0.098624535 -0.07242169
0000a0 c0 fe fc bd 13 86 98 bc e7 e0 c3 bd d3 85 fa bd
       -0.12353277 -0.01861862 -0.09564381 -0.12232556
0000b0 2d 3f 56 3d ee a5 f3 bd 97 9f 6b bc ac dd 1e 3d
       0.052306343 -0.11896883 -0.014381311 0.03878562
0000c0 b9 01 92 3c f1 6f 9a 3d 22 44 10 3c 39 4f de bd
       0.017823087 0.075408824 0.008805307 -0.10854954
0000d0 e4 cd c7 3d cc 6c 33 bd a4 1b c0 3d b3 57 0f bd
       0.097560674 -0.04380493 0.09380272 -0.034995746
0000e0 65 89 8a 3d 62 c8 ea 3d 7e b8 7e bd b0 f3 f9 3c
       0.06764487 0.11464001 -0.062187664 0.030511707
0000f0 24 f8 73 bd b0 98 af bd 9e 1b 62 3d e1 31 a8 3d
       -0.059562817 -0.08574045 0.05520212 0.08212639
000100 dd 05 bb bc 65 e4 bc 3d 66 39 18 bd 5c 08 9f bd
       -0.022829944 0.0922325 -0.037164114 -0.07765266
000110 5c 55 62 bd e6 36 e9 bd 4a 94 f0 bd 63 7b 84 bd
       -0.055257186 -0.11387424 -0.11747034 -0.06468847
000120 a8 47 58 bd 18 c1 83 bd af 8a 34 3d 63 66 a5 bd
       -0.05280271 -0.06433314 0.04407757 -0.08076169
000130 23 12 a4 bd 80 27 8d 3d a8 cc a9 3d fb 0f b0 bd
       -0.08011272 0.068923 0.08290988 -0.08596798
000140 16 2c d4 3d 4f fc 30 3d eb b2 3a bd f0 0a 75 bd
       0.10359971 0.04320937 -0.045580786 -0.059824884
000150 77 8a b8 bd fc 3f eb 3d f9 a3 a2 3d 05 de 05 bd
       -0.09010785 0.114868134 0.079414316 -0.032682437
000160 25 c9 3b bd e3 ee c5 bd 90 28 3e 3d 0c 40 bb 3d
       -0.045846123 -0.09664705 0.046425402 0.09143075
000170 0e 50 05 39 91 6b fb 3d c5 49 cf 3c 14 9e 80 bd
       0.00012713691 0.12276376 0.02530373 -0.06280151
000180 ef 21 f1 bc 0e b2 2d 3d 13 55 ec bd 92 6f 35 3d
       -0.029435126 0.042406134 -0.11539664 0.044295855
000190 da 92 af 3c f5 a0 c6 bd 20 01 0a 3d fd 6e b2 bd
       0.021432329 -0.09698669 0.03369248 -0.087125756
0001a0 9a e3 98 bc da 26 89 bd 13 e3 95 3d 5a aa 96 3d
       -0.018663216 -0.066968635 0.073187016 0.07356711
0001b0 89 3c 0e bc 4d 9f d3 3d 73 1b 3a 3d 90 d3 dc bd
       -0.008681425 0.103331186 0.045436334 -0.1078254
0001c0 46 e7 f9 3d de 0b 0d 3d 67 cd 28 3d 02 3a 37 3d
       0.12202315 0.034435146 0.041211512 0.044733055
0001d0 46 e3 b9 3d 03 c9 ba bd 7d 3f 11 bd 83 b2 e4 3d
       0.09076552 -0.09120371 -0.035460938 0.11166861
0001e0 df 56 8d 3c dc e8 a8 3d 23 ca b9 3d d1 31 e4 bd
       0.017253337 0.082475394 0.09071758 -0.11142314
0001f0 30 74 49 bd b1 0a 93 3c 3c 0c f8 bd d6 4f 10 3d
       -0.04918307 0.017949434 -0.121117085 0.035232387
000200 fa 62 68 3d 74 b0 d0 bd 4f 8b fe bd 4a f6 3c 3d
       0.056735016 -0.10189906 -0.12428915 0.046133317
000210 6f f8 5a bd d5 48 ab bc d7 b2 85 bd e2 73 e7 3d
       -0.05345958 -0.020908752 -0.065282516 0.113014
000220 d1 bc bc 3c a6 22 94 bd 9b 52 9d 3d f6 a5 a6 3d
       0.023039253 -0.07233171 0.07681771 0.08137123
000230 38 79 a4 bd de ff be bc f3 e9 d0 bd 97 bc f8 3d
       -0.08030933 -0.023315366 -0.10200872 0.12145346
000240 93 b6 b4 bd b5 51 a3 bb f0 19 f3 3d 90 e6 12 bc
       -0.08823886 -0.0049841055 0.118701816 -0.008966103
000250 45 16 c2 3d 12 45 d7 bd 0d 5b bb 3d 87 92 98 3d
       0.09476904 -0.10511221 0.09148226 0.07449823
000260 cb 4a a8 3c cc 27 7c bd d1 29 ec bc b2 7f cb bd
       0.020543477 -0.06156139 -0.028828533 -0.09936465
000270 88 44 13 3d e4 00 83 bd 65 d0 cf 3d ba 96 af 3d
       0.03595403 -0.06396654 0.1014717 0.08573671
000280 93 c9 11 3d 06 83 db 3c e3 0e 99 3c 19 8d d8 3d
       0.035592627 0.026795875 0.018683856 0.10573787
000290 02 a8 e9 bd 8e 88 09 bd ad 13 36 bd e4 00 18 bd
       -0.11408998 -0.033577494 -0.044452358 -0.037110224
0002a0 8c 96 d1 3d 0e 03 45 bd 66 a0 d1 3c c0 3b c8 3d
       0.10233793 -0.048098616 0.02558918 0.097770214
0002b0 02 cb 8c 3b 9e 1b b4 bd e7 90 c0 3d a9 50 da bd
       0.0042966614 -0.0879433 0.09402638 -0.10659916
0002c0 78 26 95 ba f8 2f 48 bd 3a de df bc 6c 35 6c 3d
       -0.0011379262 -0.04887387 -0.027327646 0.057668135
0002d0 5d f0 4a bc 04 cf 0f 3b f1 73 a8 bd f4 d4 74 3d
       -0.012386409 0.002194346 -0.08225239 0.0597734
0002e0 b2 71 c9 bc cb 49 86 bd 02 9e b1 3c 57 1f c6 3d
       -0.024590347 -0.06557044 0.02168179 0.09673946
0002f0 47 d9 a7 bd 49 f6 ed 3d 84 87 c2 bc 47 db ec 3d
       -0.08195739 0.11619241 -0.02374626 0.11565261
000300 d6 4b f0 bc 89 d0 08 3c 0f 3e 91 3d c5 af 81 3d
       -0.029333036 0.0083505 0.07091915 0.063323535
000310 d1 0c 8d 3d 8a 91 b2 3d 78 df af bd 77 5c 22 3d
       0.0688721 0.087191656 -0.08587545 0.039638963
000320 fb 0f 13 3b fe 35 b9 3d 83 3a e5 3d fd 62 b0 3d
       0.0022439945 0.09043501 0.11192801 0.086126305
000330 1c 40 d7 3d b9 8d c9 3d a8 7f d5 bd 8d ab df 3d
       0.10510275 0.098414846 -0.10424739 0.109213926
000340 3e 88 11 3d 15 24 c9 bd 20 dc 8b 3d 15 0e 9b 3d
       0.03553032 -0.09821335 0.06829095 0.07571045
000350 52 25 a0 3d fe 80 2b 3d b5 df 41 3d d4 e9 d1 bc
       0.07819618 0.041871063 0.047332484 -0.025624193
000360 3d 60 77 bd d6 25 e5 bd 3f 23 20 bd 27 b9 3e 3d
       -0.060394514 -0.11188857 -0.039096113 0.046563294
000370 9f a7 e8 bb 60 9c f6 3d 75 37 de bd d0 17 8f 3d
       -0.00710006 0.12041545 -0.10850421 0.06986964
000380 da 4c 6c 3d 41 e2 f4 bd 1a 65 13 3d f1 91 c8 3d
       0.05769048 -0.11957217 0.03598509 0.09793461
000390 36 b5 ec 3d 70 3f 50 3d a0 62 31 bc 42 52 ba 3d
       0.11558001 0.05084175 -0.010826737 0.09097721
0003a0 e9 1a d3 3d aa 42 34 3d 52 57 af 3c d3 5f 83 3c
       0.10307867 0.04400889 0.021403942 0.016036903
0003b0 f9 de bc 3c e3 05 7b bd 78 d3 de 3d 8d ce c7 3d
       0.02305554 -0.06128491 0.10880178 0.09756193
0003c0 ed bf 33 3d c3 48 09 3d 37 30 9d bd 1b 5a be bd
       0.043884207 0.033516657 -0.07675212 -0.0929453
0003d0 46 1b db 3d 9c 35 e9 3a b5 2a cd 3b 41 eb 0a bd
       0.10698561 0.0017792466 0.0062611946 -0.03391576
0003e0 db ee a7 bd 29 ea 7b bd 0a 24 0d bb b8 e0 60 3c
       -0.08199855 -0.06150261 -0.0021536374 0.013725452
0003f0 84 18 f8 3d 02 f5 6a bc ab ec 9f 3d ed 66 ea bd
       0.12114051 -0.014340641 0.07808813 -0.11445413
